lab2/models/DeepConvNet_ELU.pth (torch, 616645 bytes, 28 tensors)

Conv0.weight f4 [25, 1, 1, 5]
00000000: d971 e1bd bfa5 e9bd bb8d b0be 81dc d1be
00000010: 1126 a9be 5068 64be 93ca 2bbe bc1f 453e
00000020: ea34 fabd c099 773e c197 913e a6bd 50be
00000030: 5293 403e 8573 ad3e 40f8 8d3d d388 babc
00000040: 3b00 5c3d 17be b33d bbb5 b8be 7286 783e
00000050: 8ce6 4f3e b044 b33e 8d50 cabe 117d 22be
00000060: 36cc 123e efbc 30bc 720b 90be 43f6 013d
00000070: 114e 95be 9d44 90be 9455 a6be b034 dabd
00000080: 69e8 ba3e 000f a1be 2049 60be b400 68be
00000090: 938b 9e3e 849d 49bc b550 94be 4afc ce3e
000000a0: dcd9 883d d72c bc3e 9861 71bc abaa b5be
000000b0: 8b03 0f3e a041 85be 505f 0cbe 3a43 263e
000000c0: fdc9 a43e 8d1c 843e fe4c 923e ce7d d13e
000000d0: 9af6 cc3b 6ddb 8bbe cbf6 b73e e77c 5a3e
000000e0: 2c1e a43e 9ea9 5c3e 96f2 9f3e e133 943d
000000f0: 60a4 acbe 472e c13e f223 723e b65c db3d
00000100: dec7 d2be 0b3a c93d 7dd6 10be fe04 06be
00000110: 7d0c 9abe 6f49 aabd 54c7 5dbe 56ee 8f3d
00000120: 6b03 ec3d f482 473d 05a3 ad3e 4215 bc3e
00000130: 931b eb3d b444 01bd 7425 08bd df84 bd3e
00000140: e647 33be 4ba1 ca3e e2a8 9cbe 6ba2 88be
00000150: 89d6 963e a28c 98be 4377 a73e da4c 23be
00000160: 447e ce3e b9df 38be 7806 9f3e 337f 613e
00000170: fcfc 643e 484b 403d 269a be3e 5045 a4be
00000180: d0df 3abe fd00 47bd 134c 4cbe a9fd 453e
00000190: 8527 62be 05fb 5b3d 8814 c83e 6e04 aebe
000001a0: be56 5a3e 8ff3 893b a8e4 723e 370e a2be
000001b0: a604 cbbe fbda 8c3e 2834 cdbe e75e 31bd
000001c0: d663 f13d 52fb ca3d 120b af3d 5882 163e
000001d0: a758 35be a0b7 89be 3ea3 8f3c df18 0d3e
000001e0: 75c1 77be 548c 70be bffa d83c cc66 8cbe
000001f0: e9cb c83d
-0.11008043 -0.11408567 -0.34483132 -0.40988544 -0.33036855 -0.22305417 -0.16776495 0.19250387
-0.12217124 0.24179745 0.28436092 -0.20384845 0.18806198 0.33877197 0.069321156 -0.022770321
0.053711157 0.08776491 -0.3607615 0.24270037 0.2030279 0.35013342 -0.3951458 -0.15868022
0.14335713 -0.010787233 -0.28133732 0.031728994 -0.29161122 -0.28177348 -0.32487166 -0.106545806
0.3650544 -0.31456757 -0.21902895 -0.22656518 0.30965862 -0.012305621 -0.28967825 0.40426856
0.066821784 0.3675296 -0.014732741 -0.35481772 0.13966195 -0.2602663 -0.13708234 0.16236582
0.32185355 0.25803033 0.28574365 0.40916294 0.006254983 -0.27315846 0.35930476 0.21336709
0.3205427 0.21549079 0.31239766 0.072364576 -0.33719158 0.3773062 0.23646525 0.107110426
-0.41168112 0.09825524 -0.14144321 -0.13087842 -0.30087653 -0.083147876 -0.21658069 0.07027881
0.115240894 0.04870887 0.33913437 0.36734968 0.11479869 -0.03155966 -0.033238843 0.37015435
-0.17507896 0.39576182 -0.30597597 -0.26686415 0.29460552 -0.29794794 0.32708177 -0.15947285
0.40330708 -0.18054093 0.31059623 0.22021179 0.22362131 0.046946794 0.3722698 -0.3208413
-0.1824944 -0.048584927 -0.19950895 0.19335045 -0.22085388 0.053706188 0.39078164 -0.33987755
0.21322152 0.0042099427 0.23720038 -0.3165147 -0.39651984 0.2751082 -0.40078855 -0.043303397
0.1178662 0.09911217 0.08547033 0.1469816 -0.177096 -0.26897907 0.017533895 0.13779019
-0.24194892 -0.23491031 0.026486753 -0.27422178 0.09804518

Conv0.bias f4 [25]
00000000: 780f 9e3c 23e9 bc3c eaf8 f4bd 35e9 cebe
00000010: b023 393e 2b1c ae3d bee3 883e bcdf 9dbe
00000020: 9f55 9c3e 0a02 93be 547f 94be 6917 d5be
00000030: ca94 5a3e 0ff1 163d e391 8a3d 5aae 0dbe
00000040: f0cc 373e a7a4 30be bf34 a83e 25d3 b53c
00000050: 1fd5 b6be 112a b5be 35f5 0d3e c34f 9a3e
00000060: 73ef d23d
0.019294485 0.023060387 -0.11961539 -0.40412298 0.1808002 0.08501466 0.26736253 -0.30834758
0.30534074 -0.28712493 -0.29003394 -0.41619423 0.21345821 0.036850985 0.06766107 -0.13836041
0.17949271 -0.1725031 0.32852742 0.022195408 -0.35709473 -0.35383657 0.1386307 0.30138978
0.102995776

Convs.0.0.weight f4 [25, 25, 2, 1]
00000000: c80c 19bd 3835 2abd da3a e1bd 5b92 d2bd
00000010: 484e ef3d 50db 233d 7928 91bd db38 593e
00000020: 05f7 e53d 4a68 ce3c 8a8a edbd ea97 833c
00000030: 83c2 903d 0e13 883d 6115 483d 1f64 4f3d
00000040: 7187 e5bc fdcf 1abd af85 3d3a ef44 b0bd
00000050: 34b6 9fbc 6401 c5bd 513a c8bd b15c d53d
00000060: c162 76bd b0d8 a1bd 69a6 5b39 17a8 753d
00000070: c378 aa3d a44b 903d 6723 fd3d 48b5 e73d
00000080: cd3b 933c c868 383e 50a6 c03d fd33 1cbe
00000090: 2d1a c1bd 0719 d2bd ab6c 55bd 761d d93c
000000a0: e0bd f63d 3331 d53d fe8f 65bb 07e3 663d
000000b0: 7eeb aebd 4cd2 c93d b539 2abe b8b1 86bd
000000c0: 71e6 51bd 487d a5bd cbdd 8bbd 5fbb a6bd
000000d0: 4983 8f3d a6d2 eb3d 8f26 7f3d 27f6 9b3d
000000e0: 63b7 cb3d 0e05 0bbe 7552 cdbd d494 f63d
000000f0: a12a d73d 110b 9fbc 352d 4b3d c9aa cabd
00000100: 00fe a6bd 6a34 803b 680b bbbd f546 9cbc
00000110: 4f3b 103b fb22 9e3d 4a18 d03d fb4c e2bd
00000120: 4c6c a4bd 398c dabd b3f8 993d bd3a abbd
00000130: c616 033e 9abf c4bd cef2 103d ba42 a03d
00000140: 20cd f9bc a4a8 3bbd f892 a3bd be02 1c3d
00000150: e4e8 953d fa19 93bd 5d07 8a3d 854e 8a3c
00000160: 5ccd 053d 8e0e 51bd 2bc6 76bd 2cf2 833d
00000170: 7418 9cbd 18aa 21be c230 31be f71c d3bd
00000180: 96ca 46bd 0915 043e 544c a7bc 89fe e43d
00000190: 8247 c6bd 1729 06be 560d 99bd c6e0 c2bd
000001a0: 4e4f c03d ba70 28bd c304 24bd a715 87bd
000001b0: 7651 133e e310 6b3d ff94 ca3b 7e34 623d
000001c0: 1f9c 043e 5125 c8bd 5aa5 2f3e 5465 d6bd
000001d0: a9ad a93d 7604 8a3d 222a 24b9 311c c5bd
000001e0: 1ff1 b5bd e482 9fbc 41ad 06be 34c8 69bd
000001f0: f924 02be c35f 7a3d 9336 b53d f198 30bd
00000200: 9bf9 013e 784a 22bc 08f5 353d d718 bdbd
00000210: 0618 a5bc 50bc ca3c 58bf 08be 3a03 0c3e
00000220: e7d4 b3bd 07b1 863d a109 c1bd b17e 963d
00000230: 8873 e4bd f627 d43d 8ef8 3a3e df27 d8bd
00000240: d47e a43c bd87 a8bd bb83 ecbd 8ad7 3cbd
00000250: 13ab 44bc 20fb 823d 055f 953d 6579 edbd
00000260: 3aaf 0bbc 1ce6 c2bd eafd 97bd e427 8a3d
00000270: 7bf4 dfbd 3846 ba3d 5ee1 1abe d61f fa3d
00000280: b1cb ae3d b523 913d caf4 fc3c cd42 363a
00000290: 40db 0cbe 29f1 ebbd d09b acbd 466c 863d
000002a0: 4e7d 213e d161 003e 10c6 71bd beb6 b93d
000002b0: 4185 cc3b 74c0 47bd 5af1 25bd 53bd 5d3c
000002c0: 2de9 1abe 8d8e 64bd d85f 85bd 327a d63d
000002d0: a69f b238 91b5 6abc 8be9 a7bd 9a07 323e
000002e0: d2b9 bebd eb7e bb3d 2daf f83c fea9 a33d
000002f0: 6770 6ebc d250 6dbc dc00 a9bd 1135 20be
00000300: b142 3fbe aa55 d7bc 9c42 9f3b cfb0 793a
00000310: a898 d23d c18d 52bd e256 983d cec6 fe3d
00000320: 7172 a1bd 9f5a 05be f67d 15bd 4d7e df3d
00000330: 4ec2 473d 8eeb 0bbe 2cf5 2cbe 86e2 7a3c
00000340: 6dc0 a1bd df55 6ebd 28d9 073e 5523 b73c
00000350: 65dd b53d b0cd cebd 29e8 1abd 5028 50bd
00000360: ffed 06be bf2a 9d3d 8a5a cfbc b2d1 cdbb
00000370: 7b67 7fbd 297d d83c 4a4e 01be 03be 763d
00000380: 6f89 913d e9f0 bcbd 0f93 813d 5ca6 25bd
00000390: c308 22bd 947b 183e 6148 b93d f512 893d
000003a0: 761b 24be 0f87 35bd 71bb 4fbd 9a10 6b3c
000003b0: 9336 28bd d6b8 65bb fb3e b8bd 6f1d f03c
000003c0: 7688 bebc 0a9c aabd 847e 94bd 796a 2abd
000003d0: 4982 7a3d 52fc ffbb 9f29 d23d 4a0b 3e3d
000003e0: e49c 90bd 15e0 09bc 15fb aebd 6a41 d23d
000003f0: ca0a 8b3d 53ca b03d 0a45 b7bd 21e1 62bd
-0.037365705 -0.04155466 -0.10997553 -0.10281821 0.11684853 0.040004075 -0.07087798 0.21213095
0.11228756 0.025196213 -0.1159869 0.01606365 0.0706835 0.066442594 0.048848514 0.050632592
-0.028018685 -0.03779601 0.0007229698 -0.08606898 -0.01949606 -0.09619406 -0.09776748 0.1041807
-0.060152773 -0.07902658 0.0002094746 0.059974756 0.08323815 0.07045677 0.12360268 0.113138735
0.017972851 0.18008721 0.094067216 -0.15254207 -0.09428821 -0.1025868 -0.052105587 0.026503306
0.120479345 0.10409775 -0.0035028453 0.056368854 -0.0854101 0.09854564 -0.16623576 -0.06576866
-0.051245157 -0.08080536 -0.06829413 -0.08141207 0.070074625 0.115147874 0.06229263 0.07615309
0.099470876 -0.13576147 -0.10025493 0.120401055 0.10506178 -0.019414457 0.04960366 -0.09895856
-0.081539154 0.0039124982 -0.09133035 -0.019076804 0.0022008007 0.07721516 0.10160883 -0.11049839
-0.080284685 -0.106712766 0.07518139 -0.08360813 0.12801656 -0.096068576 0.035387807 0.07825227
-0.030493319 -0.045815125 -0.079870164 0.038088553 0.07319811 -0.07182689 0.06739686 0.016883144
0.03266655 -0.05103927 -0.06024758 0.06442675 -0.076218516 -0.15787542 -0.17303756 -0.10308259
-0.048533045 0.1289865 -0.020422138 0.11181361 -0.09681608 -0.13101612 -0.07473247 -0.095155284
0.09390126 -0.04112313 -0.040043604 -0.06595927 0.14386544 0.05738915 0.0061823125 0.05522584
0.1295018 -0.097727425 0.1715292 -0.104685456 0.08285076 0.06739132 -0.00015655954 -0.09624518
-0.08883881 -0.019471593 -0.13152029 -0.057075694 -0.12709416 0.06112648 0.088483 -0.043114606
0.12692873 -0.00990545 0.044423133 -0.092332534 -0.020153057 0.024747998 -0.13354242 0.13673106
-0.08780842 0.06576734 -0.09425665 0.07348383 -0.11154848 0.103591844 0.18258879 -0.1055448
0.020080008 -0.08229015 -0.11548563 -0.04610399 -0.012003678 0.063955545 0.07293514 -0.1159542
-0.008525664 -0.09516546 -0.07421477 0.0674589 -0.10935303 0.090954244 -0.15125033 0.122131035
0.08534945 0.07086889 0.030878443 0.0006952703 -0.13755512 -0.11520607 -0.084281564 0.0656362
0.15770456 0.12537314 -0.059026778 0.090680584 0.006241471 -0.048767522 -0.040513374 0.013533908
-0.15128012 -0.05580001 -0.06512421 0.10472526 8.517438e-05 -0.014325515 -0.08198842 0.17385712
-0.09312786 0.09155067 0.030356968 0.07991408 -0.014553166 -0.014484601 -0.08252117 -0.15645243
-0.18677785 -0.026285965 0.0048602354 0.0009524943 0.10283023 -0.05140472 0.074384466 0.12440263
-0.07883156 -0.1302285 -0.03649708 0.10912762 0.048769288 -0.13664076 -0.168904 0.015312796
-0.078980304 -0.05818736 0.13266432 0.022355715 0.08880118 -0.100978255 -0.03781906 -0.050819695
-0.13176726 0.07674169 -0.025311727 -0.006281101 -0.062354546 0.026426869 -0.12627521 0.060239803
0.071062915 -0.092256375 0.06326877 -0.040441856 -0.039559137 0.14890891 0.09047008 0.06693069
-0.160261 -0.044318255 -0.050715867 0.01434722 -0.04106767 -0.0035052798 -0.089963876 0.02931091
-0.023258429 -0.08330543 -0.072506934 -0.041605446 0.061159406 -0.0078120613 0.10261845 0.046397485
-0.070611745 -0.008415242 -0.08543984 0.10266383 0.06789167 0.0863234 -0.08948715 -0.05539048

Convs.0.0.bias f4 [25]
00000000: 8071 ac3d 8281 ee3d 24df 823d 794f d3bd
00000010: 5165 d2bc f8de cebc 4799 02be d4b9 c0bd
00000020: c3c2 2fbd 445a c6bd e2d2 80bc 42ea 07be
00000030: 458a 9c39 f061 003e 6fe7 bfbc da8d cf3c
00000040: 8f82 0d3e 1bf4 a6bd f1cb c6bd 3014 af3d
00000050: a2fc f4bd 0276 9f3d 3aa8 8f3d 50cf 68bd
00000060: c008 0ebd
0.08420086 0.116457954 0.06390217 -0.103178926 -0.025683077 -0.025252804 -0.12753783 -0.09410444
-0.04291035 -0.096851856 -0.015725557 -0.13272956 0.00029857658 0.1253736 -0.023425786 0.025336195
0.13819335 -0.08152028 -0.097068675 0.08548772 -0.119622484 0.0778618 0.070145085 -0.056838334
-0.034676313

Convs.0.1.weight f4 [25]
00000000: f926 753f b047 7e3f fa44 763f 3d41 813f
00000010: 722b 843f 2e94 6f3f b3d4 833f 5f9e 7d3f
00000020: eed7 793f 14bd 733f bb43 7a3f 80cd 7f3f
00000030: abff 7e3f affe 793f 4d5c 753f 89b9 813f
00000040: 41c1 803f 399e 743f acd1 7f3f f047 773f
00000050: 5599 7b3f d346 7c3f 8165 793f 9548 873f
00000060: cba0 773f
0.9576259 0.99328136 0.96199 1.0098034 1.0325758 0.9358548 1.0299286 0.9906978
0.9759511 0.95210385 0.977596 0.99922943 0.9960887 0.9765424 0.95843965 1.0134746
1.0058976 0.9555393 0.9992931 0.9659414 0.9828084 0.9854557 0.9742051 1.0569025
0.96729726

Convs.0.1.bias f4 [25]
00000000: e5b7 e3bd 4fec 0fbe a986 17be e8a5 04be
00000010: 7387 e3bd 2504 8dbd e846 02be c09f 22be
00000020: 4175 b8bd a15e 11be c8d9 66be a467 4abe
00000030: f658 5bbe e08c 3bbe 4018 e1bd 8fca 6dbe
00000040: 7118 fcbd e0b1 babd 3a24 93bd 9db0 2cbe
00000050: b731 8ebd 32ec 64be eb99 35be 1f87 9dbd
00000060: 0dd5 31be
-0.111190595 -0.14054988 -0.14797463 -0.12953913 -0.11109819 -0.06885556 -0.12722361 -0.15881252
-0.090067394 -0.14196254 -0.22544014 -0.19766098 -0.21420655 -0.18315458 -0.109909534 -0.23221801
-0.12309349 -0.09115958 -0.07184644 -0.16864248 -0.06943076 -0.22355726 -0.17734496 -0.07691788
-0.17366429

Convs.0.1.running_mean f4 [25]
00000000: d694 48be 1440 8a3e 4db9 623e b35c 163e
00000010: 7f99 063e c16e 623e ed9f 473e 59cd 013e
00000020: 3433 5c3e 9842 30be 0ae1 9abd fb49 db3d
00000030: 8cdb 63bd 149f 813d 9a5e 4d3c fb12 c4bc
00000040: 6ada 513e dd4c 43be 87d5 3abe 8028 113e
00000050: ecd6 f1bd 9a50 e23d 6be4 2e3e ced1 68bd
00000060: 2b83 b53d
-0.19588026 0.27002013 0.22140999 0.146838 0.13144492 0.22112562 0.194946 0.1267599
0.21503907 -0.17212903 -0.07562454 0.1070747 -0.055629298 0.0632917 0.012534762 -0.023934832
0.20493475 -0.1907229 -0.18245517 0.14175606 -0.11808571 0.1105053 0.17079322 -0.05684071
0.08862909

Convs.0.1.running_var f4 [25]
00000000: 8f08 f83f 607e 933f f27f 153f 24f9 2440
00000010: 3581 1b40 cb8a a640 1477 873f 3b6a d63f
00000020: 7063 6040 bbb7 6b3f b7d3 403f 5fba 993f
00000030: f31a 783f 02fd e03e d0bc 0b40 dc69 5f3f
00000040: eec5 0541 0aa9 723f ec5c 6940 5878 973f
00000050: 9f5a 0e41 72f8 303f e0f0 933f 9173 3840
00000060: 1545 863f
1.9377612 1.1522942 0.58398354 2.5777063 2.4297612 5.2044425 1.0583215 1.6751169
3.5060692 0.92077225 0.7532305 1.2010001 0.9691612 0.4394303 2.1833992 0.87270904
8.360823 0.94789183 3.6462965 1.1833601 8.897124 0.691291 1.1557884 2.8820536
1.0489832

Convs.1.0.weight f4 [50, 25, 1, 5]
00000000: 47ba 95bb b1ad 0d3d 109b 9ebd 1895 233d
00000010: 901f cebc 1158 1abd d484 bfbd 27b3 93bd
00000020: ca53 443d 09db 823b 0b5a cf3d 0e99 bdbb
00000030: 8008 833d fbd5 ea3b 3b23 51bc 470b 9b3c
00000040: 3aad 3d3d e4c1 9cbb 046e 69bd c73a 24bd
00000050: aa62 12bd e941 cbbc e076 8a3d 3804 bfbc
00000060: 2217 223d 5dc1 87bb 4af6 153d 4fda b73d
00000070: 6ed7 4f3d f620 823d daa1 ee3d baae 18bd
00000080: 57c9 3fbd 6752 2a3d 08f4 bd3d b52a 09bd
00000090: 624d 89bc 75ba 193d 69b5 98bd d4b5 3bbc
000000a0: c770 9f3b d040 0ebd 97c0 e83c 4a7c 4b3c
000000b0: 9bcb 973d a18f b0bd f58a 83bd 5bc9 bdbc
000000c0: 6159 fd3d f7fa 70bd 78a8 8b3d 632f 70bb
000000d0: 6ce7 863d 980c 0f3d 0e15 863d 0e08 193c
000000e0: 112f 4abd 6ea4 02bd 2f69 0a3c cac8 6ebd
000000f0: d4f5 a73c 0223 4cbd 00a3 d7bc 49fd 783c
00000100: 4c45 e6bc e62b 0fbd cefe f73b 3546 a03a
00000110: f6e8 acbc 532e 4b3d 12b7 2ebd 05fc e6bd
00000120: 8938 143d f894 f13c fe2f e6bc b352 3c3c
00000130: 0880 0abd 3d2b 39bd b4d1 43bd f73e 89bd
00000140: 098c 15bd b997 e93d bbbb fb3d f8e6 f13d
00000150: 898b 083d b9b4 1ebd ea36 9dbc 986e 933d
00000160: 1766 8fbd 9b0e 813d be31 9abd 8db7 0bbd
00000170: a8e8 193d 08a5 fd3b 8a14 c73c 2adf 40bd
00000180: 69fd 123d 4ccf c7bd 99a9 61bd 7856 6c3c
00000190: 6c8e c0bc 8fd3 773d 7258 d93d 4ab8 783d
000001a0: 4d02 013d ef97 773d 5c66 023d 0bdb 59bd
000001b0: 0f3a 88bd dc51 8d3c a5a2 babc f06f c53d
000001c0: 0273 863d cd0b 223d 999c e03c 8acb 99bd
000001d0: 793b 093a e43a b43d f23c ba3c 849a 55bc
000001e0: a879 473b 99b8 b93d 1d28 9e3d 7c50 5f3d
000001f0: 1704 633d c09f 6dbd 3cb8 093d 176b acbd
00000200: 6ef0 02bd e713 bd3d e7f3 31bd 0b94 5dbd
00000210: 4a7c 933d 1a42 973d 5aea b4bd aab6 e93c
00000220: bbd0 2fbd 718f fc3c 8d08 9f3c f8bd 73bd
00000230: 343e 49bd c1fe 5dbd 4985 a73d ec93 c93d
00000240: 8671 c03d b726 1ebc 34e0 3cbd 4b58 603d
00000250: 3144 9e3d d719 063d 9c91 403c 7ccf 293d
00000260: 3d38 283c 2e93 733c 8803 96bd c553 07bd
00000270: 9555 09bd a63d c9bc 0e74 8c3c 399c c2bd
00000280: dd8f f93c 1e6f 36bd 203a c8bc 22e6 93bd
00000290: 38f0 48ba ce79 8f3b cf44 8ebb 38dc bf3d
000002a0: dce6 8d3d 85d5 5a3d 9b32 6bbb e100 f13c
000002b0: 5a81 c7bc 4fd0 153d 5e6a 0abc 4159 103d
000002c0: 9890 9ebb e8d2 1abd bc0d babc 9555 fbbb
000002d0: b53c 513c 77a9 6ebd 6c6a 78bd f913 87bc
000002e0: 32fd 793d b3e1 ae3c 72be 993d f577 5f3c
000002f0: 4d1c a2bc 78c5 c83c 30cd e0ba c46c 123c
00000300: ea04 db3d 396b 003d 03e9 993c 1dfa 883d
00000310: ed42 21bd 3dbb f5bc 16ac 5c3d 7de6 36ba
00000320: 4619 36bd 1614 e23c 3cf5 e23c 9c09 d6bd
00000330: b817 bd3a 42d1 183d d8b0 a63d 9570 483d
00000340: 1175 7dbd 586b 83bd ac56 103d 3949 163d
00000350: f24c 83bd 8296 be3d 9313 973d cd32 36bd
00000360: da16 7b3c a8fe 9e3d 0658 a1bc 9c60 3ebd
00000370: b059 4fbd 0c7d 753c 07e9 663d f6d6 a23c
00000380: 4b1f ad3d 1f62 14bd 25d0 6f3d a336 8b3d
00000390: 40a3 a3bd b11c 94bd f2c8 0e3d 52a2 e3bc
000003a0: 4f50 983b 9593 d3bd 1ca1 22bd 4d27 36bd
000003b0: 47b3 4cbb 0833 90bd 7525 c63d 66a9 ca3c
000003c0: 95eb 42bd 1adf 31bc e6f1 133c 3801 503d
000003d0: 836c d63c 5fc7 9cbb 34bf ad3d f615 febc
000003e0: c3c4 cd3d dbd4 7bbc 55bb b03d e725 b63d
000003f0: e5d2 c0bc 8f06 95bb 0247 ccbc e0d4 1b3d
-0.004569325 0.034589473 -0.077444196 0.03993711 -0.025161535 -0.037681643 -0.09351507 -0.07211905
0.04793147 0.003993396 0.10124596 -0.005786068 0.063981056 0.0071666217 -0.012764747 0.018926276
0.04630778 -0.0047838558 -0.056989685 -0.040095117 -0.035738625 -0.024811702 0.06760955 -0.023317441
0.039572842 -0.0041429237 0.036611833 0.08977186 0.05074256 0.06353943 0.116519645 -0.037276007
-0.046822872 0.04158249 0.09275061 -0.033487994 -0.016760532 0.037531335 -0.07456476 -0.011456925
0.004865739 -0.03472978 0.028412146 0.01241977 0.074118815 -0.08621145 -0.06422988 -0.023167303
0.12370563 -0.05883309 0.06819242 -0.0036649338 0.06587109 0.03492412 0.065469846 0.009340299
-0.049361292 -0.031895094 0.008447929 -0.058296956 0.020502962 -0.049838074 -0.026322842 0.015197107
-0.028109215 -0.034953974 0.007568217 0.0012227955 -0.021107178 0.049604725 -0.04265506 -0.11278538
0.03618673 0.02948998 -0.028099056 0.011494326 -0.033813506 -0.04520725 -0.04780741 -0.06701463
-0.0365105 0.11405892 0.12291666 0.11811632 0.033336196 -0.03874657 -0.019191224 0.071988285
-0.07001894 0.06301614 -0.07529019 -0.034110595 0.037575394 0.0077406205 0.024301786 -0.047087826
0.035886202 -0.097563356 -0.05509338 0.014424913 -0.023505412 0.060504492 0.10612573 0.060722627
0.031496335 0.06044763 0.0318359 -0.05318741 -0.06651699 0.017250948 -0.022782633 0.09640491
0.06564905 0.039562035 0.027418422 -0.07509525 0.00052349974 0.08800295 0.02273414 -0.013037328
0.0030437503 0.09068412 0.07722495 0.054520115 0.055423822 -0.058013678 0.033622965 -0.08418863
-0.031967573 0.09232312 -0.043445494 -0.054096263 0.07201441 0.07385655 -0.088337615 0.028529484
-0.04292367 0.030830117 0.019413257 -0.05950734 -0.049131587 -0.05419803 0.08179719 0.09842667
0.09396653 -0.009652785 -0.046112254 0.054771703 0.0772785 0.032739487 0.011753466 0.04145764
0.0102673145 0.014866633 -0.07324892 -0.033038873 -0.033528883 -0.02456553 0.017145183 -0.09502453
0.030464107 -0.044539563 -0.024441779 -0.07221629 -0.000766519 0.004378534 -0.0043416987 0.09368175
0.069287986 0.053426284 -0.0035888318 0.029419364 -0.024353672 0.03657561 -0.0084482115 0.03524137
-0.0048390143 -0.037798792 -0.022711627 -0.0076701143 0.012770821 -0.058267083 -0.060648367 -0.016489016
0.06103248 0.021347856 0.07507028 0.01363944 -0.019788885 0.024508223 -0.0017150994 0.008937065
0.10694297 0.031352255 0.018787866 0.0668833 -0.039370466 -0.029996509 0.05387505 -0.00069770945
-0.044457696 0.027597468 0.027704827 -0.104510516 0.0014426624 0.03730894 0.08139199 0.04893549
-0.06187922 -0.064169586 0.035238907 0.036690924 -0.064111605 0.09306051 0.0737678 -0.04448204
0.015325272 0.077634156 -0.019695293 -0.046478853 -0.050622642 0.014983427 0.056374576 0.019877892
0.08453234 -0.036226388 0.05854811 0.067975305 -0.07990122 -0.07232035 0.034859605 -0.027787361
0.0046482454 -0.103308834 -0.039704427 -0.044471074 -0.0031234787 -0.070409834 0.09675113 0.024738979
-0.04758795 -0.010856414 0.009029841 0.050782412 0.02617479 -0.004784509 0.08483735 -0.031016331
0.10047295 -0.015370573 0.08629481 0.08893948 -0.023538062 -0.004547901 -0.024936203 0.03804481

Convs.1.0.bias f4 [50]
00000000: 59e4 abbd d61a e23c d40b 56bd da02 aebc
00000010: 4ad3 35bb 7a08 86bd 1e07 993d ba38 353d
00000020: 6439 c6bc 2a69 173d 68c0 b2bd 8e51 b53b
00000030: 80b5 9c3d 5b2e 7bbd a99b 91bd 355b 24bd
00000040: 822b 903d 0330 a53d 18db 6cbc 3d22 963d
00000050: 27a6 0fbc 8574 42bd 2c40 a33d 0d91 12bd
00000060: 274c b03d adf2 883d 3898 903d 0319 933c
00000070: f0b2 0cbd 65af 6e3d 9eed 253d 5d07 e43a
00000080: a14c 923d a456 a03d b86b 0bbd 712c 073d
00000090: 9138 aebc b5b3 413b 8fbb 9ebd 2eb2 afbd
000000a0: b5e0 61bc 553e a9bc e79d 8cbd 23be 91bd
000000b0: 1f9b 87bd 98ec ac3c 23b7 78bd 3ed3 28bd
000000c0: 5488 b0bd a734 0cbd
-0.08393163 0.027600687 -0.052257374 -0.021241594 -0.0027744346 -0.065445855 0.074720606 0.04424355
-0.024197288 0.036965527 -0.08728105 0.0055334037 0.07651806 -0.061323505 -0.07109768 -0.040126044
0.070395485 0.08065798 -0.014456533 0.07330749 -0.008767641 -0.047474403 0.07971224 -0.035782862
0.08608275 0.06686912 0.070602834 0.017956262 -0.034350336 0.058272738 0.040509813 0.0017397214
0.07143522 0.078290254 -0.034038275 0.033001367 -0.021267207 0.0029556577 -0.07750618 -0.08578907
-0.0137864845 -0.020659605 -0.06866055 -0.07116344 -0.06621384 0.02110891 -0.060721528 -0.04121708
-0.086197525 -0.0342299

Convs.1.1.weight f4 [50]
00000000: 80bb 803f 8fd8 7e3f 6ac4 7e3f 2a38 7b3f
00000010: e1cb 843f 2cda 843f ae16 7b3f a0a8 773f
00000020: 3477 813f 0d25 783f 198a 7e3f 560b 813f
00000030: 8456 813f 18aa 703f 41b7 773f dcf7 823f
00000040: a2e7 843f ac54 7c3f 4b48 873f 4f6c 793f
00000050: 35ee 7b3f 4247 7d3f 6f5f 813f f519 743f
00000060: a02b 7a3f bfe1 783f 3d87 7d3f a7c8 7d3f
00000070: f8c5 7e3f b17b 6e3f 5872 813f 0f24 7d3f
00000080: 204b 763f 423e 7e3f 53bb 7a3f 16c1 7f3f
00000090: 55c7 803f f5ee 7c3f 45f7 7f3f 181e 783f
000000a0: d5a0 783f 9e81 7a3f 84c7 803f b9b1 813f
000000b0: 835b 7c3f b194 853f 2764 7a3f 1c12 773f
000000c0: eb75 763f 3c4e 7a3f
1.005722 0.9954919 0.99518454 0.98132575 1.0374719 1.0379081 0.9808148 0.96741676
1.0114503 0.96931535 0.9942947 1.0081584 1.0104527 0.9400954 0.96764 1.0231891
1.0383189 0.985667 1.0568937 0.9743089 0.9841035 0.98936856 1.0107249 0.9535211
0.97722816 0.9721946 0.9903448 0.99134296 0.99520826 0.9315749 1.011302 0.98883146
0.9620838 0.9931375 0.97942084 0.99904 1.0060831 0.9880212 0.9998668 0.9692092
0.9712041 0.9785403 1.0060887 1.0132362 0.98577136 1.0436002 0.9780907 0.9651201
0.9627368 0.97775626

Convs.1.1.bias f4 [50]
00000000: 3a16 cebd 5d1a bbbd a015 24be a0a2 1ebe
00000010: a8e4 ccbd 71ca 30be 7f86 bdbd 6dd1 fcbd
00000020: 67b4 3dbe 3c50 fcbd e717 08be 006d dcbd
00000030: b6d9 f5bd 3b84 cebd 8796 24be a9b8 e9bd
00000040: 7db5 d4bd 8eb0 e6bd f708 eabd b75d 42be
00000050: 7641 11be 6db6 1abe 466d c5bd bd65 08be
00000060: b825 f7bd c89a b9bd ee85 efbd 1188 58be
00000070: dadf fcbd 480b 10be 2818 f6bd 7703 6cbe
00000080: d2a1 31be 6619 e8bd e014 04be 0364 ddbd
00000090: c2d9 03be 14e6 1cbe 8d87 9dbd ad4a 07be
000000a0: 2b59 2cbe eb4b e9bd 3be4 b1bd 3803 d3bd
000000b0: d19c cbbd 0655 d3bd b19e ebbd 6975 efbd
000000c0: b173 1bbe e361 ccbd
-0.10062833 -0.09135888 -0.16023874 -0.15491724 -0.1000455 -0.17264725 -0.09254169 -0.12344632
-0.1852585 -0.12319991 -0.13290368 -0.107629776 -0.12004416 -0.10083815 -0.16073047 -0.11412174
-0.10386179 -0.11264144 -0.11427491 -0.18981062 -0.14185128 -0.15108652 -0.09639983 -0.1332006
-0.12067741 -0.09062725 -0.11695467 -0.21145655 -0.12347384 -0.14066803 -0.12016326 -0.23048197
-0.17346886 -0.11332969 -0.12898588 -0.10810091 -0.12876037 -0.15322143 -0.0769187 -0.1321208
-0.1683089 -0.11391433 -0.0868611 -0.10303348 -0.0994202 -0.10318951 -0.11504877 -0.11692316
-0.15180852 -0.09979608

Convs.1.1.running_mean f4 [50]
00000000: beb0 523d 91e4 143e 01e1 eabd 8318 f73c
00000010: 0c66 3fbd f6fa fdbe f233 6c3d 51da c83d
00000020: 7f3e 30be 536d 563d 5709 e1bd c2d5 9bbe
00000030: c61a a43c 1933 94be 36ca c4bd 348d 90bd
00000040: 4509 d6bd f834 12be 5003 82be 0848 75bd
00000050: 605b 8fbd eb5f 513d e8c7 eb3d 1402 253e
00000060: bcfb a23d 33d5 423e 0fe9 7abd ea26 093e
00000070: b642 433e 7dd3 2b3e 70a3 73be 9dd3 9ebd
00000080: 4ff0 b33d 4388 83bd b97b 0b3e ef39 debc
00000090: 0c4c cabe 7fbd 053d d857 c53d 0a7f edbc
000000a0: c1fa 9bbd 47f3 54be f56c 543e 5a4d bebe
000000b0: 7eb6 3a3e f818 5f3e 0ddc f03b d44e 42be
000000c0: fc7a 60ba 7ea6 f2bd
0.051438086 0.14540316 -0.11468697 0.030163055 -0.04672818 -0.4960553 0.057666726 0.098072655
-0.1721134 0.052350353 -0.109881096 -0.30436522 0.020032298 -0.28945234 -0.09608881 -0.07058182
-0.10450987 -0.14278018 -0.25393152 -0.059883147 -0.0699985 0.051116865 0.115127385 0.16114074
0.07958171 0.19026642 -0.06125742 0.13393751 0.19068417 0.16779895 -0.23792815 -0.07755206
0.087860696 -0.06422474 0.13621415 -0.027127234 -0.39511144 0.03265142 0.096358955 -0.028991241
-0.07616187 -0.20795928 0.20744689 -0.3716839 0.18233678 0.21786869 0.007350451 -0.18975383
-0.0008563248 -0.11848162

Convs.1.1.running_var f4 [50]
00000000: 63ed bd3f 70d5 7a3f 8e08 a13f 79ee 853f
00000010: 01c1 863f 6e42 cb3f 1a52 673f 3a00 5c3f
00000020: 90cd 843f a991 d43f 0c80 823f 37e1 0140
00000030: 5eac d13f dbfa 8b3f c188 543f a1b8 733f
00000040: 97fa b33f a87f b63f 23d1 a03f e592 953f
00000050: 1ba0 463f 5307 4c3f 97af 773f ecfd b43f
00000060: ba54 8f3f e51c bf3f 0165 b13f 79fc 813f
00000070: 3993 803f e51f 2e3f ccb3 be3f a7f1 8c3f
00000080: 2855 713f 8325 7d3f da97 633f ec01 9e3f
00000090: 2a80 d93f e7e9 833f 8a35 bd3f 87fc 813f
000000a0: b79d 833f 58e6 933f e995 0240 a880 0a40
000000b0: 5568 9d3f f4e6 493f bbcb 393f 9dd0 4c3f
000000c0: d4fa 543f f724 b13f
1.483807 0.9798193 1.2580736 1.0463401 1.052765 1.5879648 0.9035965 0.85937846
1.0375233 1.6606952 1.0195327 2.029371 1.6380727 1.093593 0.8302117 0.95203596
1.4060849 1.4257708 1.2563823 1.1685454 0.7758805 0.79698676 0.96752304 1.4139991
1.1197731 1.4930693 1.3858949 1.0155174 1.0044929 0.6801742 1.489862 1.1011246
0.94270563 0.98885363 0.8890358 1.2344337 1.6992238 1.0305756 1.4781964 1.015519
1.0282506 1.155467 2.0403998 2.1641026 1.2297465 0.7886803 0.72576493 0.8000582
0.83195233 1.3839406

Convs.2.0.weight f4 [100, 50, 1, 5]
00000000: 9aab 543c aaee 28bd b26b d73a 4c20 85bd
00000010: 6597 213d a9cf c7bc 090c e0bb 506a 473c
00000020: 9c12 30bd 987b c03c 70c7 93bc cb38 5dbc
00000030: 6444 7e3d a161 beba e68f 383d b625 023d
00000040: edd4 60bd 1e4b 903d df2f 3c3d c01e ec3b
00000050: 79f3 10bd 380d 3c3d f5be 643c ab9b 043d
00000060: 3998 81bd 4474 4a3d 690d 51bc 24cd 543d
00000070: 4e04 0e3d 1019 0ebd d64e 6c3d de9e 6cbd
00000080: be17 edbc bcb2 f23c 3198 403d 9118 c1bd
00000090: e68c 423d e380 663d 0ea3 1bbb f94f 5c3d
000000a0: 3809 feba 7e9d bf3c 0366 b1bc a6e7 c9bc
000000b0: 2336 9fbc 7866 0f3d 6a9e babb e492 e53c
000000c0: c7be 48bd 12b1 033a 2031 5dbc 7ce5 2bbd
000000d0: eaa1 b23b 6f16 a8bb 9c0a 243d 80cd 133d
000000e0: 735f e43c 3c57 383d 64f2 87bc a440 65bc
000000f0: f5d8 413c cd6c 9a3b 5db6 7f3c 9d51 2dbd
00000100: 0b75 893d 97b4 dabb 0506 a83d b485 44bc
00000110: 604c 8c3b 5299 1dbd 7299 043d 1f0d 8ebd
00000120: 5138 59bd 13c3 073b db37 f73b 0ea2 20bd
00000130: 8010 e23a 7432 823d abc3 b63b cf1e c7bc
00000140: 20ec 793c 344e bf3c 88a0 42bc 66e5 ad3c
00000150: d5d7 de3c bda7 593d c403 0dbb 8b3a 1a3d
00000160: 6b57 483c d95b 2e3d b009 473d e5f0 4d3b
00000170: 6ccd 803c cfe1 a63d 67ac ca3c f89e 703c
00000180: 2b5d 7abd 0f52 463c 04be b9bc e768 8ebc
00000190: cd59 a33d 3e1c 71bd 8926 17bc db1c babc
000001a0: 8745 45bd 7f17 12bd 9c94 543c 8d2a eebb
000001b0: 7019 86ba c46e 9ebc c469 9abc 27d4 e9bc
000001c0: e410 a2bc 2d62 c5bb 86d2 9a3d 5d83 04bd
000001d0: 8b0f 88bd bfc4 263b ed97 383c 97e1 58bd
000001e0: 07cb c63c e033 37bd 5023 26bb 9844 1cbd
000001f0: cadd 883c 3b8e 16bd 641c 42bd b20d 01bd
00000200: e89b 783d 58d2 23bd caf7 083d a307 1e3d
00000210: f356 363d 50b4 c9bc 525d 473d 7685 c83a
00000220: e1f7 a53c 7147 1ebd 0ef3 f13c 59e4 803c
00000230: b943 77bd 34b2 bbbc b74a 453d 4959 373d
00000240: 500d 42bc e685 16bd b7f4 ddbc 56d9 52bd
00000250: a014 f33c 2496 043c fc8a 133c 9139 7f3d
00000260: 014f 1a3d 8188 83bd bf47 883b 1ff4 88ba
00000270: e3e0 f1bb ea49 9e3c 5ad0 50bc ac5c 50bb
00000280: ab5f fa3c 0238 303d 038a a23b 1cf8 b73d
00000290: dd02 5abc 9479 cebc 02b5 fabc 3f0a 42bc
000002a0: 6b00 4fbc 89f1 353d c5d8 a03b 6225 663d
000002b0: 9594 82bc c101 17bd 7431 17bd 1309 493c
000002c0: 15c4 56bd fa8c 61bc 8d15 493d 818d 753c
000002d0: 335d 243d 42ac 97bc 29ba 643d ba01 563b
000002e0: c3ad 9b3d 5461 583d 18b2 ffbc bf3e 73bd
000002f0: 965e 2e3d 4b6e 03bd 6e45 0d3d 24e9 673c
00000300: e544 a1bc cb8c 963d f9cd bc3c 864a c6bc
00000310: 1699 bfbc 25b7 5a3d 96b7 093c 6aa0 2bbd
00000320: 9855 bebb c7c0 a23c 2181 b53c 121a b13c
00000330: 962e 823c 43ef 7a3c cf4d dbbc a4b9 093c
00000340: 0a0b 28bd 48dd dd3c 7d0a 51bd 08a7 8e3c
00000350: 524d b83d ff3d 7cbc b034 893d 18d7 e73b
00000360: 59e0 b03b adfb 1cbd 1072 87bd ad89 d6bc
00000370: 6891 153d c3b1 1e3b 33d3 273d 86a6 a13d
00000380: 6fdc 013d 9556 2a3d 2603 c7bc ade9 2ebc
00000390: ba82 f7bb c6a3 103d fc88 d5bc 9307 8ebc
000003a0: 1c64 41bd 9bbc 313d dc9d f2bb a76c ca3c
000003b0: 960e 29bd be6a 693c b7fa 88bc 9c11 2cbd
000003c0: 1665 0d3d cbb1 24bd 0187 423c ab90 4d3d
000003d0: 2fb7 013b c726 543d 7161 3fbd e2b0 553d
000003e0: fc89 6c3d befd 163d e718 45bd 0119 153d
000003f0: b63a 63bc a316 d5bb ac61 b8bc b7f0 abbd
0.012980366 -0.041243233 0.0016435294 -0.06500301 0.03945102 -0.024391012 -0.006837372 0.012171343
-0.042986497 0.023496434 -0.018039435 -0.01350231 0.06207694 -0.0014524945 0.045059107 0.031774245
-0.05489056 0.070455775 0.04594409 0.007205814 -0.035388444 0.045911044 0.013961543 0.03237502
-0.06327862 0.049427286 -0.012759545 0.05195345 0.034672074 -0.03469187 0.05769237 -0.057768695
-0.028941985 0.029626243 0.04702014 -0.09428514 0.047497652 0.05627526 -0.0023748311 0.053787205
-0.001938141 0.023390528 -0.021655088 -0.024646591 -0.019434994 0.03500983 -0.005695154 0.028024144
-0.049010064 0.0005023639 -0.013500482 -0.0419669 0.0054514306 -0.0051296274 0.04004918 0.036084652
0.027877545 0.04500507 -0.016595073 -0.013992462 0.011831512 0.004712677 0.015607444 -0.04231416
0.06711777 -0.00667436 0.08204273 -0.011994768 0.0042815655 -0.038476296 0.0323729 -0.069360964
-0.053032223 0.0020715639 0.0075445003 -0.039217047 0.0017247349 0.063572794 0.0055775247 -0.024306683
0.0152540505 0.02335272 -0.011879094 0.02122755 0.027202526 0.053138483 -0.0021517137 0.037653487
0.012227873 0.04256806 0.048593223 0.0031424102 0.015722953 0.08148538 0.024740411 0.014686339
-0.06112401 0.012104525 -0.022673614 -0.017384006 0.079761125 -0.058864824 -0.009225496 -0.022718837
-0.04816201 -0.03566694 0.012974884 -0.007268256 -0.001023097 -0.019339927 -0.018849261 -0.028543545
-0.019783445 -0.0060236664 0.075596854 -0.03235184 -0.066435896 0.002544686 0.011266691 -0.052949514
0.024266733 -0.044727206 -0.0025350638 -0.038151354 0.01670732 -0.036756735 -0.047390357 -0.0315072
0.06069556 -0.03999552 0.033439435 0.0385815 0.044516515 -0.024622113 0.04867298 0.0015298564
0.0202598 -0.03864235 0.029534843 0.015733885 -0.06036732 -0.022912122 0.048166957 0.044762883
-0.011843994 -0.03674879 -0.027094228 -0.0514768 0.02967292 0.008092437 0.009005304 0.06231076
0.037673 -0.064225204 0.0041589434 -0.001044873 -0.007381545 0.019322354 -0.012744987 -0.0031793518
0.030563196 0.043022163 0.0049603 0.0898287 -0.013306347 -0.025204457 -0.03060389 -0.011843263
-0.012634377 0.0444198 0.0049086534 0.056187995 -0.01593999 -0.036866907 -0.036912397 0.01227023
-0.052433092 -0.013766522 0.049092818 0.01498735 0.040127944 -0.018514756 0.0558416 0.0032654838
0.07601502 0.052827194 -0.031212851 -0.05938601 0.042570673 -0.032087605 0.03449004 0.014154706
-0.019686172 0.07351073 0.023047434 -0.024205457 -0.023388427 0.053397316 0.008405587 -0.04190103
-0.0058085434 0.019867314 0.0221563 0.021618877 0.015891355 0.0153158335 -0.0267705 0.008406077
-0.041026153 0.027083054 -0.051035393 0.017413631 0.08999123 -0.01539564 0.066995025 0.0070752017
0.005397838 -0.038325954 -0.066135526 -0.026188696 0.036515623 0.002421484 0.0409729 0.0789309
0.031704362 0.041586477 -0.024293493 -0.01067583 -0.0075534256 0.035312437 -0.026066296 -0.017337596
-0.047214612 0.04339276 -0.007404072 0.024710013 -0.041273676 0.014246641 -0.016721113 -0.04200898
0.03452023 -0.04020862 0.011873008 0.050186794 0.0019793024 0.051794793 -0.046723787 0.05217064
0.05774878 0.03686308 -0.04811945 0.0364008 -0.013868978 -0.0065029426 -0.022507511 -0.08395522

Convs.2.0.bias f4 [100]
00000000: 5acf 2b3d d971 493d c5e5 983c 9251 543d
00000010: f161 fa3c 5c22 d2bc 2dcc 5b3d c350 d03c
00000020: 8d73 623d 4589 72bd d9b7 043c dd34 3ebd
00000030: 7aef 04bc 56bc 083c 2fc6 7ebd 5022 833c
00000040: b008 29bd 46b1 4d3d 2d4a e23c 3daa b83c
00000050: b2f0 7ebb 6d5d 5dbc fec0 413d 8443 5e3d
00000060: cd59 c0bc 2359 463b 4f52 473c 1fa5 3e3d
00000070: 72af 8c3c 1584 1cbd cf31 d73c 3fb6 243d
00000080: 2703 34bc 19fe 7dbb f594 61bd 7af5 773c
00000090: 2db4 273d b105 c33a ca1a 64bd 8a81 1cbc
000000a0: 2afb b4bc b28b 263d a49a a73c 1984 203d
000000b0: 285d 33bd 5987 1d3d 82a6 923c 8f33 5b3d
000000c0: 5de4 0fbd 6c5a 75bd 1243 7c3d 2ea6 6abd
000000d0: 113c 2d3d 2fde 0fbd 0f6b 46bd 189a 413d
000000e0: 34ae 133b ce32 5d3d 7ac9 373d 44cc 06bc
000000f0: 72bb 03bc f8c1 3cbd f541 e23c f94e 423d
00000100: ff44 7d3d 404b 40bd f4cb b1bb 196c df3c
00000110: 7f31 a03c ef99 353d e070 32bd 1f8e 203d
00000120: a08e 0b3d 3e91 eabc f31c 743c 7ba5 6bbd
00000130: 6833 58bc 21e2 0ebd c824 3d3c ac95 febc
00000140: 09b4 033d e59f 77bd 7b07 723d ecf3 67bd
00000150: e191 363b e353 4fbd 8249 923c 5986 24bd
00000160: 9246 ab3c 273c 533c d91d 683c e486 65bd
00000170: 25a2 9fbc 2739 123d 47be 4cbd e255 933c
00000180: 23c8 4e3c 851e 1abd 350a 2fbd b22c 693d
0.041945793 0.04918084 0.01866425 0.051835604 0.03056428 -0.02565115 0.053661514 0.025429135
0.05528598 -0.05921294 0.008100473 -0.046437133 -0.008113736 0.008345684 -0.06220072 0.016007572
-0.04126805 0.05021789 0.02762326 0.022542113 -0.003890079 -0.013511044 0.047303192 0.054263607
-0.02348032 0.0030265532 0.01216562 0.04654419 0.017173503 -0.0382119 0.026268868 0.040212866
-0.01098708 -0.003875619 -0.055073697 0.01513421 0.040943313 0.0014879016 -0.05568961 -0.009552369
-0.02209242 0.040660568 0.02045948 0.03918848 -0.043790013 0.038459156 0.017901663 0.053515967
-0.035129894 -0.059900686 0.0615874 -0.057287388 0.042293612 -0.035124 -0.048441943 0.047266096
0.0022534253 0.05400353 0.044869877 -0.008227412 -0.008040296 -0.04608342 0.027619341 0.047438595
0.061833378 -0.046946764 -0.0054259244 0.027273225 0.019554852 0.044336256 -0.043564677 0.039198037
0.034071565 -0.02863371 0.01489948 -0.05753086 -0.01319585 -0.034883622 0.011544414 -0.031077228
0.032154117 -0.06045522 0.059089165 -0.056629106 0.0027857947 -0.05061711 0.017857317 -0.040167186
0.020907674 0.012892759 0.0141672725 -0.056036845 -0.019486496 0.035699036 -0.04998615 0.017985288
0.0126209585 -0.037626762 -0.042734344 0.05692739

Convs.2.1.weight f4 [100]
00000000: 17e7 7e3f 01f3 803f b4a7 783f bc16 773f
00000010: cdfc 753f bad4 7f3f 6130 843f dc6a 793f
00000020: 5ab4 833f d578 7e3f 9773 803f 217e 803f
00000030: 0740 833f 1d4c 803f c379 783f 7aa6 7a3f
00000040: 3c2b 7b3f a270 833f 8741 843f 726c 7a3f
00000050: ad7d 813f 60f6 7d3f 96b2 7a3f 0578 7f3f
00000060: e514 783f f6d5 823f 05c2 803f 1a7f 7f3f
00000070: 43c2 743f 03f1 7c3f 6695 803f 7b80 823f
00000080: ade1 783f 1994 723f 6d41 7d3f 765b 763f
00000090: 1e7b 803f f85a 773f f8cc 7d3f 9efe 7c3f
000000a0: d8a5 853f ed6a 7e3f a994 7d3f 7d28 7c3f
000000b0: 9201 7d3f 18b0 7c3f e559 7b3f d784 7f3f
000000c0: c7f5 803f 3691 7b3f f052 823f f3b7 743f
000000d0: 058c 803f 8aaf 7a3f c10c 843f 1be4 833f
000000e0: c8bb 7b3f fc11 813f 052f 783f 3c4d 783f
000000f0: 9ab7 803f 0ab3 7f3f dfbc 7d3f 02f5 7c3f
00000100: 9019 843f e6fb 7a3f 9ebd 7e3f 8891 7c3f
00000110: 79be 823f cf41 833f 0868 7e3f 01ad 813f
00000120: 3fd5 7f3f f0c4 803f 85b5 763f 55e1 803f
00000130: 127d 7a3f 9441 803f 3fd6 813f 6b87 843f
00000140: 0a77 823f 2d4c 803f 61a6 803f e57c 7a3f
00000150: 0e21 833f e5a1 7c3f da1f 7f3f 20f8 813f
00000160: 521b 803f f99f 823f 653d 763f 362b 833f
00000170: 4d4d 833f 9445 803f 461c 813f a9b5 7d3f
00000180: 8d5c 823f 0d76 7d3f a509 813f 39c4 7f3f
0.99571365 1.0074159 0.97130895 0.96519065 0.9608887 0.9993397 1.0327264 0.9742868
1.0289414 0.99403125 1.0035275 1.0038491 1.0253915 1.0023228 0.97060794 0.97910273
0.98112845 1.0268748 1.0332497 0.97821724 1.0116478 0.99204063 0.9792875 0.9979251
0.9690688 1.0221546 1.005921 0.99803317 0.9560892 0.98805255 1.0045593 1.0195459
0.97219354 0.9475723 0.98927957 0.9623331 1.0037572 0.9662318 0.9914088 0.98826015
1.0441236 0.99381906 0.9905496 0.9849928 0.9883052 0.987062 0.98184043 0.9981207
1.0075005 0.9826845 1.018156 0.95593184 1.004273 0.979241 1.0316392 1.0303987
0.98333406 1.0083613 0.96946746 0.9699285 1.0056031 0.99882567 0.9911632 0.9881135
1.0320301 0.98040617 0.9950808 0.98659563 1.0214378 1.0254458 0.9937749 1.0130922
0.9993476 1.00601 0.96370727 1.0068766 0.9784709 1.0020013 1.0143508 1.0353826
1.0192578 1.0023247 1.0050775 0.97846824 1.0244462 0.9868453 0.99657977 1.0153847
1.0008337 1.020507 0.9618743 1.0247562 1.0257965 1.0021234 1.0086753 0.99105316
1.0184494 0.99008256 1.0081068 0.99908787

Convs.2.1.bias f4 [100]
00000000: afb5 acbd 2e4e a5bd 2a04 a9bd c92e cfbd
00000010: d4b7 b7bd 75c5 51bd efa4 e7bd 7e49 aebd
00000020: 653c 0bbe d638 64bd a6cf e9bd e70f bcbd
00000030: af13 72bd 1ef9 7abd bda5 a1bd ebd0 84bd
00000040: f571 6abd c029 00be d40a fabd 8881 cebd
00000050: e610 f0bd 4f1c e3bd 2269 0dbe 692b b4bd
00000060: a97d a5bd 7e90 eebd 79c8 eabd 2e29 9abd
00000070: 4338 eebd b53c cebd f805 c5bd 8a40 d6bd
00000080: cb79 e9bd 6057 afbd 5d2d c1bd 9639 d3bd
00000090: c1a6 c3bd 560b 9cbd eff9 e4bd 1a55 88bd
000000a0: bbb3 dbbd 9391 c5bd 26a0 9ebd 93e2 c9bd
000000b0: 945f e9bd c2a4 0fbe e967 d8bd 1642 ccbd
000000c0: 6166 00be a9b7 a9bd a4d7 a5bd da59 a2bd
000000d0: c400 a9bd a1c2 90bd 758e 15be 1ea9 d5bd
000000e0: 02f3 c9bd eb4f bcbd 63eb c6bd 3232 fcbd
000000f0: 743e ddbd 563a afbd eccf aabd 2ae0 a0bd
00000100: 92fd cebd c684 b0bd 81bb a1bd 3e26 d7bd
00000110: 99fb b4bd 70c6 fabd 45ce 91bd f98b 0bbe
00000120: 1ed4 e0bd 2a99 a1bd d2cf f5bd af28 9cbd
00000130: 5297 87bd cdd2 dfbd ca38 11be 9491 d8bd
00000140: 51d5 0cbe d412 e2bd d1c7 e1bd 9eb2 b3bd
00000150: 5617 0dbe 9657 c7bd 215b b2bd 49a8 edbd
00000160: 14f1 03be 416d afbd b3b5 8dbd adcb a4bd
00000170: bc39 fcbd 8f77 dcbd 1b30 dabd d1cf 83bd
00000180: 4da2 d7bd c1e0 d8bd e695 a7bd ffc2 e1bd
-0.08433091 -0.08071552 -0.08252747 -0.101163454 -0.08970609 -0.0512137 -0.113107555 -0.08510111
-0.13597257 -0.055718265 -0.11416559 -0.09182721 -0.059100803 -0.061272733 -0.0789294 -0.064851604
-0.057237584 -0.12515926 -0.122090966 -0.100833 -0.11721973 -0.11089384 -0.13809636 -0.08797342
-0.080806084 -0.116486534 -0.114640184 -0.07527386 -0.11631825 -0.10070173 -0.09620279 -0.104615286
-0.11400183 -0.08561587 -0.094324805 -0.10313718 -0.0955329 -0.0761935 -0.111804835 -0.06656857
-0.1072764 -0.09646907 -0.0774539 -0.09857669 -0.11395183 -0.14027694 -0.10566694 -0.099735424
-0.12539054 -0.082869835 -0.08097771 -0.07927294 -0.08252099 -0.070683725 -0.14605124 -0.10432647
-0.09860803 -0.09194931 -0.09712865 -0.123142615 -0.108029276 -0.085560486 -0.08340439 -0.07855256
-0.101069584 -0.086190745 -0.07897092 -0.10505341 -0.08837051 -0.1224488 -0.07119421 -0.13627614
-0.10977958 -0.07890542 -0.12002529 -0.07624947 -0.06620659 -0.10928879 -0.1418182 -0.10574642
-0.13753249 -0.110387474 -0.1102444 -0.08774303 -0.13778433 -0.097335026 -0.08708788 -0.116043635
-0.12884933 -0.085657604 -0.06919422 -0.080466606 -0.123156995 -0.107649915 -0.10653707 -0.06436122
-0.10529003 -0.105897434 -0.08182888 -0.11023521

Convs.2.1.running_mean f4 [100]
00000000: 7fa0 9d3e e205 a33e 7d88 e33e b162 513e
00000010: 124e efbe 23b9 293f b2e6 94bc 708e d6be
00000020: d8a1 14bf acec 823d 7c4e 903e 2246 6ebd
00000030: c006 c83e 4a32 e13e 7642 f13c c67f 363e
00000040: 1225 453e bafe 603d 3633 57be 2d1c a13e
00000050: afc8 4ebe 7ecd 77be fa40 5cbf b415 8b3e
00000060: 43e7 d13d d616 dbbe c514 91be 329c 293e
00000070: f67a 2dbe 02c3 1abe ff78 c6bd 605f 2bbf
00000080: 235a 10bf b96f ff3d 5d41 983e 4ca5 903c
00000090: 9279 073f 445a e53e caf2 c93e d2a2 44be
000000a0: d4db 99be 3bc4 113e 5b4b 0c3f a7af 1e3e
000000b0: abae 5b3e 97fb dabe a3eb 4e3d 46f9 48be
000000c0: 88d8 a9bd ae5b d93e bf41 61be 75d2 243f
000000d0: 5618 6f3d cf03 1e3f 517b 83bf fb07 83be
000000e0: 7169 9ebe 6c28 46bf ad3f 77be 2dda d9be
000000f0: d022 3c3f 3b90 2f3b ed35 233f d764 e73e
00000100: cd5c febd 2ab7 04be b40d 653f 2d88 823c
00000110: 9798 a8be 999f 273e f04b 023d f16e eebb
00000120: f4ee 903e c28e 93be 2323 5fbe 5b83 bf3e
00000130: 7867 ee3e e19d c23d 44ae 9f3e c611 603d
00000140: 07ed a83d 7181 46be 1162 62bf a70a 603e
00000150: b112 7cbe 56b4 d33c c2d9 813e 3b6d 353e
00000160: 0aeb bb3e 73ef cfbd 712e 283f d373 22bd
00000170: 0114 64bf 8fce edbe 728d c33e d7a2 023f
00000180: bb3b 4ebf 4ac6 3ebe 09e2 5c3e 1579 bb3d
0.3078651 0.31840426 0.4444007 0.20447804 -0.4673925 0.6629812 -0.01817641 -0.41905546
-0.58059454 0.06392798 0.2818488 -0.058172353 0.3906765 0.4398368 0.029450636 0.17822179
0.19252422 0.054930426 -0.21015629 0.3146681 -0.20193742 -0.24199483 -0.86036646 0.27164996
0.10249188 -0.4279086 -0.28336158 0.1656349 -0.16941437 -0.15113452 -0.09691047 -0.66942406
-0.5638754 0.12472481 0.29737368 0.017656945 0.52919877 0.4479543 0.39443046 -0.19202736
-0.30050528 0.14235012 0.54802483 0.15496694 0.2145335 -0.42770073 0.05051769 -0.1962634
-0.08293253 0.4245276 -0.21997736 0.6438363 0.058372818 0.6172456 -1.0272008 -0.25592026
-0.3093982 -0.7740543 -0.24145384 -0.42549267 0.7349062 0.002678885 0.6375416 0.45194122
-0.12420044 -0.12960497 0.89474034 0.015934074 -0.32928917 0.16369475 0.0318107 -0.007276409
0.28307307 -0.28819853 -0.21790747 0.37404904 0.46563315 0.09502769 0.31187642 0.05470445
0.082483344 -0.19385315 -0.8843089 0.21879064 -0.24616505 0.025842827 0.2536145 0.1771745
0.36702758 -0.10153093 0.65695864 -0.03966124 -0.89093024 -0.46446654 0.38193852 0.51029724
-0.8055989 -0.18630329 0.215706 0.09153954

Convs.2.1.running_var f4 [100]
00000000: 9dd1 873f f478 993f 3c3c 873f 81ba 913f
00000010: 89c7 8c3f e22a 8b3f 88ce ef3f 317a e03f
00000020: 12ad e33f 8816 923f 0a88 b73f f420 9c3f
00000030: d2da a23f 3cf7 923f 6501 903f 0b77 953f
00000040: 6e93 a43f cf4d 8e3f a6a8 c13f 2349 6a3f
00000050: 6999 ad3f 1421 c83f 8adf d03f ca42 893f
00000060: b65d 8f3f 178a ac3f e553 a73f b435 a33f
00000070: 5d81 993f 4d0f 7a3f 9582 8c3f 76be fd3f
00000080: a5b0 9d3f 7d28 b93f d4f9 783f 3304 8d3f
00000090: c88e 9a3f ac8c 643f fa2c 843f e440 793f
000000a0: 2f32 c63f 415d b23f 6479 9f3f f666 8d3f
000000b0: 0f4f 8a3f 76c9 d03f e6a1 863f 7e7d 883f
000000c0: 5d20 a93f fa87 8c3f 1659 b23f 2a06 653f
000000d0: 05fd a93f 8d7d 9c3f 940d 3540 5058 c23f
000000e0: 138c 9d3f a94a e23f d877 9a3f b056 0540
000000f0: f5ea c83f 2c43 ce3f c673 a53f 2427 823f
00000100: 3153 c93f 9e7f 863f 4349 8d3f d568 993f
00000110: 35a3 be3f 7a0f 1e40 d90d a73f 32af 953f
00000120: 73c1 853f 4068 0940 0ab5 803f 0684 a93f
00000130: 2dc2 983f 6b0a af3f cc20 0d40 e36e b43f
00000140: 3bd7 973f 1080 963f 5fd0 c73f f383 9b3f
00000150: 98ba bf3f ceb1 b13f 0128 953f 3063 b23f
00000160: c479 903f e15b a53f 1099 9b3f 4cc5 a53f
00000170: c6ca c73f f0ab b43f 7fef c03f f180 943f
00000180: 9f4b 2240 bb11 a93f e9fd ac3f 71f8 a13f
1.0610844 1.1990037 1.0565257 1.1385041 1.0998393 1.0872462 1.8734903 1.753729
1.7787192 1.1413126 1.4338391 1.2197556 1.2723029 1.14817 1.1250426 1.1676954
1.2857492 1.1117495 1.5129592 0.9151785 1.3562442 1.5635095 1.6318219 1.0723507
1.1200473 1.3479642 1.3072478 1.2750764 1.1992604 0.976796 1.097735 1.9823749
1.2319533 1.4465481 0.9725621 1.1016906 1.2074823 0.8927715 1.0326226 0.9736464
1.5484065 1.3934709 1.245892 1.1047046 1.0805377 1.6311481 1.0518157 1.0663297
1.3213001 1.0978997 1.3933437 0.8946253 1.328034 1.2225815 2.8289537 1.5183201
1.2308372 1.7679034 1.2067823 2.083416 1.5696703 1.6114249 1.2925956 1.0168195
1.5728513 1.0507696 1.1037983 1.1985117 1.4893557 2.4696946 1.3051101 1.169409
1.0449661 2.146988 1.0055249 1.3243415 1.1934258 1.3675054 2.2051268 1.409634
1.1862558 1.1757832 1.5610465 1.2149643 1.4978819 1.3882387 1.1652833 1.393652
1.128716 1.2918664 1.2156086 1.2950835 1.5608757 1.4114971 1.5073088 1.160185
2.5358655 1.3208536 1.3514987 1.2653943

Convs.3.0.weight f4 [200, 100, 1, 5]
00000000: c494 d43c 7bd7 0b3d fb03 25bd 5650 3cbd
00000010: f79f efbc c24e 623d eca7 d93c 18b9 4fbc
00000020: 918d e8bc 4f60 133c e75e 803b af70 113c
00000030: 8cca 763b c020 2dba bcee 5f3c f484 fdbc
00000040: c7c4 0bbd 3aa5 ebbc 6ebe f93b 3b4f f03c
00000050: 13e7 25bd b345 283d 7cfe 06bd 2d4e 79bd
00000060: ff51 713b e2d6 50bc 1490 1ebd b150 9abc
00000070: 4109 b23c 10a1 61bd cd54 043c bcad 023d
00000080: fa72 9c3c 441b 3cbc f9c9 143d 9c5c e2bb
00000090: c279 03bc 8008 2f3c da02 50bc 7858 75bc
000000a0: 2b64 1dbd 100d 88bd e1ff 7abb 5e3f c8bc
000000b0: 3031 61bd 1542 443c 2111 ec3b 43fd 623d
000000c0: 3ca3 b43c 27ab b3bc e10d fabc affe 293c
000000d0: 974a 72bc 9233 9dbc ea67 863b dd79 72bd
000000e0: 9b79 ddbb 7174 ba3c 07b1 89bb caef 57bc
000000f0: a38d d8bc 81c1 2fbc af8e 2a3d cc6d 6ebd
00000100: d5de 31bd 3b08 92bc 0665 12bd df8d 853c
00000110: d423 b33a 846a 76bc 0dd0 523c aa51 fe39
00000120: ef92 e4bc 1ac9 9a3c cbce 653c c470 f1bc
00000130: d5ed dbbc e7b0 fdbc 22b2 3ebd fa93 13bd
00000140: b042 23bd 81b5 ab3c 4e9f 9dbc ea0e 58bd
00000150: a966 99bc c47f 31bc 25a1 9e3c ef28 d63c
00000160: c3e8 e7bc 6176 2fbd 7c0f 9d3c f20f 833c
00000170: 166e b33c 75b3 0ebd 6f2b 14bd 1d1e 25bd
00000180: 9bc8 49bd 3e1f aa3c 6654 4abd 5377 a93b
00000190: 18a4 43bc bcfc 29bc bf89 dd3b 8f8f 32bd
000001a0: 631d f23c c698 163b adb7 30bc 95d6 44bd
000001b0: 58f5 8b3b 5373 efba b596 a1bb 888d 743c
000001c0: 67c2 6dbc 87ac 16bc d63b 9a3a 8872 9ebc
000001d0: 726c 1a3d 2ddd 23bd 2ad2 cdbc 5460 cfbc
000001e0: 37b2 8a3a f56b 1ebc 6d02 9abc 6830 d5bb
000001f0: 7227 3f3c 0415 6dbd eb9c 7dbd b73c 913b
00000200: d2d2 333c 072b 8b3c 9895 ff3b 7eb0 1ebd
00000210: 3a91 deba 0ac3 453b e6d8 bcbb 2e82 babc
00000220: 5ede 00bd 2b17 ab3c 2b3d 243c 2b20 f4bc
00000230: 7517 343c 7c14 d1bb 085e 063d 2542 c2bc
00000240: e264 6abd 9c77 aebc 2569 913c 026a afbc
00000250: 4d2e 6f3c 43c2 aebc d274 32bd d163 2f3d
00000260: cb8d b0bc af6d 67bc 8bd9 cabc 5f40 1f3d
00000270: 4f85 c43c a949 f13c 925c ea3c 4b16 193d
00000280: df0d 3fbd 98f2 1cbb 8123 933b 2a4b e5bc
00000290: b0b5 a5bc 618a b3bc 2369 9e3c db8f e3bb
000002a0: dd18 ddbc 5695 fabc 3598 11bd 1821 f1bc
000002b0: 3ad8 cfbc 9f9f a8bd 96e1 4dbd b5c4 1bbd
000002c0: cbd0 06bb c76f 8e3c e45c 193d 8e81 e9bc
000002d0: 7f50 29bd 0e67 18bd 4b19 62bd 2615 78bc
000002e0: cd04 1d3c 8ddf 9e3c b3a7 f639 6e66 25bd
000002f0: 96a3 803b d433 09bd bddb 593b f3d4 27bd
00000300: 67f8 3abd 6128 4ebb 3ed6 a43c 3941 f53c
00000310: 666b 023d a08a 8d3c 923c ab38 09c1 e2bc
00000320: 2f2f 563b a803 e23a f708 ddbc be6e 4c3c
00000330: eee2 193a 0c20 66bb 9132 253b d13d 713c
00000340: 45dd 32bd b36c 68bd a33a 06bd d031 ce3c
00000350: fa39 2d3c b146 eb3a 56a0 053d 004d 833c
00000360: b03a 23bd 53b5 0ebb a6d9 7e3c 8856 bdbc
00000370: 729c 993b 4be6 30bd dcfc b039 7f7f 80bd
00000380: 9772 07bd ab84 883d 8aaa 893c 89df e83c
00000390: 9db5 b0bc ea48 a1bc 3bf3 823d 5078 303d
000003a0: 2f40 8f3c a1e6 03bd 46ee ba3c aaee 86bd
000003b0: 7be9 9cbc 6c51 63bc cb86 cd3b 46ce adbc
000003c0: fcd2 abbc 36b7 91bd 30f4 573c 251e 843a
000003d0: a118 a2bc 718d b9bb dbeb d43c 5442 83bc
000003e0: a6c7 e4bc 4259 2fbd d208 9a3d ec81 4f3d
000003f0: 3f4e abbc 111d fb3c 9559 cdbb 6bb7 02bc
0.025949843 0.034141045 -0.040287 -0.04597505 -0.029251082 0.05525089 0.02656933 -0.012678407
-0.028387817 0.00899513 0.0039175632 0.0088769635 0.0037657348 -0.00066043064 0.013667759 -0.030947186
-0.03412321 -0.02876531 0.007621578 0.029334655 -0.040503573 0.041082095 -0.03295754 -0.06086557
0.0036822555 -0.012746545 -0.038711622 -0.018837305 0.021732928 -0.05508524 0.008076859 0.031903967
0.019097794 -0.01148111 0.03632543 -0.0069080126 -0.008024635 0.010683179 -0.012695992 -0.014974706
-0.038425606 -0.066431165 -0.0038299488 -0.024444278 -0.05497855 0.011978646 0.0072041904 0.05541731
0.022050492 -0.021932198 -0.030524196 0.010375663 -0.014788291 -0.01918963 0.004101743 -0.05919825
-0.0067588813 0.022760602 -0.0042020115 -0.013179729 -0.026434725 -0.010727287 0.04163998 -0.05821018
-0.0434254 -0.01782619 -0.035740875 0.016303001 0.0013667294 -0.015040044 0.012866986 0.000485075
-0.027902095 0.01889472 0.014026354 -0.029472716 -0.026846806 -0.030968143 -0.0465566 -0.036029793
-0.03985852 0.020960571 -0.019241001 -0.0527486 -0.01872571 -0.010833684 0.01936395 0.026142566
-0.028309232 -0.042837504 0.019172423 0.015998814 0.021903079 -0.034839112 -0.036174234 -0.04031192
-0.049263578 0.02076685 -0.049396895 0.0051716953 -0.0119409785 -0.010375198 0.0067608054 -0.04359394
0.029555028 0.0022979244 -0.010785979 -0.048056204 0.0042711906 -0.0018268622 -0.0049312958 0.014926322
-0.014511681 -0.009196407 0.00117671 -0.019341722 0.037701078 -0.04000585 -0.025124628 -0.025314488
0.0010581677 -0.009669294 -0.018799985 -0.0065060146 0.011667119 -0.05788137 -0.061917227 0.0044322866
0.010975556 0.01698829 0.0077998154 -0.038742535 -0.0016980537 0.0030176067 -0.005763161 -0.022767153
-0.031462066 0.02088507 0.010024349 -0.029800495 0.010991921 -0.0063806158 0.03280452 -0.02371318
-0.057225116 -0.021297269 0.017750332 -0.021412853 0.014598441 -0.021332866 -0.04356844 0.0428198
-0.021551987 -0.014125272 -0.024761936 0.03887975 0.023989348 0.02945407 0.028608594 0.037374776
-0.046644088 -0.0023948308 0.0044903164 -0.027989943 -0.020228237 -0.02191657 0.019337242 -0.006944639
-0.026989395 -0.030588787 -0.035545547 -0.029434726 -0.02537166 -0.0823357 -0.050263964 -0.03802939
-0.0020571228 0.017387284 0.037442103 -0.02850416 -0.041336533 -0.037207656 -0.055199903 -0.015141761
0.009583664 0.019393707 0.00047045722 -0.040380888 0.003925751 -0.033496693 0.0033242546 -0.04097457
-0.04564705 -0.0031457173 0.02012169 0.029938327 0.031840704 0.017278016 8.1651975e-05 -0.027679937
0.0032681932 0.0017243521 -0.026981814 0.012477575 0.0005870302 -0.0035114316 0.0025207142 0.014724211
-0.04366805 -0.05674429 -0.032770764 0.025170237 0.010572905 0.0017950145 0.03262361 0.016027927
-0.03985089 -0.0021775558 0.015554821 -0.02311255 0.004687839 -0.043188374 0.0003375773 -0.06274318
-0.033068266 0.066659294 0.016804952 0.028426902 -0.021570975 -0.019688088 0.06394049 0.04308349
0.01748666 -0.032202367 0.022818696 -0.0658849 -0.0191543 -0.013874393 0.006272172 -0.021216523
-0.020974629 -0.07115023 0.013180777 0.0010079785 -0.019787135 -0.005662613 0.02599137 -0.016022839
-0.027927231 -0.042809732 0.075212136 0.050661013 -0.020911334 0.030653508 -0.0062667825 -0.007978301
