lab2/models/DeepConvNet_LeakyReLU.pth (torch, 616645 bytes, 28 tensors)

Conv0.weight f4 [25, 1, 1, 5]
-0.460064 0.30787742 0.09687568 -0.26039276 0.2526416 0.23403126 0.04860551 -0.03233695
-0.34975287 0.28070664 -0.15366024 0.3537835 -0.4517613 0.03543772 0.33393124 -0.07616483
0.06514534 -0.264471 -0.2225092 0.20789587 0.18418023 -0.24594156 -0.29357243 0.05809118
-0.194956 0.03165207 0.1198966 -0.10927742 -0.3016703 -0.24694833 -0.4455196 -0.25092113
0.44882777 0.04504711 0.17753844 0.008526488 0.03586219 0.42937392 -0.25620332 -0.102394074
-0.3558161 -0.21942678 -0.17342836 0.21421002 0.31903872 -0.027416496 0.294142 -0.12615553
-0.105412036 -0.41392577 -0.18065667 0.3279128 -0.00974654 -0.19687447 -0.2448531 -0.07113359
-0.27149346 -0.4133759 0.037699115 -0.37116703 -0.03291158 0.34375426 0.4200078 0.16792585
-0.30387396 0.047958687 -0.33757332 -0.34855494 0.07652651 0.32609928 -0.4366159 0.10422772
0.46278265 0.4020828 -0.452864 0.34896606 -0.23472507 -0.100824796 0.11576613 -0.1521976
-0.34149686 -0.40057573 -0.22367746 0.37637493 0.01693725 -0.32529902 0.34244087 0.28653455
-0.23372747 -0.286483 0.32420674 0.41841173 0.33829936 0.32898617 -0.083506145 0.075107194
0.34709272 -0.09155047 0.129596 0.27726084 -0.34451967 0.014117872 -0.16215846 0.40626323
-0.33006507 -0.07446174 0.06974905 -0.01405661 0.09623271 0.059048742 0.09010099 -0.28425148
0.16986851 -0.17839575 -0.37726578 -0.35161844 -0.12284958 0.10576025 -0.039305314 -0.2896243
0.21301839 -0.42882258 -0.06722943 0.24879932 0.16633892
00000000: 828d ebbe 1ca2 9d3e c266 c63d 3352 85be
00000010: 3d5a 813e e4a5 6f3e 9216 473d c073 04bd
00000020: cf12 b3be c8b8 8f3e 1c59 1dbe 1c23 b53e
00000030: 424d e7be 2527 113d 09f9 aa3e 4efc 9bbd
00000040: ec6a 853d be68 87be 74d9 63be a8e2 543e
00000050: be99 3c3e 1bd8 7bbe 204f 96be 04f1 6d3d
00000060: 8ca2 47be 9aa5 013d 598c f53d d7cc dfbd
00000070: 8874 9abe 06e0 7cbe 251b e4be bc78 80be
00000080: c1cc e53e 5283 383d a3cc 353e afb2 0b3c
00000090: 3be4 123d e6d6 db3e 152d 83be fcb3 d1bd
000000a0: 872d b6be 6ab1 60be 3497 31be df59 5b3e
000000b0: 0b59 a33e 8f98 e0bc c899 963e ea2e 01be
000000c0: 44e2 d7bd 14ee d3be 10fe 38be 30e4 a73e
000000d0: f4af 1fbc 7699 49be c5ba 7abe 7dae 91bd
000000e0: 3101 8bbe 02a6 d3be 636a 1a3d 9b09 bebe
000000f0: 4bce 06bd 8f00 b03e 430b d73e c1f4 2b3e
00000100: 5e95 9bbe 5470 443d 69d6 acbe cb75 b2be
00000110: eeb9 9c3d 7cf6 a63e 1f8c dfbe 5875 d53d
00000120: d9f1 ec3e ccdd cd3e cadd e7be aeab b23e
00000130: c55b 70be 3b7d cebd cb16 ed3d b0d9 1bbe
00000140: add8 aebe 4318 cdbe b40b 65be 37b4 c03e
00000150: fdbf 8a3c 988d a6be 6954 af3e a8b4 923e
00000160: 4156 6fbe e6ad 92be 6dfe a53e 103a d63e
00000170: 9335 ad3e e070 a83e 4505 abbd cdd1 993d
00000180: 23b6 b13e d07e bbbd d0b4 043e 22f5 8d3e
00000190: e264 b0be a64e 673c de0c 26be bc01 d03e
000001a0: 4afe a8be 667f 98bd 97d8 8e3d b24d 66bc
000001b0: a815 c53d 18dd 713d de86 b83d 6989 91be
000001c0: 03f2 2d3e 60ad 36be fb28 c1be 5507 b4be
000001d0: 9098 fbbd d498 d83d 9cfe 20bd a349 94be
000001e0: 7e21 5a3e a28e dbbe 95af 89bd 40c5 7e3e
000001f0: c054 2a3e

Conv0.bias f4 [25]
0.34491318 0.09517842 -0.295875 0.2643668 0.08050609 0.30120417 -0.28505677 -0.33128306
0.3014147 -0.038360447 -0.4045212 0.28478438 0.22870858 -0.006221978 0.39977786 0.077674076
-0.38206226 -0.4341918 -0.08831232 -0.057452437 -0.07291979 -0.14579715 -0.29733154 -0.060156114
-0.3478596
00000000: 7698 b03e e7ec c23d ee7c 97be 165b 873e
00000010: 60e0 a43d 6f37 9a3e f6f2 91be ef9d a9be
00000020: 0753 9a3e d81f 1dbd 671d cfbe 42cf 913e
00000030: 9532 6a3e bce1 cbbb afaf cc3e 9613 9f3d
00000040: aa9d c3be 634e debe 17dd b4bd 3f53 6bbd
00000050: f956 95bd d94b 15be d73b 98be 4266 76bd
00000060: a71a b2be

Convs.0.0.weight f4 [25, 25, 2, 1]
0.014358389 0.0692366 -0.05152349 0.08261305 -0.16743308 0.08666015 0.008719933 0.027702654
0.051915135 -0.064874366 -0.09671971 0.059795577 0.045568112 0.02947629 0.09226124 0.052942764
0.109122895 -0.01090197 0.10513582 -0.13522962 0.05088798 -0.11252491 -0.093739256 0.06654188
-0.08000148 -0.09305512 0.06051279 -0.08936385 0.16827385 -0.098840564 0.11739462 0.079400465
-0.00020663935 -0.017834164 -0.08538367 0.048247196 -0.10920265 0.02544213 -0.13979141 0.02393575
0.0071763126 -0.044680785 -0.06804654 -0.09728127 -0.09019557 0.122534275 0.17591763 -0.114024386
-0.092851736 -0.042628255 0.1517561 0.0051926593 -0.10940648 0.10566538 0.11779447 -0.13064624
0.11420425 0.014660987 0.12711905 -0.084023334 -0.118710525 0.08003518 -0.13407816 -0.07562676
-0.044122472 -0.03811592 -0.001382831 -0.09402744 0.103260025 0.10898924 -0.1325194 -0.13360149
0.12062229 -0.059030816 -0.12515791 -0.035012357 0.025205 -0.0621982 -0.120280236 -0.010864974
-0.06753635 -0.111815095 0.11918102 -0.019643258 -0.1138667 0.023720646 -0.12502147 0.148748
-0.09603277 0.021411018 -0.06925233 -0.10420814 -0.009008865 -0.082273945 0.101788424 0.096729875
-0.020218551 0.09440984 0.036252435 0.041129716 -0.009390949 -0.15426524 0.07907973 0.026492568
0.07207219 0.036882557 0.07167404 0.05324861 0.046189148 0.061741807 0.033374477 -0.04882563
-0.12025582 -0.021014135 -0.059461147 -0.12602544 0.08244787 0.07148735 -0.1050691 0.04873435
0.08774591 -0.028223451 -0.04293239 0.07927063 -0.028114807 0.12664665 -0.07306399 -0.12034227
0.09537083 0.06407043 0.10865008 0.060987066 -0.093177095 0.10007682 -0.03253017 -0.08286259
0.06450651 -0.05350869 -0.08403589 -0.018768046 -0.03956532 0.111968555 0.14805983 -0.09386997
-0.07405006 0.13605867 0.057738114 -0.08345061 0.062650256 0.10449409 -0.026603108 0.1218747
-0.14581907 0.06091649 -0.063487224 0.06445515 0.10258769 0.10224447 0.0817445 -0.049120322
0.050280407 0.062902965 -0.037549425 -0.1337573 0.02752203 -0.0015150997 0.09278567 -0.06793134
-0.064613186 -0.07832792 -0.1417146 -0.122032195 -0.030504001 -0.08387604 0.1089066 0.09248457
-0.052545857 0.023397312 -0.10331944 -0.022942096 0.07545322 0.025491934 0.005350016 -0.114698574
-0.1276648 0.09305804 -0.13208582 -0.13766138 -0.05591327 -0.14152475 0.004591498 -0.1002545
0.10270236 0.0647211 -0.026583385 -0.027012575 0.055589776 0.08277401 -0.044650182 -0.07313672
-0.07595632 -0.07627757 0.12685327 -0.043846603 0.052851886 -0.10895764 -0.0061309193 0.022985026
-0.09710816 -0.117177606 0.044932526 0.110552415 -0.020021947 0.116853304 -0.084884666 0.0047435733
-0.13712716 0.06489573 -0.0886919 0.072004326 0.055655833 0.05684693 -0.09314275 -0.08806215
-0.061449654 -0.09713599 0.013343013 0.034542326 0.09830535 0.11972312 -0.06449926 0.1240564
0.04236532 -0.04326284 0.06844195 -0.11790699 -0.051270436 -0.036367483 0.1107494 -0.05180644
0.048181485 -0.027462715 0.11330742 -0.09096818 0.1055081 0.122249946 -0.077963084 0.0084641995
0.09697096 0.06222194 0.048811104 -0.06572145 0.027445126 -0.078527376 -0.06568615 0.049212374
00000000: 733f 6b3c ebcb 8d3d 4c0a 53bd 0831 a93d
00000010: 9473 2bbe e07a b13d 0dde 0e3c adf0 e23c
00000020: f7a4 543d dadc 84bd fc14 c6bd 35ec 743d
00000030: a1a5 3a3d 4378 f13c 76f3 bc3d 83da 583d
00000040: d37b df3d 2d9e 32bc 7351 d73d a279 0abe
00000050: ea6f 503d 7673 e6bd 5efa bfbd 1c47 883d
00000060: d1d7 a3bd af93 bebd 42dc 773d 6504 b7bd
00000070: fb4f 2c3e ec6c cabd 976c f03d b69c a23d
00000080: 54ad 58b9 f418 92bc a2dd aebd da9e 453d
00000090: a4a5 dfbd 046c d03c 7b25 0fbe e814 c43c
000000a0: 4627 eb3b 3303 37bd fc5b 8bbd 673b c7bd
000000b0: 74b8 b8bd 40f3 fa3d c023 343e 9e85 e9bd
000000c0: 0d29 bebd f79a 2ebd f365 1b3e 2f27 aa3b
000000d0: 8110 e0bd 1767 d83d 3a3e f13d 21c8 05be
000000e0: ebe3 e93d a334 703c 7f2b 023e 6d14 acbd
000000f0: 811e f3bd 7ce9 a33d c94b 09be 34e2 9abd
00000100: c4b9 34bd 701f 1cbd 1c40 b5ba 7591 c0bd
00000110: fe79 d33d c035 df3d 2ab3 07be d4ce 08be
00000120: d208 f73d 4cca 71bd 6529 00be 1e69 0fbd
00000130: b77a ce3c 8ac3 7ebd 7c55 f6bd 0103 32bc
00000140: 7f50 8abd 50ff e4bd 2e15 f43d e6ea a0bc
00000150: f232 e9bd cd51 c23c a105 00be 6551 183e
00000160: d4ac c4bd 2966 af3c 2ad4 8dbd 146b d5bd
00000170: eb99 13bc 3e7f a8bd 7376 d03d 501a c63d
00000180: 60a1 a5bc f259 c13d 6f7d 143d a277 283d
00000190: 7fdc 19bc b5f7 1dbe 8ef4 a13d f106 d93c
000001a0: 969a 933d 2a12 173d d7c9 923d 371b 5a3d
000001b0: d530 3d3d fae4 7c3d adb3 083d 62fd 47bd
000001c0: af48 f6bd d625 acbc 888d 73bd d00c 01be
000001d0: 6eda a83d f667 923d 782e d7bd ab9d 473d
000001e0: 21b4 b33d de34 e7bc e0d9 2fbd a458 a23d
000001f0: 0651 e6bc a9af 013e 93a2 95bd 0276 f6bd
00000200: c851 c33d 5c37 833d ef83 de3d 93cd 793d
00000210: a2d3 bebd 13f5 cc3d 5b3e 05bd ddb3 a9bd
00000220: fd1b 843d ee2b 5bbd 021b acbd 72bf 99bc
00000230: 3f0f 22bd c54f e53d ff9c 173e e63e c0bd
00000240: 8fa7 97bd f752 0b3e cd7e 6c3d 27e8 aabd
00000250: c74e 803d ff00 d63d c3ee d9bc 7199 f93d
00000260: 9851 15be 9283 793d 9705 82bd 1001 843d
00000270: 7f19 d23d 8c65 d13d a969 a73d 6432 49bd
00000280: d4f2 4d3d 45d3 803d 6dcd 19bd acf7 08be
00000290: e175 e13c 4f96 c6ba 6a06 be3d 961f 8bbd
000002a0: eb53 84bd 636a a0bd a21d 11be 04ec f9bd
000002b0: 87e3 f9bc 34c7 abbd 6c0a df3d 8d68 bd3d
000002c0: 533a 57bd b8ab bf3c 2499 d3bd 10f1 bbbc
000002d0: 3887 9a3d 76d4 d03c 304f af3b 16e7 eabd
000002e0: 90ba 02be 3795 be3d 8141 07be 1bf7 0cbe
000002f0: 5005 65bd ddeb 10be 4774 963b 3b52 cdbd
00000300: 9d55 d23d 7f8c 843d 66c5 d9bc 7a49 ddbc
00000310: 1bb2 633d 6c85 a93d 1ce3 36bd b4c8 95bd
00000320: fd8e 9bbd 6a37 9cbd d3e5 013e 7f98 33bd
00000330: 387b 583d 2f25 dfbd e1e5 c8bb 184b bc3c
00000340: a5e0 c6bd d0fa efbd 2b0b 383d 4e69 e23d
00000350: 1105 a4bc c950 ef3d 03d8 adbd fa6f 9b3b
00000360: 106b 0cbe 0de8 843d 19a4 b5bd 0177 933d
00000370: 5ff7 633d 54d8 683d a0c1 bebd ee59 b4bd
00000380: a2b2 7bbd 3cef c6bd a79c 5a3c 417c 0d3d
00000390: 5154 c93d 6531 f53d 3018 84bd 4811 fe3d
000003a0: 4287 2d3d 6034 31bd 4b2b 8c3d 3879 f1bd
000003b0: f300 52bd 12f6 14bd 95d0 e23d fd32 54bd
000003c0: f359 453d 7df9 e0bc b80d e83d 864d babd
000003d0: a114 d83d 2e5e fa3d 1cab 9fbd 6dad 0a3c
000003e0: b698 c63d 6fdc 7e3d 27ee 473d f898 86bd
000003f0: 9ad4 e03c f6d2 a0bd 7686 86bd ea92 493d

Convs.0.0.bias f4 [25]
0.09452991 0.10104371 -0.0654538 -0.0038129534 0.08272289 -0.07776625 0.13274916 -0.07359365
0.012925791 -0.13816519 -0.08585935 -0.12654905 -0.0035952197 0.10865714 -0.13063696 0.027154071
-0.029819736 0.08584377 -0.08907301 0.1033853 -0.13562351 0.10034578 0.07753229 0.06958034
-0.13413438
00000000: e698 c13d 01f0 ce3d a40c 86bd bee2 79bb
00000010: 9e6a a93d e943 9fbd 65ef 073e 44b8 96bd
00000020: b2c6 533c 2d7b 0dbe 07d7 afbd 1396 01be
00000030: c79d 6bbb a287 de3d b2c5 05be 3772 de3c
00000040: 8548 f4bc dcce af3d e96b b6bd acbb d33d
00000050: e4e0 0abe 1782 cd3d 40c9 9e3d 2380 8e3d
00000060: 865a 09be

Convs.0.1.weight f4 [25]
0.993992 1.0184335 1.0304538 0.9895806 1.0053223 0.96878445 0.9462438 0.99168813
1.0138179 0.9362975 0.96883625 0.9564079 0.97422683 0.9579827 0.973721 1.0201085
0.9778703 1.0279417 0.9939723 0.9982531 1.0441569 0.9838535 0.9700402 0.9772552
1.0153183
00000000: 4276 7e3f 075c 823f e9e5 833f 2755 7d3f
00000010: 67ae 803f 4202 783f 093d 723f 46df 7d3f
00000020: c9c4 813f 31b1 6f3f a705 783f 26d7 743f
00000030: ee66 793f 5b3e 753f c845 793f ea92 823f
00000040: b555 7a3f 9893 833f f874 7e3f 848d 7f3f
00000050: efa6 853f d3dd 7b3f 8e54 783f 662d 7a3f
00000060: f3f5 813f

Convs.0.1.bias f4 [25]
-0.063732006 -0.054154623 -0.047002595 -0.06322607 -0.0451277 -0.16504303 -0.24654876 -0.07813941
-0.16487883 -0.16950873 -0.21433161 -0.09664096 -0.18057857 -0.104211494 -0.26445553 -0.18310632
-0.12592594 -0.1222914 -0.14919445 -0.10083131 -0.10281123 -0.11095116 -0.154781 -0.14368264
-0.112623885
00000000: ed85 82bd 3dd1 5dbd cb85 40bd ab7c 81bd
00000010: d3d7 38bd 0a01 29be 4777 7cbe 8e07 a0bd
00000020: ffd5 28be b293 2dbe bf79 5bbe b2eb c5bd
00000030: 97e9 38be d66c d5bd b766 87be 3980 3bbe
00000040: bbf2 00be ea73 fabd 6ec6 18be a580 cebd
00000050: b28e d2bd 5d3a e3bd e97e 1ebe 8b21 13be
00000060: 5aa7 e6bd

Convs.0.1.running_mean f4 [25]
0.23145491 0.1976699 0.099704266 0.3704011 -0.069645315 -0.14515728 0.20160766 -0.08241191
0.09906582 -0.09132003 -0.0720686 0.06282743 0.055323992 0.15603022 -0.19120042 -0.06342679
-0.272564 0.060245167 -0.27402472 0.22471367 0.017347446 0.22229382 0.24508852 -0.043756027
-0.35133967
00000000: 8402 6d3e fa69 4a3e c031 cc3d 37a5 bd3e
00000010: 34a2 8ebd 1ca4 14be 3d72 4e3e 93c7 a8bd
00000020: 05e3 ca3d ff05 bbbd b498 93bd abab 803d
00000030: 699b 623d 63c6 1f3e 0bca 43be e8e5 81bd
00000040: 828d 8bbe a3c3 763d f84c 8cbe 571b 663e
00000050: 3b1c 8e3c fea0 633e 7cf8 7a3e 8539 33bd
00000060: cbe2 b3be

Convs.0.1.running_var f4 [25]
3.9539006 10.407661 1.1666234 2.586383 0.5830418 1.3593827 0.9160462 2.104429
6.6546836 0.9700111 0.7250897 1.628717 0.7294981 6.1132913 0.5443366 1.7774206
1.593956 2.7983708 0.82997 1.9089131 4.896169 3.1569083 3.9539096 2.4868076
1.2109271
00000000: b50c 7d40 c885 2641 ea53 953f 4d87 2540
00000010: 3a42 153f 4100 ae3f 0182 6a3f f7ae 0640
00000020: 2bf3 d440 a652 783f 7b9f 393f cc79 d03f
00000030: 63c0 3a3f 15a0 c340 a559 0b3f 8582 e33f
00000040: c006 cc3f 8218 3340 ea78 543f 4457 f43f
00000050: 6bad 9c40 c90a 4a40 db0c 7d40 db27 1f40
00000060: a9ff 9a3f

Convs.1.0.weight f4 [50, 25, 1, 5]
0.016643029 0.032963853 -0.06139574 -0.04591433 -0.098011434 0.024679651 -0.08100948 -0.03134519
-0.04104742 -0.0491008 -0.05544781 0.037867345 -0.08764884 -0.07528267 -0.020836262 0.08819995
-0.0071504307 -0.0008250966 0.059866194 -0.11748057 -0.087047875 0.05172701 -0.06823631 0.026410244
0.021747783 -0.02366892 0.0129078515 0.033007238 0.026141334 -0.0032103134 0.07795326 0.084485166
-0.07614832 0.08550371 0.036542583 0.10098111 -0.064108804 -0.0362367 0.023127228 0.06142487
-0.027072236 0.041857526 -0.0532907 -0.011937083 -0.0009990341 -0.019157544 -0.0130252205 0.08573657
0.005809672 0.050665606 0.09154105 -0.015427489 -0.043067306 0.0104488265 0.02062688 -0.023482451
-0.07075412 -0.055059426 0.0049334583 0.030429998 -0.02379217 0.06702605 -0.0029076284 0.0066872872
0.084267184 0.014646659 0.019833218 -0.009270236 -0.01090513 0.012515661 0.047550883 -0.03950466
0.015699223 0.10158943 0.014013917 -0.052440614 -0.08045204 -0.003489596 -0.038097274 -0.07127076
0.07821771 0.028925955 -0.09622249 -0.018277997 -0.0008692393 -0.076683424 0.0011061924 -0.08022201
0.03865288 -0.033149473 -0.082990244 0.031534806 0.023122655 0.024283264 0.11652913 -0.06822829
0.011940278 0.010691674 -0.036908302 0.112584576 -0.067665786 -0.041411396 0.0026542656 0.0023219134
-0.004290172 0.0448463 0.02119311 0.06889311 -0.09206121 0.01816751 -0.075334154 -0.0064485664
0.0060547744 0.023123229 0.045641508 0.08986071 -0.08341873 -0.0044573382 0.051500298 -0.043092135
0.053072248 -0.09372894 0.06304356 0.020385845 -0.12691788 -0.022038506 -0.043993194 0.013222951
0.056643628 0.052326124 0.0058035534 -0.036408614 0.046725184 0.074964695 -0.05347536 0.039427128
0.013937501 0.026450602 0.064386256 0.09275789 0.07782122 -0.026431745 0.00523791 -0.012154605
0.049258597 0.08169553 0.055496637 0.0014973494 -0.03074272 0.023311762 -0.009307873 0.054813974
-0.03242534 -0.026995769 -0.0473128 0.04397764 -0.06997968 -0.08576445 0.021908391 -0.10100573
-0.0069098747 0.08163408 -0.062269196 0.014828986 -0.014957817 0.022638172 0.09212522 0.066496395
0.11566347 0.089233 -0.08407992 -0.0455744 -0.031742927 0.074184045 -0.03013394 0.0004390973
0.053000577 0.046798334 -0.009334171 -0.0743395 -0.040631354 0.05894515 -0.074079946 -0.05767323
-0.017611232 -0.07250861 -0.015046639 -0.021116782 -0.015545372 -0.025964417 -0.03143046 0.03589212
0.07946865 -0.041460127 0.028248332 -0.054937407 0.072591126 -0.024183778 -0.05085926 0.028740216
-0.077520825 -0.09083986 -0.055102434 0.05953414 0.013646589 0.056569364 -0.10664369 -0.058477692
-0.041411698 -0.024324436 0.020111179 0.1335171 0.01565127 -0.026417334 0.08749939 0.072743475
0.024691658 0.07870589 -0.004908695 -0.045769796 -0.00020664062 0.024401318 0.0720146 -0.005657785
0.08709769 -0.02841086 -0.01055587 -0.059307355 0.043738913 -0.05574833 0.12062015 0.06476749
-0.023556553 -0.035522938 0.13605525 -0.032699525 -0.053430986 -0.033433784 -0.0059925355 0.08493468
0.010908469 0.021735484 -0.051882174 0.08292369 0.08610075 0.03152669 0.052342437 -0.042466704
-0.05782149 0.029122943 0.009312757 -0.04592271 -0.03362286 -0.022209201 0.030588266 -0.03573432
00000000: f656 883c 1b05 073d 197a 7bbd aa10 3cbd
00000010: 38ba c8bd fb2c ca3c 4ce8 a5bd d063 00bd
00000020: 5721 28bd ec1d 49bd 3e1d 63bd ca1a 1b3d
00000030: 3c81 b3bd cd2d 9abd cfb0 aabc 2da2 b43d
00000040: 294e eabb 4c4b 58ba 4136 753d a799 f0bd
00000050: 2846 b2bd b4df 533d 7abf 8bbd 4c5a d83c
00000060: 6828 b23c 53e5 c1bc 747b 533c 9932 073d
00000070: 5a26 d63c 1f64 52bb f5a5 9f3d 8f06 ad3d
00000080: a7f3 9bbd 921c af3d adad 153d 2fcf ce3d
00000090: 7a4b 83bd ef6c 14bd 5075 bd3c a598 7b3d
000000a0: 98c6 ddbc cc72 2b3d 5947 5abd c193 43bc
000000b0: 06f2 82ba 48f0 9cbc bc67 55bc a896 af3d
000000c0: 105f be3b bd86 4f3d e079 bb3d 94c3 7cbc
000000d0: 5867 30bd 8e31 2b3c b4f9 a83c 455e c0bc
000000e0: 89e7 90bd fe85 61bd d9a8 a13b 5548 f93c
000000f0: cce7 c2bc f444 893d e98d 3ebb 0821 db3b
00000100: 4694 ac3d 8af8 6f3c 4679 a23c 30e2 17bc
00000110: 6eab 32bc 7d0e 4d3c b7c4 423d a3cf 21bd
00000120: a89b 803c 1e0e d03d a19a 653c f8cb 56bd
00000130: 0ac4 a4bd b5b1 64bb e30b 1cbd 67f6 91bd
00000140: 9b30 a03d 20f6 ec3c 4c10 c5bd bdbb 95bc
00000150: a9dd 63ba 330c 9dbd a8fd 903a 704b a4bd
00000160: 7b52 1e3d bec7 07bd caf6 a9bd a42a 013d
00000170: b96b bd3c b2ed c63c d3a6 ee3d 46bb 8bbd
00000180: 28a1 433c 222c 2f3c 292d 17bd be92 e63d
00000190: 5c94 8abd ff9e 29bd 30f3 2d3b 3e2b 183b
000001a0: 9294 8cbb c1b0 373d 2c9d ad3c d517 8d3d
000001b0: 968a bcbd 08d4 943c cb48 9abd 7f4e d3bb
000001c0: 2167 c63b ed6c bd3c 97f2 3a3d e408 b83d
000001d0: 70d7 aabd dd0e 92bb faf1 523d 6181 30bd
000001e0: 4962 593d f5f4 bfbd fb1c 813d 3700 a73c
000001f0: c3f6 01be 198a b4bc 3532 34bd 14a5 583c
00000200: 2603 683d eb53 563d bc2b be3b 3321 15bd
00000210: e862 3f3d 1787 993d fb08 5bbd 577e 213d
00000220: 1e5a 643c efae d83c f1dc 833d d9f7 bd3d
00000230: bb60 9f3d 6387 d8bc c6a2 ab3b 1c24 47bc
00000240: 62c3 493d fc4f a73d 7150 633d b542 c43a
00000250: 28d8 fbbc 4ff8 be3c 0d80 18bc 9e84 603d
00000260: 6fd0 04bd 3b26 ddbc 11cb 41bd e621 343d
00000270: 8251 8fbd 46a5 afbd 3a79 b33c 18dc cebd
00000280: 3b6c e2bb c52f a73d fc0d 7fbd 46f5 723c
00000290: a211 75bc b073 b93c 26ac bc3d 432f 883d
000002a0: f8e0 ec3d cbbf b63d 1832 acbd 39ac 3abd
000002b0: df04 02bd ceed 973d 74db f6bc a436 e639
000002c0: 2217 593d 9caf 3f3d 5aee 18bc 4f3f 98bd
000002d0: 106d 26bd 7870 713d 3ab7 97bd c43a 6cbd
000002e0: 6e45 90bc 657f 94bd 2e86 76bc 1afd acbc
000002f0: 04b2 7ebc 54b3 d4bc 3abd 00bd 9e03 133d
00000300: 76c0 a23d 18d2 29bd 0c69 e73c 0c06 61bd
00000310: a8aa 943d 0f1d c6bc cd51 50bd 9a70 eb3c
00000320: 3dc3 9ebd 400a babd 17b3 61bd 12da 733d
00000330: f195 5f3c 47b5 673d 0268 dabd 4e86 6fbd
00000340: 509f 29bd 0a44 c7bc 33c0 a43c b5b8 083e
00000350: 1837 803c 2a69 d8bc e132 b33d 88fa 943d
00000360: 2946 ca3c 8e30 a13d 1ed9 a0bb 1c79 3bbd
00000370: abad 58b9 46e5 c73c 647c 933d f164 b9bb
00000380: 4660 b23d e4bd e8bc 87f2 2cbc 45ec 72bd
00000390: 9327 333d 5c58 64bd b207 f73d d1a4 843d
000003a0: acf9 c0bc 8080 11bd 1152 0b3e f0ef 05bd
000003b0: 73da 5abd ddf1 08bd 085d c4bb 3cf2 ad3d
000003c0: 6fb9 323c 9d0e b23c 6782 54bd e5d3 a93d
000003d0: 9755 b03d 2122 013d 0665 563d 91f1 2dbd
000003e0: 3ad6 6cbd 3d93 ee3c 8994 183c 7419 3cbd
000003f0: 20b8 09bd 12f0 b5bc 3e94 fa3c 265e 12bd

Convs.1.0.bias f4 [50]
-0.07419373 0.04443734 0.0862709 -0.024427991 0.03477146 -0.03620328 -0.055876542 -0.035022683
0.08875346 -0.027615156 -0.01747689 0.002382573 0.027124094 -0.029719781 0.0016140139 -0.08057758
-0.030129064 0.011041887 0.06576018 -0.002016427 -0.06501366 0.084591426 0.07567118 -0.08403702
-0.049090955 0.0156239895 0.012871595 -0.052571654 -0.038010135 0.060013644 0.063443646 -0.06313777
-0.059098843 0.024823323 0.0082273325 -0.08814989 -0.009462694 0.071337275 -0.019294394 0.085538745
0.09313973 0.011355727 0.022217164 0.025088783 0.022051549 0.08251317 0.025992837 -0.08906937
-0.024263157 0.0155771645
00000000: e2f2 97bd ee03 363d ccae b03d 361d c8bc
00000010: 856c 0e3d e449 14bd cdde 64bd f273 0fbd
00000020: 60c4 b53d 2e39 e2bc b22b 8fbc f124 1c3b
00000030: 5933 de3c e676 f3bc 528d d33a dc05 a5bd
00000040: 3ad1 f6bc 08e9 343c 46ad 863d 0826 04bb
00000050: e225 85bd 453e ad3d 7ef9 9a3d 9a1b acbd
00000060: 9913 49bd c3fb 7f3c 62e3 523c 6055 57bd
00000070: 84b0 1bbd ded0 753d beee 813d 604e 81bd
00000080: a111 72bd 485a cb3c efcb 063c ee87 b4bd
00000090: 6a09 1bbc 4719 923d 470f 9ebc f02e af3d
000000a0: 0bc0 be3d 5f0d 3a3c c500 b63c fe86 cd3c
000000b0: 73a5 b43c aafc a83d eeee d43c 006a b6bd
000000c0: 87c3 c6bc 5d37 7f3c

Convs.1.1.weight f4 [50]
0.99400187 0.9971821 1.0040426 0.9743837 1.0099663 0.98142403 1.0111128 0.97808576
0.987753 1.0141233 0.9952854 0.963931 0.99366647 0.98527056 0.978031 1.0253098
0.98432493 0.9861826 0.97043663 0.99689865 1.0021445 0.9685775 0.9766114 0.9634076
1.0032833 1.025237 1.0063128 0.9490541 0.97773725 1.0179992 1.020895 0.9942276
1.00348 0.9995229 0.9758663 0.9812707 1.0102372 0.9943049 0.9749563 0.990395
1.0145314 1.0048677 1.0343065 1.0179954 0.97016966 1.0285885 1.0388844 1.0523986
1.0003504 1.0430869
00000000: e876 7e3f 5347 7f3f 7884 803f 3671 793f
00000010: 9346 813f 9b3e 7b3f 256c 813f d463 7a3f
00000020: 61dd 7c3f cbce 813f 06cb 7e3f 2fc4 763f
00000030: ed60 7e3f b13a 7c3f 3d60 7a3f 5a3d 833f
00000040: b8fc 7b3f 7676 7c3f 896e 783f c034 7f3f
00000050: 4546 803f b2f4 773f 3403 7a3f e1a1 763f
00000060: 966b 803f f73a 833f dcce 803f 36f5 723f
00000070: fd4c 7a3f cc4d 823f b0ac 823f b385 7e3f
00000080: 0872 803f bce0 7f3f 60d2 793f 8e34 7b3f
00000090: 744f 813f c48a 7e3f bc96 793f 878a 7d3f
000000a0: 2adc 813f 819f 803f 2864 843f ac4d 823f
000000b0: 0a5d 783f caa8 833f 2afa 843f ffb4 863f
000000c0: 7b0b 803f df83 853f

Convs.1.1.bias f4 [50]
-0.1638564 -0.07260443 -0.076757364 -0.05623396 -0.05165628 -0.0709704 -0.03344084 -0.05624141
-0.15378074 -0.030688656 -0.03597198 -0.054171458 -0.04389328 -0.09517998 -0.085705444 -0.05860075
-0.07352655 -0.034073915 -0.024696946 -0.08189542 -0.06157445 -0.056059692 -0.027202476 -0.07648876
-0.032502096 -0.050827634 -0.06939865 -0.061903518 -0.07175432 -0.06693976 -0.04980288 -0.14463803
-0.05229345 -0.08865363 -0.039591826 -0.069382265 -0.0706456 -0.05523596 -0.07059996 -0.08440045
-0.05426241 -0.008787194 -0.01710065 -0.026395632 -0.08592968 -0.030738642 -0.052228305 -0.05452233
-0.093867436 -0.083402246
00000000: f9c9 27be a2b1 94bd f732 9dbd 9555 66bd
00000010: 8995 53bd ee58 91bd 43f9 08bd 655d 66bd
00000020: b378 1dbe c766 fbbc 5b57 13bd e4e2 5dbd
00000030: 71c9 33bd b9ed c2bd 5686 afbd 5707 70bd
00000040: 1695 96bd 1791 0bbd 4051 cabc c9b8 a7bd
00000050: 7e35 7cbd d99e 65bd bad7 debc 24a6 9cbd
00000060: eb20 05bd a330 50bd e120 8ebd 8b8e 7dbd
00000070: eef3 92bd b717 89bd 1bfe 4bbd fe1b 14be
00000080: a831 56bd 0990 b5bd 0a2b 22bd 4a18 8ebd
00000090: a4ae 90bd 1a3f 62bd b696 90bd 25da acbd
000000a0: 4342 5ebd 2af8 0fbc aa16 8cbc a73b d8bc
000000b0: e6fb afbd 9bcf fbbc 59ed 55bd cf52 5fbd
000000c0: 923d c0bd ccce aabd

Convs.1.1.running_mean f4 [50]
-0.18386017 0.35664216 -0.6554931 0.2614564 0.37639034 0.5718544 -0.09735311 0.3522608
0.26006794 -0.31465802 0.17896098 -0.17479007 0.2819443 0.55238986 0.25295416 -0.5179846
0.085142046 0.43294853 0.28548607 -0.7961641 0.34052736 -0.1787393 -0.59788215 0.27463952
0.46104386 -0.26206017 -0.25838983 0.35272688 -0.030839019 -0.7575315 -0.013776739 -0.15544146
-0.68569803 0.07868557 -0.10299709 0.3230361 -0.75730646 0.22282155 -0.51404893 0.020379517
0.21423729 0.25534788 -0.023389868 0.3540341 -0.20313165 -0.3145823 -0.0608608 0.105546035
-0.13437144 0.07508443
00000000: d745 3cbe cd99 b63e 65ce 27bf 9ddd 853e
00000010: 3cb6 c03e 0d65 123f 1161 c7bd 875b b43e
00000020: a027 853e db1a a1be 8c41 373e 2bfc 32be
00000030: 015b 903e 6c69 0d3f 3583 813e a49a 04bf
00000040: f45e ae3d 6eab dd3e 3b2b 923e 69d1 4bbf
00000050: 9a59 ae3e 6f07 37be ce0e 19bf 8d9d 8c3e
00000060: f10d ec3e c02c 86be ac4b 84be 9e98 b43e
00000070: 1ca2 fcbc 96ed 41bf d5b7 61bc 0c2c 1fbe
00000080: e889 2fbf e625 a13d 23f0 d2bd fd64 a53e
00000090: d6de 41bf 552b 643e b698 03bf f2f2 a63c
000000a0: 0561 5b3e f5bc 823e 1c9c bfbc f543 b53e
000000b0: be01 50be ee10 a1be 2d49 79bd 8528 d83d
000000c0: ab98 09be dec5 993d

Convs.1.1.running_var f4 [50]
0.64043623 0.9980584 1.3479978 0.9442978 0.82071567 0.46089834 0.6853377 0.460281
0.54182214 1.1106415 0.57789475 0.84341764 0.56487525 0.7738438 0.49618945 1.1278667
0.41543597 0.87636966 0.47077197 1.3119265 0.54218185 0.6473867 0.87975657 0.46135405
0.7793416 0.9638989 0.70900786 0.7426843 0.74897844 1.170835 0.742344 0.5376537
1.2958869 0.8049751 0.37188426 0.83270615 1.2652795 0.69389695 0.6327151 0.6418609
0.6418916 0.7014934 0.81408876 0.96710366 0.8019145 1.2716359 0.7068425 1.1518635
0.63876396 0.68207157
00000000: a1f3 233f c180 7f3f 318b ac3f 80bd 713f
00000010: 6c1a 523f defa eb3e 4b72 2f3f f4a9 eb3e
00000020: dbb4 0a3f 8029 8e3f e9f0 133f 38ea 573f
00000030: aa9b 103f a11a 463f 8b0c fe3e f05d 903f
00000040: 06b4 d43e c359 603f 0609 f13e 35ed a73f
00000050: 6ecc 0a3f 23bb 253f ba37 613f 9936 ec3e
00000060: ee82 473f 14c2 763f 8a81 353f 8f20 3e3f
00000070: 0dbd 3f3f ecdd 953f 420a 3e3f aca3 093f
00000080: 9fdf a53f d912 4e3f 9d67 be3e 3b2c 553f
00000090: aef4 a13f 3ba3 313f 9ef9 213f ff50 243f
000000a0: 0253 243f 1295 333f 1f68 503f 1b94 773f
000000b0: 454a 4d3f f7c4 a23f a1f3 343f 4370 933f
000000c0: 0986 233f 3e9c 2e3f

Convs.2.0.weight f4 [100, 50, 1, 5]
0.020397726 -0.036124047 -0.051656038 -0.024225608 -0.050034605 -0.024144264 0.0029680436 -0.034528222
0.03469292 -0.017026698 0.021573722 -0.026971431 -0.056049995 0.008836288 -0.04315107 -0.0302485
-0.035603154 0.01603413 0.024029903 -0.02909814 -0.05338904 0.04689654 -0.0445058 -0.057930145
-0.04510659 -0.029549493 0.020181503 -0.01949786 0.010540711 -0.0074486267 -0.041242354 0.028283503
-0.007892185 -0.0626667 0.016488545 -0.028987998 0.039828997 0.0022516174 0.0071255313 -0.040112488
0.020479407 0.031578086 -0.012667217 0.01303749 0.028161084 0.041656133 0.020037362 0.027044522
-0.041373525 0.0073056943 -0.01933738 0.019909816 -0.022035094 0.004322107 -0.008123605 -0.0015337776
-0.013846513 0.020106426 0.086527675 0.03991783 0.0068672337 -0.01226975 -0.031354327 -0.012882804
-0.021885077 -0.06592266 0.0008541715 0.03673138 0.017597659 0.0078595355 0.0012273431 0.039936442
-0.061843697 0.030971522 0.03549641 -0.061532393 -0.030860584 -0.008720745 -0.0581953 -0.029769277
-0.03219203 0.052570764 0.03747754 0.010403852 -0.0012293917 -0.05345549 -0.017411334 -0.016225057
0.021037532 0.05890896 0.046229895 -0.012905409 -0.022582658 -0.037175298 -0.009599815 0.043984734
0.04622134 0.020013005 -0.010208893 0.08594444 0.0067180167 -0.007252138 0.066103436 0.071818605
0.030470671 -0.04065404 -0.060521964 -0.059436142 0.041092955 0.051095873 -0.03706579 -0.023693757
0.061102435 -0.013563927 0.04546282 0.048790723 0.03574334 0.017678611 0.033424698 -0.011207369
-0.0039759055 -0.023642486 -0.0017831668 -0.016356772 -0.0047321036 0.07061385 -0.0033738385 0.07568148
0.0747798 -0.008686679 -0.055364545 -0.008646159 -0.0050786794 0.035128176 -0.019908011 -0.0060188654
0.040234182 0.022867642 0.060428407 0.04628837 -0.05464043 -0.048986103 -0.046298776 -0.059214838
-0.008077466 -0.014619038 -0.02303753 -0.029668806 0.06880527 0.04886334 -0.0133985225 -0.008123988
-0.014726843 0.03840372 0.02996513 -0.0589791 0.02336154 -0.015493257 0.020522326 -0.053515207
0.079169974 -0.016104277 0.0107471105 0.05388565 0.0036400766 0.017470274 0.0014442755 -0.026093017
0.088007696 0.07072751 -0.035479683 0.031562738 -0.03849072 -0.043472674 0.071554236 -0.016794251
-0.012801138 0.010223272 0.017910253 0.053462245 -0.0045722146 0.03448544 0.054112807 0.06029972
0.018568886 -0.02926286 0.0631442 -0.04142371 -0.04157302 -0.059911415 -0.039983798 0.012479458
0.031827282 -0.07736983 0.013324395 -0.029380865 0.019587122 -0.041818198 -0.02314025 0.030325318
0.020048095 0.00040011565 -0.0059455647 -0.032403875 0.050367087 -0.00907958 -0.041989174 -0.04294119
-0.0729334 0.01620136 -0.014462006 -0.021688202 0.02481717 -0.025143066 -0.035601884 -0.01105904
-0.0027071347 0.008098329 0.040395323 0.05806092 -0.0173176 0.06599031 0.064227864 0.044208113
0.09051495 0.029748283 -0.031517092 -0.029974563 0.008578935 0.009639362 -0.050312977 0.012264939
-0.038679756 -0.020752829 0.031519506 0.010052651 -0.031201508 -0.03890291 0.0952729 0.046153136
-0.055233464 0.009614639 0.032565106 0.015514269 0.038373236 0.071121104 0.06314005 0.01936412
-0.008503292 -0.020604411 0.054135147 0.02413046 0.045448776 -0.02906618 -0.047399577 -0.012012628
00000000: 2219 a73c cff6 13bd 4895 53bd c874 c6bc
00000010: 16f1 4cbd 31ca c5bc 8283 423b 776d 0dbd
00000020: 2a1a 0e3d 937b 8bbc 60bb b03c 31f3 dcbc
00000030: ae94 65bd 14c6 103c 2dbf 30bd b4cb f7bc
00000040: 9dd4 11bd 025a 833c 5cda c43c 395f eebc
00000050: 77ae 5abd 9616 403d b74b 36bd 2948 6dbd
00000060: b0c1 38bd c711 f2bc ae53 a53c fab9 9fbc
00000070: f2b2 2c3c 9c13 f4bb beed 28bd ceb2 e73c
00000080: 394e 01bc 6657 80bd fc12 873c 3d78 edbc
00000090: bb23 233d df8f 133b 4a7d e93b fe4c 24bd
000000a0: 6ec4 a73c 0658 013d 298a 4fbc 329b 553c
000000b0: 13b2 e63c 9f9f 2a3d 6525 a43c 798c dd3c
000000c0: 4977 29bd 9b64 ef3b 6d69 9ebc e919 a33c
000000d0: f182 b4bc 76a0 8d3b de18 05bc 0909 c9ba
000000e0: 7cdc 62bc 3bb6 a43c 6c35 b13d e180 233d
000000f0: 8806 e13b 1007 49bc 656d 00bd 6512 53bc
00000100: 5548 b3bc 7602 87bd 7bea 5f3a a573 163d
00000110: f728 903c 48c5 003c cdde a03a 6594 233d
00000120: d14f 7dbd fdb7 fd3c af64 113d 6409 7cbd
00000130: 56cf fcbc 75e1 0ebc 325e 6ebd b3de f3bc
00000140: cadb 03bd 7154 573d 0d82 193d eb74 2a3c
00000150: 8a23 a1ba 25f4 5abd 37a2 8ebc 69ea 84bc
00000160: e756 ac3c 864a 713d 8f5b 3d3d 3571 53bc
00000170: 44ff b8bc 2045 18bd 8b48 1dbc 5629 343d
00000180: 9652 3d3d 50f2 a33c 3343 27bc a303 b03d
00000190: cf22 dc3b 58a3 edbb 3d61 873d a215 933d
000001a0: a19d f93c da84 26bd e1e5 77bd 5073 73bd
000001b0: 1651 283d e849 513d 4cd2 17bd 6919 c2bc
000001c0: 8c46 7a3d 3c3b 5ebc 3937 3a3d c8d8 473d
000001d0: 9c67 123d bcd2 903c 56e8 083d 1d9f 37bc
000001e0: 5048 82bb e3ad c1bc 26b9 e9ba a3fe 85bc
000001f0: c30f 9bbb ff9d 903d 9e1b 5dbb e4fe 9a3d
00000200: 2726 993d 9352 0ebc efc5 62bd 9fa8 0dbc
00000210: 0d6b a6bb 90e2 0f3d 2016 a3bc e739 c5bb
00000220: 99cc 243d ec54 bb3c c783 773d e098 3d3d
00000230: a5ce 5fbd a7a5 48bd c9a3 3dbd 428b 72bd
00000240: 5957 04bc b184 6fbc 34b9 bcbc ff0b f3bc
00000250: c7e9 8c3d ed24 483d 7a85 5bbc 7a1a 05bc
00000260: db48 71bc 384d 1d3d 6f79 f53c 1294 71bd
00000270: b360 bf3c 6ed7 7dbc 701e a83c c332 5bbd
00000280: de23 a23d 1eed 83bc a614 303c 33b7 5c3d
00000290: 5a8e 6e3b d21d 8f3c d84d bd3a 06c1 d5bc
000002a0: 613d b43d 96d9 903d 2553 11bd ee47 013d
000002b0: 72a8 1dbd 6710 32bd 078b 923d 1994 89bc
000002c0: ddbb 51bc 837f 273c 86b8 923c 3afb 5a3d
000002d0: 84d2 95bb 9b40 0d3d 64a5 5d3d d7fc 763d
000002e0: c71d 983c aab8 efbc bf51 813d e8ab 29bd
000002f0: 7948 2abd ac65 75bd 0dc6 23bd a476 4c3c
00000300: 535d 023d 1374 9ebd 904e 5a3c 24b0 f0bc
00000310: 2c75 a03c 8f49 2bbd 9f90 bdbc cd6c f83c
00000320: e73b a43c 9dc6 d139 03d3 c2bb edb9 04bd
00000330: b84d 4e3d 85c2 14bc d7fc 2bbd 1ae3 2fbd
00000340: 1b5e 95bd b7b8 843c 0df2 6cbc 75ab b1bc
00000350: 614d cb3c d5f8 cdbc 48d3 11bd fa30 35bc
00000360: 2f6a 31bb dbae 043c 9175 253d 4ad1 6d3d
00000370: a4dd 8dbc ed25 873d e689 833d 9113 353d
00000380: e75f b93d acb2 f33c 1118 01bd 378d f5bc
00000390: a98e 0c3c 6aee 1d3c fb14 4ebd e2f2 483c
000003a0: aa6e 1ebd d601 aabc 991a 013d e0b3 243c
000003b0: 4e9a ffbc a858 1fbd 701e c33d 120b 3d3d
000003c0: 7c3c 62bd b886 1d3c fd62 053d 8f2f 7e3c
000003d0: 412d 1d3d f1a7 913d 924f 813d 81a1 9e3c
000003e0: 6451 0bbc 95ca a8bc d1bc 5d3d 3ead c53c
000003f0: 7f28 3a3d 331c eebc 0f26 42bd 9dd0 44bc

Convs.2.0.bias f4 [100]
0.0064334497 0.055170234 -0.051244404 0.019158462 -0.055829927 -0.0006384332 0.056451038 -0.01740981
0.018806856 -0.043386016 -0.018988272 0.05487535 -0.043684702 -0.014830223 -0.013690009 -0.052443177
-0.011561638 -0.050666 -0.06050113 -0.050750803 0.023566978 0.019719379 -0.052569598 -0.052182645
-0.022787368 -0.042045087 -0.021170553 -0.045129485 -0.05462916 0.027920065 0.060363423 0.05279284
-0.016985098 0.033832118 0.011716181 0.0500399 -0.0022516705 0.0556699 0.03545463 0.007747566
0.054140206 0.0530529 0.06097411 -0.009661772 -0.01807753 -0.031977132 0.061725575 -0.04825984
-0.04233799 -0.04891989 -0.047556 0.03640212 -0.0026644913 0.01705673 0.06212251 0.041701503
-0.00681511 -0.055138104 -0.00053258 0.009178333 0.014065294 0.015221766 -0.02281854 -0.03954434
-0.044409383 0.055274736 -0.025055317 0.02130887 -0.04658153 -0.024539795 -0.02660799 -0.057436347
0.05652721 -0.014208677 -0.02108852 0.025325019 -0.027541716 0.022226943 0.057443447 -0.04671023
-0.04551408 0.041834705 0.0046576345 0.04261249 -0.05826774 0.044230185 -0.04585433 0.052402023
-0.041579172 0.016569389 0.016236462 -0.034744594 0.01918105 -0.03687988 -0.057355847 -0.05698373
0.016365753 0.02741272 -0.038457733 0.058756925
00000000: b0cf d23b 2ffa 613d a7e5 51bd 35f2 9c3c
00000010: ecad 64bd 875c 27ba 3439 673d 059f 8ebc
00000020: d610 9a3c 89b5 31bd 4b8d 9bbc fac4 603d
00000030: bbee 32bd 77fa 72bc 0f4c 60bc a8ce 56bd
00000040: 066d 3dbc 2787 4fbd 08d0 77bd 13e0 4fbd
00000050: 890f c13c 898a a13c 3853 57bd 78bd 55bd
00000060: 93ac babc 7837 2cbd de6d adbc b2d9 38bd
00000070: d3c2 5fbd 9fb8 e43c a33f 773d 4e3d 583d
00000080: 5524 8bbc 8c93 0a3d 3af5 3f3c a3f6 4c3d
00000090: c390 13bb 1f06 643d e038 113d 4bdf fd3b
000000a0: 1fc2 5d3d ff4d 593d fdbf 793d 694c 1ebc
000000b0: 5417 94bc 74fa 02bd f5d3 7c3d 1cac 45bd
000000c0: 9a6a 2dbd 3960 48bd 15ca 42bd 641a 153d
000000d0: bf9e 2ebb 8eba 8b3c 2c74 7e3d 32cf 2a3d
000000e0: 4951 dfbb 7ed8 61bd d79c 0bba b860 163c
000000f0: 1e72 663c b764 793c f2ed babc 3ff9 21bd
00000100: 9de6 35bd c367 623d cf40 cdbc f08f ae3c
00000110: 46cc 3ebd ae07 c9bc 00f9 d9bc 6042 6bbd
00000120: 1389 673d 83cb 68bc d5c1 acbc 6a76 cf3c
00000130: 2a9f e1bc 4715 b63c d249 6b3d 3a53 3fbd
00000140: f96c 3abd de5a 2b3d 129f 983b 6f8a 2e3d
00000150: 27aa 6ebd b62a 353d c0d1 3bbd 81a3 563d
00000160: ec4e 2abd 87bc 873c 5402 853c 5950 0ebd
00000170: 9421 9d3c 5b0f 17bd f7ed 6abd c667 69bd
00000180: 7911 863c a490 e03c db85 1dbd 1aab 703d

Convs.2.1.weight f4 [100]
1.038487 0.98476386 0.9752092 0.99008036 1.0039092 0.9721293 1.0182437 0.9862306
1.0571507 0.99933916 1.0013375 1.0099825 1.0037731 0.9811939 0.9952262 0.99751973
0.978455 0.9802927 0.99441874 0.9900915 0.9852655 1.015879 1.0087261 1.031496
0.9529764 1.0022633 0.97195774 1.0160083 1.0276705 0.9993162 0.9825434 1.0140198
0.9933436 0.98580164 1.0002636 1.0087198 1.0267547 0.9815281 0.9755768 0.9820518
0.99100256 0.9293664 0.97888935 1.0024582 1.0033764 1.0036571 1.0259376 0.9837046
1.0126411 0.99194884 1.0248609 1.0059482 1.0166173 0.97965604 1.0151212 1.0160222
1.0059272 1.0142205 0.9847278 1.0035535 0.995492 0.99332577 0.9890288 1.0068177
0.98412436 1.023947 0.9759499 1.0074452 0.9903212 0.97720915 1.0014957 1.0087343
0.99148166 1.0449702 0.998806 1.0107027 0.9983354 1.0199646 0.9766516 1.0335212
0.95989925 0.9892442 0.99264586 1.0322306 1.0108823 1.01575 0.99369484 0.9975675
1.0144219 0.98973125 0.98775643 0.96606994 0.9792488 1.0119308 0.9674642 0.98987603
1.0107572 0.99795103 0.9737101 0.9921896
00000000: 24ed 843f 7c19 7c3f 4fa7 793f e875 7d3f
00000010: 1980 803f 77dd 783f cf55 823f 9c79 7c3f
00000020: b750 873f b1d4 7f3f d42b 803f 1b47 813f
00000030: a37b 803f 862f 7b3f 25c7 7e3f 745d 7f3f
00000040: 077c 7a3f 76f4 7a3f 3a92 7e3f a376 7d3f
00000050: 5c3a 7c3f 5308 823f f01d 813f 1008 843f
00000060: 43f6 733f 2a4a 803f 39d2 783f 8f0c 823f
00000070: b58a 833f 30d3 7f3f f787 7b3f 67cb 813f
00000080: c44b 7e3f 7f5d 7c3f a308 803f bb1d 813f
00000090: b36c 833f 6d45 7b3f 67bf 793f bf67 7b3f
000000a0: 58b2 7d3f f5ea 6d3f 7e98 7a3f 8d50 803f
000000b0: a36e 803f d677 803f ec51 833f 11d4 7b3f
000000c0: 399e 813f 5cf0 7d3f a42e 833f e9c2 803f
000000d0: 8420 823f bdca 7a3f 7eef 813f 040d 823f
000000e0: 39c2 803f fad1 813f 1f17 7c3f 7174 803f
000000f0: 90d8 7e3f 994a 7e3f fe30 7d3f 67df 803f
00000100: 93ef 7b3f b210 833f dad7 793f f7f3 803f
00000110: b185 7d3f 612a 7a3f 0331 803f 351e 813f
00000120: bed1 7d3f 95c1 853f c0b1 7f3f b55e 813f
00000130: e992 7f3f 338e 823f d705 7a3f 6c4a 843f
00000140: f5bb 753f 1c3f 7d3f 0a1e 7e3f 2220 843f
00000150: 9764 813f 1904 823f c962 7e3f 9560 7f3f
00000160: 94d8 813f 075f 7d3f 9bdd 7c3f 5c50 773f
00000170: 0db0 7a3f f386 813f bcab 773f 8468 7d3f
00000180: 7e60 813f b879 7f3f 1145 793f 2300 7e3f

Convs.2.1.bias f4 [100]
-0.04098927 -0.032073505 -0.0372886 -0.045088015 -0.07181158 -0.043070007 -0.047557943 -0.058761828
-0.0127784265 -0.038973894 -0.050407663 -0.07605241 -0.06369243 -0.048216254 -0.04042156 -0.06260503
-0.072988264 -0.06973373 -0.06658051 -0.082016096 -0.05648817 0.008383819 -0.0748905 -0.023790596
-0.08794302 -0.06620146 -0.07700363 -0.03684051 -0.017882774 -0.052830167 -0.058921203 -0.028120734
-0.056474525 -0.069353074 -0.045593247 -0.065411225 -0.07054529 -0.047909714 -0.0587866 -0.041060165
-0.050474335 -0.09033934 -0.044483315 -0.031900283 -0.045923494 -0.05297805 -0.07199045 -0.05481317
-0.013140049 -0.033313185 -0.0318885 -0.04643752 -0.05145679 -0.013277926 -0.038273614 -0.04809836
-0.05422354 -0.048779815 -0.044119447 -0.04198985 -0.043087967 -0.054761 -0.008155079 -0.005175656
-0.031090457 -0.060712848 -0.097488 -0.06891577 -0.0542801 -0.025752269 -0.007803471 -0.06823963
-0.085813105 -0.023739185 -0.061348177 -0.06687547 -0.025655273 -0.07308595 -0.076354094 -0.0656037
-0.06940742 -0.059204515 -0.030185198 -0.02254555 -0.038621884 -0.029571963 -0.022769468 -0.019101694
-0.02036692 -0.03744196 -0.029116537 -0.03417166 -0.05881076 -0.018465184 -0.08504838 -0.08217854
-0.07283688 -0.076717675 -0.0781954 -0.056963425
00000000: 5de4 27bd 825f 03bd eebb 18bd 36ae 38bd
00000010: f311 93bd 2d6a 30bd 1ecc 42bd 3eb0 70bd
00000020: 9b5c 51bc 17a3 1fbd 4478 4ebd 5ec1 9bbd
00000030: 2d71 82bd 687e 45bd 1491 25bd 1137 80bd
00000040: df7a 95bd 8fd0 8ebd 5d5b 88bd 0ef8 a7bd
00000050: 2460 67bd 495c 093c 3160 99bd 7fe4 c2bc
00000060: 781b b4bd a294 87bd 14b4 9dbd 13e6 16bd
00000070: e57e 92bc 7264 58bd 5c57 71bd 745d e6bc
00000080: d551 67bd fc08 8ebd fcbf 3abd 52f6 85bd
00000090: 0d7a 90bd fa3c 44bd 38ca 70bd b42e 28bd
000000a0: 2dbe 4ebd d503 b9bd 2334 36bd dfa9 02bd
000000b0: 461a 3cbd 83ff 58bd bb6f 93bd c683 60bd
000000c0: 5c49 57bc 6873 08bd 849d 02bd 4535 3ebd
000000d0: 5bc4 52bd a88b 59bc cbc4 1cbd c902 45bd
000000e0: 8119 5ebd 58cd 47bd 98b6 34bd 8dfd 2bbd
000000f0: 027d 30bd 124d 60bd e19c 05bc 8d98 a9bb
00000100: 6ab1 febc 09ae 78bd caa7 c7bd b623 8dbd
00000110: cf54 5ebd 6cf6 d2bc 42b4 ffbb 38c1 8bbd
00000120: c8be afbd ae78 c2bc 3a48 7bbd 02f6 88bd
00000130: 022b d2bc 16ae 95bd 895f 9cbd 3c5b 86bd
00000140: 7a25 8ebd 6f80 72bd f346 f7bc 72b1 b8bc
00000150: fb31 1ebd e740 f2bc 0987 babc 287b 9cbc
00000160: 87d8 a6bc be5c 19bd ce85 eebc 95f7 0bbd
00000170: 8de3 70bd 4c44 97bc d82d aebd 394d a8bd
00000180: 812b 95bd 281e 9dbd e924 a0bd 7b52 69bd

Convs.2.1.running_mean f4 [100]
0.24390395 -0.43248248 -0.0011132126 1.0844952 -1.1255335 0.7544925 -0.5772199 -0.7980885
-1.1446346 0.070240736 -0.5806463 0.7991883 -0.9318473 -0.3787934 0.55120856 -0.607297
1.0078608 0.24113289 -0.8442886 -0.4932854 0.30335608 0.01675335 -0.7773879 -0.42165592
0.2963896 0.7052597 -1.1589963 -0.9293812 0.08463158 0.68169445 0.20604427 -0.35085884
-0.48277465 -0.94924694 0.090098195 -0.40513644 -0.46300393 0.17115174 -0.49252206 -0.47703978
0.105185024 -0.4201753 0.8038146 0.7058656 -1.0777296 0.37260163 -0.36142313 0.4033762
0.07018909 0.45747915 -0.46319866 0.4309098 -0.20223938 -0.116972305 -1.0100691 -0.2847316
-0.33075458 -1.335003 0.50425154 -0.3742787 0.46863735 -0.058877856 0.25905687 0.0007522146
-0.26749888 -0.56840676 1.5810549 1.3363322 -0.7573831 0.19855191 0.2132388 0.98267007
-0.7949966 -0.5599557 -0.61519194 -0.2394012 0.035466276 -0.2163857 1.295381 -0.043058734
-0.33052778 1.0196965 0.07198201 0.6229512 -0.28593874 0.08417992 0.22990462 0.38003594
-0.062382776 -0.3671331 0.4112612 0.7018169 0.39599678 -0.16994263 -0.49352595 -0.5617207
-0.9020396 1.6132629 -0.48303676 -0.31029668
00000000: f5c1 793e 586e ddbe 37e9 91ba bdd0 8a3f
00000010: 7b11 90bf 6c26 413f afc4 13bf 874f 4cbf
00000020: 6383 92bf 60da 8f3d 3ca5 14bf 9b97 4c3f
00000030: 8b8d 6ebf 35f1 c1be 011c 0d3f d177 1bbf
00000040: 9501 813f 8aeb 763e 4c23 58bf e78f fcbe
00000050: 7d51 9b3e 523e 893c e502 47bf 49e3 d7be
00000060: 61c0 973e e68b 343f fe59 94bf edeb 6dbf
00000070: 5253 ad3d 8783 2e3f 45fd 523e c5a3 b3be
00000080: 3d2e f7be d901 73bf 6785 b83d 0b6e cfbe
00000090: da0e edbe 6742 2f3e da2b fcbe 8f3e f4be
000000a0: 3f6b d73d 3821 d7be cbc6 4d3f 9cb3 343f
000000b0: 0bf3 89bf a4c5 be3e 740c b9be 5387 ce3e
000000c0: 4cbf 8f3d b53a ea3e 6028 edbe 36a0 dc3e
000000d0: d717 4fbe 2d8f efbd f249 81bf 57c8 91be
000000e0: aa58 a9be 61e1 aabf a116 013f 75a1 bfbe
000000f0: 3cf1 ef3e e829 71bd 1aa3 843e 4430 453a
00000100: 9df5 88be 1b83 11bf 0260 ca3f ef0c ab3f
00000110: dce3 41bf 3151 4b3e 465b 5a3e 4490 7b3f
00000120: e684 4bbf 4259 0fbf 387d 1dbf 9725 75be
00000130: 1645 113d 3794 5dbe 0bcf a53f 5b5e 30bd
00000140: f03a a9be 6a85 823f 4e6b 933d bb79 1f3f
00000150: 9066 92be 8666 ac3d 1e6c 6b3e 1294 c23e
00000160: 1585 7fbd dff8 bbbe d490 d23e 46aa 333f
00000170: 17c0 ca3e 7105 2ebe 6faf fcbe eecc 0fbf
00000180: 11ec 66bf 667f ce3f 9850 f7be 35df 9ebe

Convs.2.1.running_var f4 [100]
1.0509195 1.0895957 0.6953544 1.0209864 2.3432193 1.0140972 2.0026593 1.3216249
3.6209261 1.1492356 1.6631402 2.750021 1.3927158 0.8009176 1.3803215 1.2761921
1.759939 1.1629223 1.6676358 1.2868115 1.4123086 1.1403856 1.4427497 1.4515328
1.3458132 2.1350846 2.8859663 1.648706 1.5445952 1.2264422 0.66427153 1.4521569
1.9028492 1.4940109 0.8356282 1.4471252 1.5401162 1.5920252 1.2339034 0.71904695
0.9939427 0.9524633 1.6811587 1.2782618 1.1142416 1.0610741 1.7978518 1.0535921
0.7192661 1.1975017 2.050577 0.8784478 1.8503296 1.3464993 1.6875591 1.9576592
1.6050925 2.5200238 1.3905104 1.6841677 1.0121518 1.1257414 0.85206425 0.9568944
0.6638181 1.5794624 1.4409631 2.2027953 1.3500249 0.8629906 0.83246905 2.4275584
2.4521601 2.0042565 1.5735606 0.9710547 1.2063979 1.4439852 2.14746 1.3423601
1.2639976 1.2636116 0.76198936 0.78415 1.5782027 0.8581392 1.2154019 1.3829151
1.2315446 1.1531135 1.3210391 0.66553813 1.6595272 1.7104871 1.6052184 1.7331548
2.451681 2.0058284 1.3851211 1.2836057
00000000: 8884 863f df77 8b3f bf02 323f afaf 823f
00000010: 4ef7 1540 f0cd 813f 922b 0040 012b a93f
00000020: 41bd 6740 271a 933f c7e1 d43f 5800 3040
00000030: 8344 b23f f008 4d3f 60ae b03f 435a a33f
00000040: ae45 e13f a3da 943f 1775 d53f 3db6 a43f
00000050: 87c6 b43f 28f8 913f 06ac b83f d4cb b93f
00000060: 9b43 ac3f 3aa5 0840 acb3 3840 cc08 d33f
00000070: 4cb5 c53f 0ffc 9c3f b30d 2a3f 47e0 b93f
00000080: 9090 f33f c03b bf3f bbeb 553f 663b b93f
00000090: 8722 c53f 7bc7 cb3f 8cf0 9d3f 7613 383f
000000a0: 0773 7e3f a3d4 733f 3530 d73f 159e a33f
000000b0: 789f 8e3f 47d1 873f 0220 e63f 1bdc 863f
000000c0: d321 383f bc47 993f a73c 0340 f4e1 603f
000000d0: 9ad7 ec3f 175a ac3f f001 d83f 9494 fa3f
000000e0: ac73 cd3f 1248 2140 3ffc b13f cf92 d73f
000000f0: 318e 813f 4b18 903f e220 5a3f 08f7 743f
00000100: fcef 293f d32b ca3f 7b71 b83f 99fa 0c40
00000110: 9ecd ac3f f4ec 5c3f b11c 553f 1e5d 1b40
00000120: 31f0 1c40 bd45 0040 6f6a c93f 0a97 783f
00000130: 3f6b 9a3f 82d4 b83f fc6f 0940 75d2 ab3f
00000140: acca a13f 06be a13f bc11 433f 0ebe 483f
00000150: 8c02 ca3f 03af 5b3f 4a92 9b3f 5d03 b13f
00000160: 41a3 9d3f 3999 933f cf17 a93f b560 2a3f
00000170: 636b d43f 3ef1 da3f cc77 cd3f 04d8 dd3f
00000180: 57e8 1c40 7e5f 0040 a64b b13f 314d a43f

Convs.3.0.weight f4 [200, 100, 1, 5]
-0.0024594103 -0.023488551 -0.04099191 0.00040167503 -0.004496876 -0.020825 0.042427026 -0.017222527
0.04729066 0.008860714 -0.014209143 0.01939346 -0.0053562317 0.055633914 0.043483354 -0.051265553
-0.0086709885 0.0068848105 0.027339928 0.0244568 -0.0021133118 -0.032903556 -0.053891197 0.045480683
-0.03164021 -0.04042793 0.026014682 0.019935854 -0.0065322486 0.026440406 0.00069444993 0.010264188
-0.010275879 -0.009242402 0.010318605 -0.056654025 -0.058715966 0.013308641 0.02299991 -0.014022524
-0.021061482 -0.05349907 -0.06940837 0.014273174 0.0026219608 -0.01963897 0.007599396 0.03469909
-0.026033247 0.017667608 0.03134132 0.004742383 -0.02990485 0.015056362 0.06102828 0.025169816
0.027330998 -0.022396088 -0.025796402 0.038171474 0.017487392 0.044475727 0.055874787 0.008479238
0.02713946 -0.01548455 0.020588726 0.04560686 -0.015285139 0.043434236 0.027593544 0.018820623
-0.005711128 0.03337281 -0.0074732085 0.046954878 -0.03481747 -0.010729668 0.008108637 -0.038453497
-0.017322004 0.025642177 -0.017074551 0.053478807 0.03931898 -0.013962419 -0.021208934 -0.049359582
-0.008524457 -0.016686706 0.030949635 0.02374742 0.051690094 -0.020603541 -0.0110225575 0.015887808
0.0008442234 0.01788453 -0.003534976 -0.010655242 -0.061165966 -0.024685822 -0.017256817 -0.002297514
0.030510899 0.032653444 0.0051556765 0.015523091 0.012483534 0.029581502 -0.022494676 -0.008397632
-0.008032326 0.014660829 -0.01701779 0.045015246 0.03604594 -0.024397885 -0.029342972 0.021048157
0.0057342956 0.0066935658 -0.033579912 -0.007996392 -0.011911892 0.029121634 0.020989174 -0.0024261195
0.02384091 0.066639036 -0.07049907 -0.0109329745 -0.029025203 -0.02474963 -0.010207961 0.031485263
0.061965544 -0.032036845 0.042414695 0.07147113 0.008228403 -0.05210541 0.040128414 0.013614058
0.046162173 -0.046407536 0.012742163 -0.031389188 -0.03157766 0.031538233 0.042221863 0.02618304
-0.015042221 -0.027566584 0.030715747 0.012268179 0.03931952 0.0056669805 0.02262245 0.01918701
-0.045096114 -0.07004098 -0.051491756 -0.036464933 -0.026661038 0.04574958 -0.0047963294 -0.0012070537
-0.009514387 -0.022684302 0.012030418 0.023777215 -0.049386643 -0.0046082195 0.043539353 0.012325234
0.012556281 0.0037885662 -0.010179369 -0.00051862624 -0.023410467 0.010953509 -0.054561052 -0.023511633
-0.0029815335 -0.044609364 -0.05134654 -0.038714115 -0.033752207 -0.00069991854 -0.034723673 0.014984859
0.03861458 -0.023357695 0.016128976 7.338283e-05 -0.025033526 -0.010515339 0.03596971 0.02750032
-0.004809578 -0.0035889673 0.009191762 0.018751957 -0.02212581 -0.015015682 -0.02022213 -0.019916607
0.010250525 0.027108792 0.017672524 -0.004617463 0.02101243 0.02243399 0.0038618392 0.023544054
0.0278381 0.044803496 -0.0052400758 0.027624724 0.03292687 0.030300306 0.010028519 -0.0060094576
0.041763555 -0.0353747 -0.026237834 -0.030957604 -0.01605725 -0.024020756 -0.039814126 0.020548256
-0.047577057 0.012157346 -0.007721006 -0.00515002 -0.011566106 -0.05273976 -0.047196694 -0.026796347
-0.022181988 -0.042421307 -0.021865087 0.016909258 0.008038237 0.010411998 -0.010867651 -0.024579024
-0.011558711 0.048768334 -0.0058879885 -0.02544022 0.020315547 0.023332236 -0.005010832 -0.006545947
00000000: 0f2e 21bb 106b c0bc 22e7 27bd e997 d239
00000010: 885a 93bb 3199 aabc f6c7 2d3d 4216 8dbc
00000020: dab3 413d 872c 113c 77cd 68bc 09df 9e3c
00000030: 5483 afbb 63e0 633d 9a1b 323d d4fb 51bd
00000040: c310 0ebc fa99 e13b fcf7 df3c a159 c83c
00000050: 7d7f 0abb e1c5 06bd 04bd 5cbd f449 3a3d
00000060: 2a99 01bd c297 25bd be1c d53c 8450 a33c
00000070: 790c d6bb 8d99 d83c bf0b 363a 202b 283c
00000080: 295c 28bc 726d 17bc 5e0f 293c 0d0e 68bd
00000090: 2780 70bd 7c0c 5a3c 4f6a bc3c babe 65bc
000000a0: 2189 acbc d721 5bbd fa25 8ebd 08da 693c
000000b0: 34d5 2b3b e8e1 a0bc 5b04 f93b a220 0e3d
000000c0: ad43 d5bc a9bb 903c c25f 003d fe65 9b3b
000000d0: 04fb f4bc f6ae 763c caf8 793d ee30 ce3c
000000e0: 42e5 df3c 0078 b7bc fa52 d3bc b159 1c3d
000000f0: b841 8f3c 2e2c 363d f6dc 643d 80ec 0a3c
00000100: 9353 de3c e9b2 7dbc b0a9 a83c 42ce 3a3d
00000110: 856e 7abc 19e8 313d db0b e23c b52d 9a3c
00000120: 6a24 bbbb edb1 083d d1e1 f4bb c253 403d
00000130: c39c 0ebd 7dcb 2fbc 17da 043c 6a81 1dbd
00000140: e0e6 8dbc 8b0f d23c eedf 8bbc 980c 5b3d
00000150: f00c 213d a1c2 64bc 5cbe adbc 462d 4abd
00000160: 2aaa 0bbc 8fb2 88bc 178a fd3c f389 c23c
00000170: feb8 533d c2c8 a8bc f597 34bc 2627 823c
00000180: e04e 5d3a 9482 923c 0eab 67bb 5393 2ebc
00000190: 2a89 7abd ec39 cabc 2b5e 8dbc e391 16bb
000001a0: fef1 f93c 9ebf 053d f3f0 a83b 9054 7e3c
000001b0: bd87 4c3c e854 f23c c146 b8bc 3996 09bc
000001c0: 049a 03bc f933 703c e468 8bbc e861 383d
000001d0: e8a4 133d 13de c7bc ac60 f0bc 2f6d ac3c
000001e0: c2e6 bb3b b355 db3b 178b 09bd 4d03 03bc
000001f0: 192a 43bc 7e90 ee3c 7df1 ab3c 88ff 1ebb
00000200: 034e c33c 0c7a 883d d161 90bd 3820 33bc
00000210: 43c6 edbc bcbf cabc 4b3f 27bc b1f6 003d
00000220: 95cf 7d3d 1139 03bd 08bb 2d3d 755f 923d
00000230: 6cd0 063c 7b6c 55bd b15d 243d 7f0d 5f3c
00000240: 8c14 3d3d d415 3ebd 81c4 503c f391 00bd
00000250: 9457 01bd 3c2e 013d d5f0 2c3d d17d d63c
00000260: a673 76bc 51d3 e1bc 979f fb3c 7900 493c
00000270: 810d 213d 14b2 b93b b752 b93c 142e 9d3c
00000280: b4b6 38bd a571 8fbd 05e9 52bd 415c 15bd
00000290: 4068 dabc e963 3b3d 872a 9dbb 0036 9eba
000002a0: 3be2 1bbc 6ed4 b9bc 3b1b 453c 6fc8 c23c
000002b0: a649 4abd 8c00 97bb 5256 323d c7ef 493c
000002c0: dcb8 4d3c 9849 783b 5ec7 26bc 6bf4 07ba
000002d0: 4fc7 bfbc 5976 333c 697b 5fbd 789b c0bc
000002e0: d565 43bb 4fb8 36bd c050 52bd b192 1ebd
000002f0: c13f 0abd bd7a 37ba 693a 0ebd 0e83 753c
00000300: 522a 1e3d a358 bfbc ea20 843c 1be5 9938
00000310: 1c13 cdbc 8748 2cbc fa54 133d 5a48 e13c
00000320: aa99 9dbb e134 6bbb 0b99 163c b49d 993c
00000330: 3041 b5bc 5604 76bc e1a8 a5bc 2728 a3bc
00000340: d1f1 273c 4213 de3c f8c5 903c 164e 97bb
00000350: 4222 ac3c 7dc7 b73c e916 7d3b 76df c03c
00000360: ba0c e43c df83 373d f1b4 abbb 3f4d e23c
00000370: 53de 063d 5938 f83c a84e 243c fcea c4bb
00000380: 4310 2b3d 10e5 10bd baf0 d6bc cd9a fdbc
00000390: 7e8a 83bc 2dc7 c4bc 2314 23bd d154 a83c
000003a0: 29e0 42bd 9b2f 473c 7e00 fdbb 80c1 a8bb
000003b0: c47f 3dbc a605 58bd 5251 41bd 0384 dbbc
000003c0: 00b7 b5bc f7c1 2dbd 691e b3bc 4985 8a3c
000003d0: cfb2 033c 1697 2a3c 3b0e 32bc f359 c9bc
000003e0: bf60 3dbc 4ec1 473d 07f0 c0bb 0268 d0bc
000003f0: ca6c a63c 3f23 bf3c e831 a4bb 627f d6bb
