lab2/models/DeepConvNet_ReLU.pth (torch, 616645 bytes, 28 tensors)

Conv0.weight f4 [25, 1, 1, 5]
00000000: 01d1 8a3e e632 3a3e 494d adbe bbd3 81be
00000010: f6ad 993e 8234 983e ed60 833e a4af 6d3e
00000020: c8e6 22be dc8b cd3e 4e7e d8be d562 f6bd
00000030: 53c6 623e 2276 483e f674 32be dc4a 78be
00000040: a020 343e 816f 7c3e 0c7a 463e d2d5 16bd
00000050: c4e3 033e caf5 a7be 6239 dabe fdcb bbbe
00000060: 05ff a23e e493 8fbd d2a7 e43d 2456 753e
00000070: 8fe1 91be 38d7 a03d 34c5 b53e 2e3e 2d3e
00000080: 16c6 a63e 6664 363e d2cd a3be 3bf3 bdbe
00000090: b028 7abd 08ef a8be bbca 5d3e 2c1d 973e
000000a0: b874 9e3e adae d53e 1609 30be 1cd6 b63e
000000b0: 51e9 acbe 18ea 75be cdae 073d 1f92 943e
000000c0: 28f3 a9be 7a7e efbe 34ea c3be 8c9d af3d
000000d0: 8afd 693e 6184 be3e 2edb a23e 8d67 dd3e
000000e0: 56f6 b93e e5ca e7be 075f f4be 80d0 1e3e
000000f0: 6800 b6be 8d6d f23d 2b8c c43e 5ab5 9c3d
00000100: 916d 08be 6dcb 3dbe 621a 73be 49d4 b83e
00000110: 8978 1cbe 5a38 973e 578c 053e 2f2d 3abc
00000120: 8e41 b73e b2f8 aabd 11b2 143e b334 ed3d
00000130: 25aa dfbe 5932 99be 7959 d63e d803 12bd
00000140: b6ca 58be c93b 99be db10 74bc 1f71 a1be
00000150: a127 ffbd 036d a43e 2315 df3e 2107 c13e
00000160: d8cf c3bd c83c d8be ad3c 823e a138 0dbe
00000170: 5465 a9be a04f e43d e058 20bd e086 ea3e
00000180: ed58 c63d e4ed 333e 90aa 0e3e 7880 353e
00000190: 77f2 c6be 9a28 38bd 6fed 1a3e d7f6 91be
000001a0: 9c3a d13e 1a11 4d3d 0dcc 403d a2c1 023e
000001b0: 240e 2abe 3314 8b3e 9df3 493e a187 443e
000001c0: e53d 86be 1a32 3ebd 7851 413e 64a8 a7bc
000001d0: 2516 12be 7079 46bd 1ede 1e3e 5aa5 7ebe
000001e0: 6816 e43e 86b1 2b3e 1d5a a53e d1a7 9f3d
000001f0: 197b fb3d
0.27112582 0.18183479 -0.33848026 -0.2535685 0.30015534 0.2972756 0.25659886 0.23211533
-0.15908349 0.40145767 -0.42283863 -0.120305695 0.22145967 0.19576314 -0.1742743 -0.24247307
0.1759057 0.2465191 0.19382495 -0.03682501 0.12879854 -0.3280471 -0.42621905 -0.36679068
0.3183519 -0.0701063 0.11164822 0.23958641 -0.284924 0.0785355 0.35502017 0.16918251
0.32573003 0.17811736 -0.31992966 -0.37099633 -0.06107396 -0.32994866 0.21659367 0.29514444
0.30948424 0.4173483 -0.17190966 0.35710227 -0.33771756 -0.24015081 0.033125687 0.29017732
-0.33193326 -0.4677618 -0.3826462 0.085749716 0.22850624 0.37210372 0.31807846 0.43243065
0.36320752 -0.45271984 -0.4772875 0.15509224 -0.35547185 0.118373014 0.3838819 0.076517776
-0.13323046 -0.18534632 -0.23740533 0.3609946 -0.15280356 0.2953518 0.13041817 -0.011363312
0.35792202 -0.08348216 0.14521052 0.11582317 -0.43684497 -0.29921225 0.41865137 -0.035648197
-0.21171078 -0.29928425 -0.014896597 -0.31531617 -0.124587305 0.3211442 0.43570814 0.3770075
-0.095611274 -0.42233872 0.25436917 -0.13791133 -0.3308512 0.11148 -0.039147258 0.45806026
0.0968493 0.17571217 0.13932252 0.17724788 -0.3885686 -0.044960596 0.15129636 -0.28508636
0.40865028 0.050065137 0.047069598 0.12769178 -0.16606957 0.27163848 0.19721837 0.19192363
-0.26219097 -0.0464345 0.18878734 -0.020466037 -0.1426626 -0.048455656 0.15514418 -0.24867764
0.44548345 0.16766939 0.32295313 0.0779568 0.122793384

Conv0.bias f4 [25]
00000000: 9fdc adbd f4ae 25be 91d6 9ebd 96b8 98be
00000010: 2b47 d3be 4f9b 27bd 3a9c 923e e423 373e
00000020: ad3d de3e 7ac9 64bd 2fce 873d cbbc 8d3d
00000030: d4d2 813e d194 c93e ac0d afbe 3cff 1cbe
00000040: 4dbd 39bd 15a6 a4bd c123 903e aaec e0be
00000050: 519c 9ebe ffe3 95be 6ab5 443e 8b3b acbe
00000060: 2d2f 533d
-0.08489346 -0.1618002 -0.07755769 -0.29828328 -0.41265234 -0.0409196 0.28634816 0.17884785
0.4340643 -0.055856206 0.06631123 0.06920775 0.25356162 0.3937135 -0.34190118 -0.15331739
-0.045346547 -0.0803949 0.28152278 -0.4393056 -0.30978635 -0.2927551 0.19209829 -0.33639178
0.051558662

Convs.0.0.weight f4 [25, 25, 2, 1]
00000000: 615f 0dbd 189d 113d 8e73 6cba c54a a63c
00000010: 8a58 ee3d 7ded fe3c 601c a13d 328b a0bd
00000020: f722 3bbd ca40 a4bd 567a 6ebd 9d98 5ebd
00000030: fef2 f5bc 9b5b 2a3d 4c0b 41bd 1499 c6bd
00000040: d96c c2bd bd8d d83c 10f0 183d 8bd2 0ebe
00000050: d6e7 f63c 92bb 833d 41ad f93d bda8 19bd
00000060: 8697 fd3d 1642 30bd 6f33 023e 3f3b c3bd
00000070: 2486 ddbc c52c debd 18c2 c8bd 51ec b73c
00000080: 0866 883d 1068 a43d 17c3 063e 8944 3dbd
00000090: 4118 f3bd 04e4 eebb 68a5 eabd d6ac 7dbd
000000a0: ba15 b2bc 8bb8 dbbd d373 07bd b352 383d
000000b0: 9dfc 74bd f9db 7abd a335 1fbb 8298 d2bd
000000c0: 293b 84bd fb34 a6bd cd0d a1bd 4739 2a3d
000000d0: d15b babd eae5 b0bd c92c b8bd 5769 0abe
000000e0: f130 b43c f664 06bd 9cae e23c 9949 dfbc
000000f0: a8d5 423d 8e62 1e3e ecf3 d33c 8d23 ab3d
00000100: 04e4 d33d b0c1 e43c 61a5 cc3d 4924 25bd
00000110: 47fc adbd 4ad7 f0bc aa69 293d b565 b53d
00000120: 2e27 753d 99eb 6e3d 578f 61bd 8e20 f33b
00000130: 3905 8b3b 1045 8c3d eecb b03d 7bf8 e4bc
00000140: e690 5a3d 37ee 2cbe a681 a4bd 6b0e 0ebd
00000150: 8a25 e53d f5d7 59bd bf43 b8bd a190 ac3d
00000160: 74f2 23bd 3924 103d 2ca4 393d ff85 423e
00000170: 3e5e 623a 118e 0d3c 6582 4b3d 0ad3 82bb
00000180: 8794 083e 09c3 e13d 6363 0dbd 675a b9bd
00000190: 5885 80bb ab85 913d 8109 11be a0ae 43bb
000001a0: bb79 eb3c 346d 023e 2ad6 10be 43f9 b53d
000001b0: 9a5e 783d 1a87 76bd 74d7 88bd d9ae c33d
000001c0: c94a ca3d 7ce7 b33d 6510 363d 77a6 153e
000001d0: 95c7 9e3d 0693 0abc 2fe0 983b ff97 053e
000001e0: b564 dc3d e3a7 e6bd ac14 d93b 627e 49bd
000001f0: b645 edbd 2e79 1e3e 72ff 6b3d e785 e83c
00000200: 8766 b7bd 1e86 d93d c8af e7bd cc40 31be
00000210: b5d5 cdbd b47a 3dbd e279 d3bd 94dc dd3d
00000220: 380e 733d b91c 42be aaa5 bd3d c063 45be
00000230: ca8a 463d 47c3 72bb b899 a93d 6db2 d2bd
00000240: a886 02bc 297a ab3a 9680 59bd 94e4 8bbc
00000250: 40ce 893c b062 a8bc 8285 04be b0e9 b6bd
00000260: f00e 6cbd cccc a43d baa7 b83d aa32 e43d
00000270: a384 45bd e0e9 ccbd ee86 aebd ee72 eebc
00000280: be90 5dbc 52de e0bd d9f0 9b3d 99f5 90bd
00000290: 8e95 7a3d 81fd d83c 72bf 393d 85ad d2bb
000002a0: 8d90 bdbd 6a94 0b3e abc7 adbd b164 9d3d
000002b0: 5398 36bd d8f6 093e 4b60 e0bc 5dc3 33be
000002c0: 9913 1d3e 1ea7 62bd 49ea 853d 6b48 d7bd
000002d0: 8658 043e 3c45 703d 802b 813d 4f92 fabd
000002e0: d9fa 98bd fd0e 683c 1387 8ebd 992f 90bc
000002f0: c6c0 99bb f244 bf3b 98ad 9e3d 577b d6bd
00000300: b154 08be b9d5 f73d 1ec6 2c3d 4180 3e3d
00000310: 47f2 12bc ecb8 84bd 5b04 0bbc 0dbe 013e
00000320: 4633 aabd 138a 883d e05e 9dbd 3787 d53c
00000330: 4305 943d d2cd df3c 6629 f33b f21b 4a3d
00000340: 67d3 22bd d16c 043d 78c6 d73d 91c0 463d
00000350: 982c cbbd 6d3a 21be 8ce6 ae3d 0ed8 fbbd
00000360: fd34 eb3d 34db 08be ceaf 33be 73e1 103e
00000370: 7e70 c4bc 21d6 cebd 6b09 eb3d 1f46 cdbd
00000380: b356 093d 694b ebbc e4be 0e3d 9f23 ef3d
00000390: cfac fb3d 0d4f bcbd af61 143d 310e 883d
000003a0: 8931 a53c 7b58 e4bd 772c ee3d eb05 e33c
000003b0: 8f18 cdbd ad83 7a3d d310 473c 253a 0ebe
000003c0: f430 263d 0543 aebd 6ee1 57bd 60a4 acbd
000003d0: 6150 cfbb c657 babc bad5 25bd c2bb 0e3d
000003e0: 0072 9d3d a644 943d d26c e9bd 637e f43d
000003f0: 1ee7 44bd b379 06be d7ba 93bd 828e f0bb
-0.03451479 0.035550207 -0.00090199045 0.020299325 0.11637981 0.031119103 0.0786674 -0.078390494
-0.045687642 -0.0802017 -0.058222137 -0.054344762 -0.030023094 0.041591268 -0.047129914 -0.09697166
-0.09493417 0.026434774 0.037338316 -0.13947503 0.030139845 0.064322606 0.12191249 -0.037514437
0.123824164 -0.043031774 0.12714933 -0.09532785 -0.027041502 -0.10848383 -0.098026454 0.022451552
0.06660086 0.08027661 0.13160358 -0.04620794 -0.118698604 -0.007290365 -0.1145733 -0.061932407
-0.021738876 -0.10728558 -0.033069443 0.045000743 -0.059811223 -0.06124494 -0.0024293445 -0.10282995
-0.064565964 -0.08115574 -0.078639604 0.04155853 -0.09099544 -0.086376026 -0.08992917 -0.13516746
0.021995993 -0.032811128 0.02767115 -0.027256774 0.04756704 0.15467283 0.025873147 0.0835639
0.10346225 0.027924389 0.09992481 -0.040317807 -0.08495384 -0.029399533 0.041360535 0.0885729
0.059851818 0.058330152 -0.05506834 0.0074196523 0.004242566 0.0684911 0.086326465 -0.027950516
0.053360842 -0.16887747 -0.08032541 -0.03468172 0.11188801 -0.05318447 -0.089972965 0.08426023
-0.040026143 0.035190795 0.045322582 0.18996428 0.0008635259 0.008639828 0.0496849 -0.003992443
0.13337909 0.11023528 -0.03451861 -0.09050446 -0.003922146 0.07105573 -0.14163782 -0.0029858723
0.028744569 0.1273697 -0.14144197 0.088854335 0.060637094 -0.060187437 -0.066817194 0.09554834
0.098775454 0.087843865 0.04444923 0.14614283 0.07752911 -0.008457905 0.0046653966 0.13046263
0.10761396 -0.112624906 0.0066247787 -0.049192794 -0.11585562 0.15475914 0.05761666 0.028384162
-0.089551024 0.10621284 -0.113128245 -0.17309874 -0.10050527 -0.046259597 -0.10325982 0.108330876
0.059339732 -0.1895627 0.092601135 -0.19276333 0.048472203 -0.0037042664 0.08281273 -0.10287938
-0.007966675 0.0013082671 -0.053101145 -0.017076768 0.01682198 -0.02055487 -0.12941554 -0.08931291
-0.057631433 0.080468744 0.09016366 0.11142476 -0.048222195 -0.100055456 -0.085218295 -0.029107537
-0.013523279 -0.10979904 0.076142974 -0.07078094 0.061177783 0.026488068 0.045348592 -0.0064293765
-0.092560865 0.13630834 -0.08485349 0.07685221 -0.04457886 0.1347307 -0.027389666 -0.17554994
0.15339507 -0.055335157 0.06538827 -0.105118595 0.12924394 0.058659777 0.06307125 -0.122349374
-0.074697204 0.01416373 -0.06959357 -0.017600821 -0.00469217 0.0058370763 0.07747954 -0.10472744
-0.13313557 0.12101311 0.042181127 0.04650903 -0.008968896 -0.064805835 -0.008484925 0.12670155
-0.08310561 0.066669606 -0.076841116 0.026065452 0.07227566 0.027319822 0.0074207066 0.049343057
-0.03975239 0.032330338 0.10535902 0.04852349 -0.09920615 -0.15744944 0.08540067 -0.122970685
0.11484716 -0.1336487 -0.17547533 0.14148502 -0.023979422 -0.100994356 0.11476406 -0.1002314
0.03352995 -0.028722482 0.034850016 0.11676716 0.1228882 -0.09194765 0.03622597 0.06643332
0.020165222 -0.11149689 0.11629575 0.027712783 -0.1001445 0.061160732 0.012150007 -0.13889368
0.04057403 -0.08508877 -0.05270522 -0.084297895 -0.0063267206 -0.022746932 -0.04048703 0.03484703
0.076877594 0.07239656 -0.11397709 0.11938169 -0.048071973 -0.13132362 -0.07213371 -0.007341207

Convs.0.0.bias f4 [25]
00000000: ef9f 8d3d d9e2 d13c 4955 4a3d 4988 983d
00000010: 2ee0 6b3d 1249 8e3c f8b3 093e c23e acbd
00000020: dc1c 343c f940 01be 3282 dbbd 0b49 02be
00000030: acad ddbb 8997 263d 898d b5bb b979 53bd
00000040: 8d72 96bd 3501 db3a f1be 87bd fa0b c6ba
00000050: a0bb ea3d b23e c33d e1d9 243d 1daa 5ebd
00000060: ae91 05be
0.069152705 0.025620865 0.04939774 0.07447869 0.05758684 0.017368827 0.13447559 -0.084104076
0.010993209 -0.12622441 -0.10718192 -0.12723176 -0.006765088 0.04067186 -0.005540554 -0.051629756
-0.073460676 0.0016708734 -0.06628216 -0.001510977 0.11461568 0.095334426 0.040246848 -0.05436145
-0.13043854

Convs.0.1.weight f4 [25]
00000000: 0cbe 793f 6dfe 733f eb06 783f 310d 813f
00000010: 4a83 883f 58df 803f 04eb 773f 9d3f 833f
00000020: a775 7d3f 8c58 813f fdf6 723f e67c 783f
00000030: a4b7 803f 5ac9 773f f2fb 7c3f 1cfe 7c3f
00000040: 0609 7f3f 0292 7a3f 3008 823f 04c3 7f3f
00000050: c275 7b3f e8e0 7b3f 1479 753f 0b84 7d3f
00000060: aa29 823f
0.97555614 0.953101 0.96885556 1.0082151 1.0665066 1.0068159 0.9684298 1.0253788
0.9900765 1.0105147 0.94908124 0.9706558 1.0056043 0.96791613 0.9882194 0.9882524
0.99623144 0.9787904 1.0158749 0.99906945 0.9822656 0.98390055 0.95887876 0.99029607
1.0168965

Convs.0.1.bias f4 [25]
00000000: 05d4 e7bd 94c7 bebd ac69 3bbe ff6e 5ebd
00000010: 0547 00be b14d 61bc 69d0 acbd fbd9 ecbd
00000020: 70ff abbd 52b7 b0bd 05b3 15be 1a50 50be
00000030: 788e b8bd 24a7 edbd 4d5f 81bd d044 94bd
00000040: bc34 27be 0dcd 0bbe 56b8 47be 0201 14be
00000050: f1b1 b0bd 94b4 2ebe af62 d3bd 4a63 5ebe
00000060: e4b1 85bc
-0.113197364 -0.0931541 -0.1830203 -0.054305073 -0.12527092 -0.013751433 -0.084381886 -0.11565014
-0.0839833 -0.086287156 -0.14619072 -0.20343056 -0.09011549 -0.11604145 -0.06317005 -0.072396874
-0.1632871 -0.1365244 -0.19503912 -0.1445351 -0.0862769 -0.17061073 -0.10321557 -0.21717563
-0.016320176

Convs.0.1.running_mean f4 [25]
00000000: 5aed 7a3e 2205 003d 90c8 933e 8ac8 5c3e
00000010: d5cf b03d 70ae 94be 8b8e 173e 2eea 0dbd
00000020: df4e b63e 0190 bfbd 12ea 85be 2b41 61be
00000030: 550f 29bd dbbd 0d3e 738b d9bd 388f 06be
00000040: 3dfa 88bd 246b 9a3d ef58 e73c 38a9 6a3c
00000050: 4564 d53a 5bd4 073d 22f1 1abe d9fe 173e
00000060: 0de7 73be
0.24504605 0.031254895 0.28863955 0.21560875 0.08633391 -0.29039335 0.1480047 -0.03464716
0.3560705 -0.093536384 -0.26155144 -0.21997516 -0.041274387 0.13841955 -0.10622301 -0.13140571
-0.06688354 0.07539967 0.028240649 0.014322571 0.0016280493 0.033161502 -0.15131047 0.1484331
-0.23818608

Convs.0.1.running_var f4 [25]
00000000: 5b88 f93f d274 1f3f 94ad ab3f cc42 a83f
00000010: 2a43 0e40 6d2e 3540 0a69 9640 95d2 2e40
00000020: c1f4 0d40 ea60 4741 7177 2c40 6a96 563f
00000030: 2e6f 723f c575 2942 c7d3 eb3f 6fd7 1c3f
00000040: 3f4c 513f a395 1140 97c0 8d3f c02c 9740
00000050: b19c 8240 c8c4 323f 645b 9b40 9cda 673f
00000060: b10d eb3f
1.9494737 0.6228763 1.3412347 1.3145385 2.2228494 2.8309586 4.700322 2.731603
2.2180636 12.461161 2.6947901 0.83823264 0.94700897 42.36501 1.8424004 0.61266226
0.8175697 2.274758 1.1074399 4.7242126 4.0816274 0.69831514 4.854906 0.90567946
1.8363553

Convs.1.0.weight f4 [50, 25, 1, 5]
00000000: d103 773c c518 6dbd aaf3 833c ada5 f73c
00000010: 14cd acbc 4e16 40bd d119 163d 55e4 213d
00000020: 5e88 133c 4e4e 883d b78c 81bd 66a6 0ebd
00000030: 500b 513d e829 2abd c5dd 8bba b455 3dbd
00000040: 25fa 71bd 2c41 6b3d bc7f 8bbd fc1e d83d
00000050: 0d57 50bd e7b3 08be fdc3 e8bd 7f28 8cbd
00000060: 1f83 423d 72e8 ea3d 83e3 c03d 51a3 063d
00000070: 7f8c 59ba 827d 58bd 0a99 363d 52be 56bc
00000080: 05ce 2bbc 169a c53c 90da 933d e115 a7bd
00000090: ab2e 7bbd cc52 87bd 0241 1ebd 974e e8bb
000000a0: 87d7 dc3d 8c07 4b3d 1a32 53bc 27a2 25bd
000000b0: beee b83c b4f3 8d3d 2350 983d 199d 9bbc
000000c0: d9bc 883d c672 7abd e76b bcbc 6e6b cabd
000000d0: a2bf 87bd 66c6 35bd c87e 01bd d3d6 37bd
000000e0: b3ee 8e3c 993b 45bd 8b13 fa3a 23b1 74bd
000000f0: 8fbd 973c 354f 913d a20e f73c c77d 263d
00000100: 0f24 18bd e0a8 0e3d ae62 d4bc a54b 233d
00000110: 2350 99bd 46f0 ac3c 7fb0 b9bc 5841 0a3d
00000120: a80a c03c 5826 be3d 4035 743d 31d2 b03d
00000130: 2dcd 423d 8dc4 173d 70cf 3cbd 0240 773c
00000140: fcc7 9c3c 096e 01bd 6cf6 4a3c aa6a 953c
00000150: ad11 a73d 39a7 713d 93dc f1bc cd97 ae3d
00000160: fbc8 a93b 3418 3f3d 77ec 13bd aee8 b0bc
00000170: ee21 20bd b914 633d 3555 5ebd 4467 5bbd
00000180: 83e2 74bd 89a2 543d 4b2f 113d d40e 76bd
00000190: e07c c63d 5d30 9a3c 4187 26bd 3614 97bd
000001a0: 238c e6bb ac55 c13c 079b 4a3b f1f2 863d
000001b0: 1e5c 10bd 630c 83bd 2a89 f43d 365d 4e3d
000001c0: 59c9 e83c 01d1 9bbd e2d8 ac3d 8dbe 2d3d
000001d0: 8a4b f3bc 3473 3e3c 991e 0b3d 74e0 8239
000001e0: 2c22 a7bd cb63 51bd b563 d03a 0c51 34bd
000001f0: a94a b0bd ee03 9cbd 0abe a23d d0ad 3c3d
00000200: 94e5 013d a932 c3bc fd74 cc3d d841 2dbd
00000210: a110 da3d c7fa 8e3d 63f3 1dbd 6183 60bd
00000220: 7819 94bd 9111 b2bd f05a 153d 3b48 0b3c
00000230: 8eec 873d 9433 5dbd f050 b6bd b98b 27bd
00000240: 34d0 203d 804d 913c cad6 133e 3ded be3d
00000250: e335 713d 63a7 eb3d 2dd6 a4bd 9783 773c
00000260: 4ff7 afbd ce19 a3bd b8e6 af3c 2046 0e3d
00000270: 5eb6 40bc 3907 023e 7026 843d d994 eabb
00000280: fc05 a93d 243b 7a3d 0a41 6ebd 7bcf 51bc
00000290: b74c 9cbd 17c8 353a 9b0d 67bc d2dd 9dbc
000002a0: 25bf 213c 1ad0 7dbd d60c 38bd 6695 eb3b
000002b0: aad9 f9bc 532e 5fbb 5d11 d03c 3e7c 883d
000002c0: b564 823c 3ab7 873d 8a6a 043c 3c0e dfbc
000002d0: 8843 dc3c a640 98bc 2bc8 93bd ab0e 0f3b
000002e0: bf76 3abd 9cf3 673d 784a 4e3d c8dd 1b3d
000002f0: ce70 8e3c 2cb4 b63d 6506 223d 13cd a83c
00000300: 9543 253d 76c3 f2bc b21c 63bc 1683 293d
00000310: 06d3 bd3c 12b4 cb3c a07c 143d 5c28 d1bd
00000320: 2bc9 1dbd adee 0c3d 853a 8ebd 17b9 743c
00000330: 35c4 313d 1b09 6c3d b4f9 63bc 704d 0f3b
00000340: e4e7 043d 4865 12bd 415f a4bd 0a89 e2bd
00000350: 5702 22bd d123 75bd 13d1 3dbd aeba c9bc
00000360: fb91 0cbb 23a2 99bd 7add 16bc 00d0 29bd
00000370: 4d9e f5bd 104d c6bd fbf3 4d3c b4b8 a1bc
00000380: da64 15bd 322c 173c 5c9b 0fbd 510a 553d
00000390: f55f 5fbd 09c3 03bd d69c 43bd ae26 2ebd
000003a0: 65e6 94bd e779 e83c fa29 33bd b2e6 56bd
000003b0: d220 a9bd df9f 0d3d b449 2fbd 3acc b0bb
000003c0: 18a0 783c 2656 343d 2c67 b03c 7860 783d
000003d0: 3558 9cbd 93c7 2eba 67ec 843b 49fa 0c3e
000003e0: a927 b93d 34d1 88bc 9325 52bd 5134 923d
000003f0: 1f5a 9dbb eb09 33bd 280c b73d 0886 243d
0.0150765935 -0.05788495 0.016107399 0.030230368 -0.021093883 -0.04689627 0.036645714 0.039524395
0.00900468 0.066555604 -0.06325667 -0.03482666 0.05103618 -0.04154387 -0.0010670951 -0.04622431
-0.059076447 0.0574352 -0.06811473 0.10552785 -0.050864268 -0.13349877 -0.11365507 -0.068436615
0.047488328 0.11470117 0.094183944 0.032870594 -0.00082988286 -0.05285407 0.044579543 -0.013106899
-0.010486131 0.024121325 0.07219422 -0.0815847 -0.061323803 -0.06607589 -0.038636215 -0.0070894468
0.10783296 0.049567744 -0.012890363 -0.040437844 0.022574779 0.06931248 0.0743716 -0.018995808
0.06676645 -0.061144613 -0.02300067 -0.09883772 -0.06628348 -0.04437866 -0.03161505 -0.044882607
0.017447805 -0.04815254 0.0019079311 -0.059739243 0.018523006 0.07095186 0.030158345 0.040647294
-0.037143763 0.03482902 -0.02592596 0.039867062 -0.07485988 0.021110665 -0.022667168 0.033753723
0.023442581 0.09284657 0.059621096 0.08633841 0.047558952 0.03705268 -0.046096265 0.015090944
0.019138329 -0.03159908 0.012387853 0.018239338 0.08157668 0.058997367 -0.029524123 0.085250475
0.0051814294 0.04665394 -0.036114182 -0.021595325 -0.039094858 0.055439685 -0.05428048 -0.05356528
-0.05978633 0.051912818 0.035445493 -0.060072735 0.09691787 0.01882189 -0.040656332 -0.07376902
-0.0070357486 0.023600422 0.0030915157 0.06589306 -0.0352441 -0.06398847 0.119402245 0.05038186
0.028416323 -0.07608224 0.084398046 0.04241805 -0.029699106 0.011624146 0.033964727 0.00024962763
-0.08160815 -0.05112056 0.0015898856 -0.044022605 -0.0860799 -0.07617937 0.07946403 0.046064198
0.031713083 -0.023827868 0.09983251 -0.04229912 0.10647703 0.06981426 -0.03856219 -0.054812793
-0.0723142 -0.08694757 0.036463678 0.008501108 0.06636916 -0.054004267 -0.08902156 -0.040904734
0.039261058 0.01773715 0.14437404 0.09322593 0.05888928 0.11506536 -0.08048663 0.015107057
-0.08592092 -0.07963906 0.02147232 0.034734845 -0.01176223 0.12698068 0.06452644 -0.0071588573
0.082530946 0.061091557 -0.058167495 -0.012805815 -0.0763182 0.0006934418 -0.014102365 -0.019270811
0.009872233 -0.06196604 -0.044934116 0.0071894405 -0.030499298 -0.003405471 0.025398904 0.06664322
0.015917161 0.066267446 0.0080820415 -0.027228467 0.02688767 -0.018585514 -0.072159134 0.002182881
-0.0455234 0.05662881 0.050363988 0.038053304 0.017387774 0.08921084 0.03955688 0.0206056
0.040347654 -0.029634219 -0.013861822 0.04138478 0.023171913 0.024866138 0.036251664 -0.10212776
-0.038521927 0.034407306 -0.069447555 0.014936707 0.04340001 0.05762587 -0.013914514 0.0021866225
0.03244771 -0.03574112 -0.08025981 -0.110612944 -0.039553013 -0.05984861 -0.046341967 -0.024625149
-0.0021449316 -0.07501628 -0.009208078 -0.04145813 -0.11993084 -0.09682667 0.0125703765 -0.019741394
-0.036473133 0.009226846 -0.03506027 0.05201179 -0.05453487 -0.032168422 -0.047756992 -0.042517357
-0.07270507 0.02837844 -0.043741204 -0.052466102 -0.08258213 0.034576293 -0.0427949 -0.0053954395
0.015174888 0.04402747 0.021533571 0.060638875 -0.07634012 -0.0006667312 0.0040565017 0.13767351
0.09040768 -0.016701318 -0.051305365 0.07138885 -0.004802003 -0.04371063 0.089378655 0.040166885

Convs.1.0.bias f4 [50]
00000000: 86b3 a53d 8339 b13c b836 ae3d 5256 db3c
00000010: 7664 b43b 1225 5cbd ef5b a4bd 08b9 49bc
00000020: 8140 10bd d880 18bd 5121 95bd 9370 f33c
00000030: 72b6 37bc 1c29 913c e85d 80bd 2ff8 aebd
00000040: ad7b d63a 9b28 e3bc 4baa 54bd 922e 66bd
00000050: 3cfc 93bd c83b f63c c55e 8e3c 19d5 0a3d
00000060: 7bd7 4abd 06a5 e8bb 87e5 a43d c687 1cbc
00000070: e2d4 c53c 4c11 95bd 9cc7 55bb efbd 95bd
00000080: fc7b 5fbd 7c04 a93d 12e1 9a3d 25d7 8b3d
00000090: 812c 933c 85e7 b43d 2e41 9abd 0253 a9bd
000000a0: 0447 9ebd ba3a 8ebd dab0 8c3d bc6e c43c
000000b0: 0f9c 28bc 1350 20bc c3f9 ba3b 3e8e b13d
000000c0: dddb 9bbd e7d7 e1bc
0.08090882 0.021633869 0.085065305 0.02677456 0.00550514 -0.05374629 -0.080253474 -0.012312181
-0.035217766 -0.03723225 -0.07281745 0.029716766 -0.011212932 0.017719798 -0.06267911 -0.08543431
0.0016363763 -0.027729323 -0.051920217 -0.056196757 -0.07225844 0.030057803 0.017379174 0.033894632
-0.049521904 -0.0070997505 0.08051591 -0.009553855 0.024149362 -0.0727869 -0.0032620197 -0.073116176
-0.0545616 0.082528085 0.0756246 0.06828145 0.017965557 0.08833221 -0.07531963 -0.082677856
-0.07728389 -0.06944795 0.06869669 0.023978584 -0.0102911135 -0.009784716 0.0057060434 0.08669709
-0.07610295 -0.02756877

Convs.1.1.weight f4 [50]
00000000: df24 803f 0cb5 843f b883 763f 71e7 7a3f
00000010: 79c0 8c3f 096e 7b3f 1909 823f 540e 863f
00000020: 1bae 7e3f 3dda 7f3f 8314 7a3f fd52 7f3f
00000030: 0e7d 803f 3a58 803f edab 833f 9466 7e3f
00000040: ec28 833f 8d2d 813f 6b97 793f 5c65 813f
00000050: 55ef 793f a859 813f 5710 7b3f 7ce7 7f3f
00000060: c438 843f acfd 7d3f b86f 7d3f c12e 7a3f
00000070: c6fe 813f a1e6 753f 3f44 793f 8596 763f
00000080: 34d8 783f af65 7b3f bc58 803f cf0c 7e3f
00000090: ec9f 7f3f 9390 7b3f 4dca 733f be80 7c3f
000000a0: db00 833f 4c0d 7b3f 1fa1 793f e4e0 7e3f
000000b0: f768 813f 696e 793f 20aa 773f 80c6 793f
000000c0: af3a 823f fa32 883f
1.0011252 1.0367751 0.96294737 0.980094 1.0996238 0.98214775 1.0159026 1.0473123
0.99484414 0.9994238 0.9768755 0.99736005 1.0038164 1.0026925 1.0286843 0.9937527
1.0246863 1.0092026 0.9749667 1.0109057 0.97630817 1.0105486 0.9807181 0.9996259
1.0329823 0.992152 0.98998594 0.9772759 1.0155876 0.96055037 0.9736976 0.96323425
0.972049 0.9820203 1.002708 0.99238294 0.99853396 0.9826748 0.9523056 0.98633945
1.0234636 0.98067164 0.97511476 0.99561906 1.0110158 0.974341 0.96743965 0.9756851
1.0174159 1.0640557

Convs.1.1.bias f4 [50]
00000000: 5ce2 7a3b 5cac 51bc 03a0 5bbd 8725 9bbd
00000010: 1844 64bd 6107 9cbd 564b 89bd d6ea 38bd
00000020: 1d1a 31bd 3286 1dbd 7d31 acbd ca3c 91bd
00000030: 83b2 b2bd c0a7 78bd c53c c1bd f495 49bc
00000040: 8e17 22bd 9c73 94bd 6484 bdbd 4d76 34bc
00000050: 2f51 35bd ff47 78bc 1c1f 16be 0fe2 d0bc
00000060: 9b30 82bd 139d 90bd 453c 6bbd 844a 59bd
00000070: ab74 c1bd 1016 87bd 476d 6fbd 6567 e5bd
00000080: 875e 34bd c22f 45bd 224f 0fbd bb7b c43b
00000090: c754 5dbd 374c a3bd e86f 6ebd 396c bebd
000000a0: abf7 b6bd 6953 24bd fa0a 46bd da6f 90bd
000000b0: 9a32 7bbc ffc7 3cbc 73b7 88bd 77b9 97bd
000000c0: 82c3 42bd 74cd 98bd
0.0038281893 -0.012797441 -0.053619396 -0.07575517 -0.055729 -0.07618595 -0.06703822 -0.045145832
-0.043237794 -0.038458057 -0.08407877 -0.07091673 -0.08725455 -0.060706854 -0.09435419 -0.012303818
-0.039573245 -0.07248613 -0.09253767 -0.011014533 -0.044266876 -0.015153884 -0.14660305 -0.025498418
-0.06356927 -0.070612095 -0.057430524 -0.05304958 -0.09446081 -0.06596005 -0.058453824 -0.112013616
-0.04403546 -0.04814125 -0.034987576 0.005996195 -0.054035928 -0.07973521 -0.05821219 -0.092979856
-0.08933958 -0.04011861 -0.04835031 -0.07052584 -0.015331889 -0.011522292 -0.06675615 -0.074084215
-0.047549732 -0.07461062

Convs.1.1.running_mean f4 [50]
00000000: 5c5a 0c3e 82d9 e0bd e5e6 e63e ecd2 eebe
00000010: 2f98 fabe ab9a 7cbd 7d54 a1be 64ec 8ebd
00000020: 710e f9be f068 653e 9e6d 87be 66de cd3e
00000030: 146f fc3b b5d0 9abd 6d30 a9be 60a6 623d
00000040: c990 2ebd 5427 e2bd d457 c33b a3fe 84be
00000050: 8aac 7ebe 8166 71be 4e7a f5bd 13ed c43d
00000060: 7da7 903e 054e fdbe e7ae cb3e eeb3 043f
00000070: 8ab4 c43d 5328 4c3f 216d f03e 9e9d 29be
00000080: 05a4 cd3e 4c50 e2bd 1963 efbe cda9 d2bd
00000090: e727 b4be 7981 963c c738 903e 8090 18bf
000000a0: 9778 373e 2ed5 003f 2dd7 643f 567e fabd
000000b0: b02e 883e 5ef3 8c3d caca 2e3f 3b6f 7f3d
000000c0: 6d9d 8abe eebc 7fbe
0.13706344 -0.10978986 0.45098034 -0.46645296 -0.48944232 -0.06167094 -0.31509772 -0.06978682
-0.4864383 0.22403312 -0.2645082 0.4020874 0.007703671 -0.07559339 -0.33044758 0.05533445
-0.042618547 -0.110426575 0.0059613977 -0.25975522 -0.24870506 -0.23574258 -0.119862184 0.09615531
0.28252783 -0.49473587 0.39781877 0.5183705 0.096047476 0.7974903 0.4695826 -0.16564032
0.401642 -0.11050472 -0.46755293 -0.10286293 -0.35186693 0.018372284 0.28168318 -0.5959549
0.17917095 0.50325286 0.8939083 -0.12231128 0.2659812 0.06882356 0.6827818 0.062361937
-0.2707323 -0.24974415

Convs.1.1.running_var f4 [50]
00000000: 67e8 583f 36ff 323f d249 1e3f 0528 ff3e
00000010: 6b3c 9d3f 8a6c ee3e 64d5 463f ffd9 9c3f
00000020: e0be 823f 29b0 1f3f 5319 163f aa0d 3b3f
00000030: a9fc 153f 6861 453f 35ae 5f3f 7184 173f
00000040: c9dc 213f 7abe 413f 9422 f63e 8c70 763f
00000050: 32eb 493f f525 833f a75e 233f 3cf3 673f
00000060: add1 373f 416e 063f d893 0d3f 6ef1 f93e
00000070: f608 5e3f ef7c 2d3f 68a9 3c3f f7d7 093f
00000080: c9cb 0b3f 7bf8 643f e20e 883f 139c 623f
00000090: 981f 483f 7415 0e3f aa0b c23e 9391 773f
000000a0: 61b5 7e3f fbbe 2e3f 7611 2d3f 7a5a 2b3f
000000b0: 8e8e 273f 3fdd 3f3f 3d2d 1c3f 0d36 0e3f
000000c0: 2246 2c3f 3afd 983f
0.8472962 0.6992067 0.6183139 0.4983522 1.2284063 0.46567184 0.7766936 1.2254027
1.02145 0.62378174 0.5863239 0.73067725 0.58588654 0.77101755 0.87375194 0.59186465
0.63227516 0.7568127 0.48073256 0.9626548 0.78874505 1.0245959 0.63816303 0.9060552
0.71804315 0.52511984 0.55303717 0.4881701 0.86732423 0.6776876 0.73695993 0.5384516
0.54607826 0.8944165 1.0629542 0.885194 0.7817321 0.55501485 0.37899524 0.96706504
0.9949551 0.68260163 0.6760477 0.6693493 0.65451896 0.7494697 0.6100653 0.55551225
0.67294514 1.1952279

Convs.2.0.weight f4 [100, 50, 1, 5]
00000000: 5dc1 bf3c 159b 673c c87d 983c e309 543c
00000010: df6d 8dbd d45f 00bc ae34 0cbd 5a40 58bd
00000020: b6f6 ebbc afd9 45bc 7f65 3cbc 2b96 813d
00000030: 3cb2 bb3b 5e80 dabb f321 393d 3286 c2bc
00000040: b0c6 f0bc ec14 80bc 6a3f a8bc e614 07bb
00000050: 31ea 503d 45ef ea3c 2113 303d 203d d8bc
00000060: 82ed 9abc bd57 033d d0a8 c2bc 8eec 223d
00000070: 801e f93b db03 12bc 9e0d 073d 3fad 09bd
00000080: bedd 033c b316 a13c 7623 abbc a21c a93c
00000090: 3be3 253c d0cb f2bc 1f7b d83b 8403 29bd
000000a0: a1f8 6abc 9c21 553d 9bf1 93bd 77a3 27bd
000000b0: 93e1 80bd 074f 733d 5ada 56bd d876 b7bc
000000c0: 5981 683c 21b0 1d3c 993d 783d 2859 7c3c
000000d0: 66d8 263d 7f29 873d 796a ef3c 693f 41bc
000000e0: 18a2 b53c 0df7 13bc 1178 82bb 9946 82bc
000000f0: 934a 683d 8ecf 1f3c 0aea 5d3d 1c38 273d
00000100: 4e4d 243d b9ad c0bc 1ba9 3c3d f31a d73c
00000110: 2961 723d af9b fabb 1038 bb3c 452b 0b3c
00000120: 7fe7 0ebc 68c8 363d 4710 0bbd d29e 863d
00000130: 0a56 37bd d35d 42bd 93e8 d6bc 2542 243d
00000140: d81c 9e3c e3ef 9d3c af2b b5bc 3f1d 14bd
00000150: db34 6c3d 50c8 893d 11db 1fbb 8332 5d3d
00000160: 68fb a9bb 551c 9c3c 1b35 b63c a177 503d
00000170: e0b6 0dba 5cc0 523d 65cb 8d3c 90e8 87bd
00000180: 2753 be3c 85eb 233d 00b8 7abd 1417 533b
00000190: 6b58 dbbb d59a 793d 6d70 753d 8b7a 343d
000001a0: a66b 543d 54e9 81bd c738 36bd 4414 01bd
000001b0: 7b6d 44bd 0f0d 363d 3873 10bd 980b 313c
000001c0: 01cb 9fbc 7926 46bc 8e59 103d f437 fe3b
000001d0: 4900 1b3c 616d 823c 8881 eebc 7b65 803c
000001e0: be47 d3bc dc2e 0e3d e573 d8bc d604 e73c
000001f0: 9a7e 70bd 1471 2bbd 7533 35bd b3e8 18bd
00000200: b5f9 f53b c1a9 203b 87fb 753c 386d 99bc
00000210: 92a6 78bc 43a6 d7bc 82a4 2f3d f6c4 3bbd
00000220: 88aa 5d3c b35f 5cbd 8961 8abc 9568 833d
00000230: da9d a43b 4175 c0bd d29b 81bd 1501 9fbd
00000240: c2f7 96bc ddc0 3e3c 199c 1ebd 891a 1cbd
00000250: 6f3a 62bc c71b 94b9 e607 abbc 8bd7 00bd
00000260: 6d70 4b3c e495 e23a c393 37bd 2e06 673c
00000270: 0abb a53d e7a1 0abd dc3f aa3d c7ac 89bb
00000280: ebc2 33bc 3a7d e03c b9c1 e9bc cf28 2c3c
00000290: d2ba 23bd 93b9 7e3c 4d83 6f3c 7c58 203d
000002a0: dc3a 413c b1dc 19b9 21c0 8ebd f46f 643d
000002b0: 7195 953c 22c6 e83c 6bf5 61bc 64c2 a43c
000002c0: bca2 ebbc 97fa 87bd 141b 21bd 9b10 1cbc
000002d0: bb38 2cbd 43f8 143d 0259 2dbb 0d05 c0bc
000002e0: 59b2 51bd f1aa f23c b867 9b3d cea0 653d
000002f0: 9266 b43c 20e2 a73d 0f12 a13d 5f04 edbc
00000300: 9148 9abc 8936 a5bc 4b6e 0b3d c485 373b
00000310: b784 e73c a0c2 ee3c 0dac 37bd 6d62 b13d
00000320: 681b 78bd 58db 80bd ea14 8fbd ddc6 27bd
00000330: 7f54 563c 20b0 d4bc e2ac 2bbd 86e4 0cbd
00000340: 41ec b3bb 430e d8bc 9979 87bb 8e7a 04bd
00000350: 08c7 cb3c c315 09bd d4f8 bbbc 0f6f 693c
00000360: 99bb e13c 2143 5c3c b7bc 7a3d 118c 393d
00000370: 0826 52bc 3dcb 0b3d 59a9 963c 1ff2 a7ba
00000380: d640 613d 0846 4a3c 17f1 923d 7b9a eebc
00000390: f195 5a3c 39b6 2b3d 543d 3fbd 31e2 683c
000003a0: d36d 3abd e8ec 1ebd f588 bc3a f53d d93c
000003b0: f600 3fbd 701b 36bc 0611 d73d 2cbb b5bc
000003c0: a41f 8f3b 14c6 0bbd 6735 de3c b069 613d
000003d0: 65ba 0ebd 00ea 86bd 9da4 0fbd 0686 cabb
000003e0: 14ed 183b 22ce 84bc 2168 913c 7ec4 d1bc
000003f0: 6a2e 6cbc 700a d33c 1dc3 023d 4925 87bd
0.023407632 0.0141360955 0.018614665 0.01294181 -0.06905722 -0.007835347 -0.034229927 -0.052795745
-0.028804164 -0.012075826 -0.011498808 0.063274704 0.0057280343 -0.0066681346 0.045198392 -0.02374563
-0.029391617 -0.015634976 -0.02053805 -0.0020611822 0.051004592 0.028678546 0.042986993 -0.026396334
-0.01891208 0.032066096 -0.023762137 0.039776377 0.007602513 -0.008912052 0.03297197 -0.033612486
0.008048473 0.019664144 -0.020890933 0.020643536 0.010124977 -0.029638201 0.006606474 -0.04126312
-0.014341504 0.052034006 -0.07223817 -0.040927377 -0.06293025 0.05940154 -0.05245433 -0.022395536
0.014190995 0.009624512 0.06060562 0.015402116 0.040733717 0.065997116 0.029225575 -0.011794903
0.022172019 -0.009031069 -0.003981598 -0.015902804 0.056711745 0.009754075 0.054178275 0.040824994
0.040112786 -0.023520337 0.04605971 0.026257968 0.05917469 -0.0076479535 0.022853881 0.008494203
-0.008722185 0.044624716 -0.03395107 0.06573261 -0.044759788 -0.04745276 -0.026233947 0.040102143
0.019300863 0.019279426 -0.022115557 -0.036160704 0.057667594 0.0672766 -0.0024392048 0.05400325
-0.0051874407 0.019056479 0.02224212 0.050895337 -0.00054059736 0.05145298 0.0173089 -0.06636155
0.02323301 0.04001953 -0.061210632 0.00322098 -0.00669389 0.060938675 0.05992167 0.04406218
0.051860474 -0.06343332 -0.04448774 -0.031513467 -0.04795597 0.044446047 -0.03526613 0.010805987
-0.01950598 -0.0120941335 0.035241656 0.007758135 0.009460517 0.015921297 -0.0291145 0.01567339
-0.025791045 0.034712657 -0.02642245 0.028200548 -0.058714487 -0.041855887 -0.044238526 -0.037331294
0.007506574 0.0024515244 0.015013582 -0.018728837 -0.015176432 -0.026324397 0.042881496 -0.045842133
0.013529427 -0.053802203 -0.016892212 0.06416432 0.0050237 -0.093973644 -0.063285485 -0.07763878
-0.018428687 0.011642662 -0.038723085 -0.038111243 -0.013807877 -0.00028249455 -0.02087779 -0.031455558
0.012416941 0.0017287103 -0.04481865 0.014100594 0.080923155 -0.03384581 0.083129615 -0.004201505
-0.010971765 0.027403463 -0.028534757 0.010507776 -0.039973088 0.015547174 0.014618707 0.039146885
0.011793818 -0.00014673431 -0.069702394 0.05577083 0.018259736 0.02841479 -0.013791422 0.020112224
-0.028764121 -0.06639593 -0.039332464 -0.009525443 -0.04204629 0.036369573 -0.0026450758 -0.023439908
-0.051195476 0.029622527 0.07588142 0.05606156 0.022021566 0.08197427 0.078647725 -0.028932748
-0.01883343 -0.020167606 0.03404073 0.0028003315 0.028261526 0.029145539 -0.044841815 0.08661351
-0.06057301 -0.062918365 -0.06986411 -0.040961135 0.013081669 -0.02596289 -0.04191292 -0.034397624
-0.00549081 -0.026373988 -0.0041343686 -0.03234344 0.024875179 -0.03346802 -0.022945799 0.01424767
0.027555274 0.013443739 0.06121513 0.045299593 -0.01282645 0.03412937 0.018391298 -0.0012813247
0.054993473 0.012345798 0.071748905 -0.029126396 0.013341413 0.041921828 -0.046689346 0.0142140845
-0.045514893 -0.03880015 0.0014384078 0.026518801 -0.046631776 -0.01111494 0.10501294 -0.022183977
0.0043677855 -0.03412445 0.027125074 0.055032432 -0.03484573 -0.06587601 -0.035069097 -0.0061805276
0.002333467 -0.016211573 0.017749848 -0.02560639 -0.014415363 0.025761813 0.031924356 -0.065989085

Convs.2.0.bias f4 [100]
00000000: 8981 a63b 4a6f d03c af56 18bd 850a 40bd
00000010: 4122 14bd 55be 603d 9ac3 1cba c0e4 233d
00000020: 7324 27bd fac6 92bc ec52 2fbd 8c17 653c
00000030: 6f46 d53b 7c61 14bb 7eb9 603b 6fe2 90bc
00000040: 408a 403d 9144 b2bc f998 aa3c 16c5 103d
00000050: d316 e2bc d70a 0f3d 30ce 303d 89c2 f13c
00000060: fd1b 83bc b0d6 e8bc 1111 61bd 54e2 f7bc
00000070: 952f 563c 963d ecbc f03a d63c a930 f5bc
00000080: 50ee 05bd 213c 6ebd 69dc 26bd e825 6cbd
00000090: 0f13 2a3d c120 063d 82da efbc f16c 3ebd
000000a0: 56ef 353d f218 f0bc 480a 443d b257 5dbd
000000b0: 9e57 6ebc 2726 083d 02d4 4d3d 3efd 70bd
000000c0: 2788 f63c db44 413a 714b da3c 7c6e 0f3d
000000d0: c9f5 76bd 1e35 833d ef73 013c 8429 8b3c
000000e0: 08c8 05bd 7f49 763d 5116 093c feca 4d3d
000000f0: a4ef d73c 4764 63bd f260 7d3d 4234 063d
00000100: c2fe 133d f164 eabc 4756 923c 9229 b93c
00000110: bdce 3ebd 85a5 2c3c bdc8 02bd 9bae 1d3d
00000120: d59c 83bc 9065 b83c 5799 42bd dcb5 5fbd
00000130: 660b 6bbd 7691 07bc 8d5c a63c 7cb5 843c
00000140: b7e5 543a d882 77bd e953 36bd f84c 283d
00000150: 32af 05bd 3f1d 903c f2ad 03bb 1bfe 50bc
00000160: 9fde a6bc 65ca e63c 5af6 52bd e246 30bd
00000170: bd4f 1b3d ba72 29bd a542 b2bb 04ec 41bd
00000180: 054f 8f3c 389e 92bb f3ff dc3c c6b7 50bd
0.0050813598 0.025443692 -0.037192043 -0.046885032 -0.03616548 0.054869015 -0.00059800746 0.040013075
-0.040806245 -0.017917145 -0.04280369 0.013982665 0.0065086405 -0.0022641113 0.003429025 -0.017686097
0.047006845 -0.02176121 0.020824896 0.035344206 -0.027598774 0.034922447 0.043165386 0.029511707
-0.016004557 -0.028422683 -0.054947916 -0.030259289 0.013072868 -0.02883796 0.02615115 -0.02993043
-0.032697976 -0.058162812 -0.040737543 -0.057653338 0.041522082 0.03274608 -0.029278997 -0.046490613
0.0444177 -0.02930877 0.047861367 -0.05403871 -0.014547257 0.03323951 0.050251015 -0.05883526
0.03009422 0.0007372626 0.026647301 0.035017475 -0.060292993 0.06406616 0.007901176 0.01698757
-0.032661468 0.060128685 0.008367137 0.050242417 0.026359387 -0.055515554 0.061860032 0.03276468
0.036131628 -0.028612586 0.017863406 0.02260283 -0.04658388 0.01053751 -0.03192972 0.038496595
-0.016065994 0.022509366 -0.047509518 -0.054616794 -0.057383917 -0.008274427 0.020307804 0.01619982
0.00081213884 -0.060427517 -0.044513617 0.041089028 -0.032637782 0.01759207 -0.0020092693 -0.012755896
-0.020369826 0.028172681 -0.05150447 -0.04303635 0.03791784 -0.041369177 -0.0054400736 -0.047344223
0.017493734 -0.0044744276 0.026977515 -0.05095651

Convs.2.1.weight f4 [100]
00000000: 840f 7d3f 1eae 7b3f c142 763f f9ef 803f
00000010: d838 813f 0a75 793f ea16 823f 3662 823f
00000020: d5fa 703f 99ed 763f 0e9b 823f 93fa 7f3f
00000030: ad0d 7d3f dc97 7b3f 1449 7b3f 0ef9 6d3f
00000040: b22c 7e3f c86a 853f 4a4d 7c3f bf06 803f
00000050: 23d5 7c3f 7edc 813f a602 863f d491 803f
00000060: 4459 833f ea61 813f f2bf 773f ec6a 7b3f
00000070: 7159 813f e7b9 7b3f 016b 793f e289 783f
00000080: e0c6 7b3f a4fb 7c3f adfe 853f 44f9 7e3f
00000090: 6b88 773f fcc9 873f 79a0 803f 1306 7b3f
000000a0: 7d79 813f c1c9 7d3f 4d5d 803f 640d 7d3f
000000b0: ab7d 7e3f 44ff 7f3f 043c 843f 1ede 823f
000000c0: 18a4 7d3f 4955 773f 1b1c 813f 16ba 7d3f
000000d0: 5103 7e3f 1361 7e3f 17b2 7c3f ffeb 7f3f
000000e0: bd13 7c3f e2f8 833f 15d9 7f3f 1772 833f
000000f0: eafa 7d3f 4dcc 843f efdb 6e3f 8afa 813f
00000100: 7cb9 813f 73d6 813f f0a9 7c3f 7e52 783f
00000110: 5625 823f f0f2 6f3f b348 823f 0a3a 7f3f
00000120: 0fcc 803f 3d47 793f d7c3 7e3f 22fe 7d3f
00000130: 438b 7d3f 0d4a 863f 39ea 833f 4f27 783f
00000140: 28b5 793f 8f86 853f 8a57 793f 2c10 833f
00000150: 5b7a 833f be32 743f e814 813f 4287 813f
00000160: ead2 7c3f 0dac 833f e589 813f b58c 803f
00000170: 029c 813f f12f 7e3f 2bc0 833f 1027 7a3f
00000180: 4c1a 7c3f 0a39 7d3f b748 803f 2f5f 853f
0.988518 0.98312557 0.9619561 1.0073234 1.0095472 0.9744421 1.0163243 1.0186222
0.9413274 0.96456295 1.0203569 0.9999172 0.9884899 0.98278594 0.98158383 0.9295815
0.9928695 1.0423212 0.98555434 1.0002059 0.9876272 1.0145414 1.0469558 1.0044503
1.0261617 1.0108006 0.9677726 0.98210025 1.010542 0.9833054 0.974289 0.9708539
0.98350334 0.98821473 1.0468346 0.995991 0.9669253 1.0608516 1.0048972 0.98056144
1.01152 0.9913598 1.0028473 0.9884856 0.99410504 0.9999888 1.0330815 1.0224035
0.9907851 0.9661451 1.0086702 0.9911207 0.9922381 0.99366874 0.98709244 0.99969476
0.9846762 1.0310328 0.99940616 1.0269192 0.9921099 1.0374848 0.9330434 1.0154583
1.013473 1.014357 0.98696804 0.97000873 1.0167644 0.9373007 1.0178436 0.99697936
1.0062274 0.97374326 0.9951758 0.992159 0.9904062 1.0491349 1.0305854 0.9693498
0.9754205 1.0431689 0.973992 1.023931 1.0271715 0.95389926 1.0084505 1.0119402
0.9875933 1.0286881 1.0120207 1.004294 1.0125735 0.992919 1.029302 0.97715855
0.98477626 0.9891516 1.0022191 1.0419673

Convs.2.1.bias f4 [100]
00000000: 860a d5bc 6c11 77bd dd1a 89bd c61c a5bc
00000010: 66d9 0ebc 5a55 05bd cec0 3fbc 6f73 73bd
00000020: d3fb 69bd d52a 66bd 44e8 a7bd 6242 38bd
00000030: ecd0 27bd 7914 e5bc 5d45 ebbc 13e9 1fbd
00000040: b515 ffbc 3afa ecbc ed32 65bd 69c5 65bd
00000050: 53da c8bc 3ab7 a7bd 2d15 fdbc 906b 98bd
00000060: 4277 90bd 15bf cfbc 92cf 5fbd f4eb 51bd
00000070: 8dbf 8dbd 51fc c3bd 0fe9 9fbd 04c5 2dbd
00000080: b62c 97bd c261 2abd b228 89bb a0a8 9ebd
00000090: 176b 3ebd cc87 4abd ada6 a1bc 9107 81bd
000000a0: 14db 29bd 82d9 e8bc df60 a0bd 333a fbbc
000000b0: 9353 97bd c19e c3bc ece4 5cbc 6796 80bd
000000c0: 7c81 26bd 22c9 88bd cb63 4ebc de6e 80bd
000000d0: b1e6 9ebd e93d 2bbd 4b7d 42bd d988 c5bd
000000e0: 7bfe 29bd 93ee 8dbd 235f 01bd e961 4abd
000000f0: 7ba4 59bd 40da 1abc ab4f 13bd 1270 b3bc
00000100: 96e4 eebb 1fab 30bd d3b8 de3b fec5 c2bd
00000110: 7390 b3bd 9a99 6fbd 8d2d 5fbd 7fa5 16bd
00000120: 2703 0fbd 7421 8abd 28c0 9dbd 661d b5bc
00000130: 4b96 8ebd fba2 1dbd c3bd 34bd 10a7 82bd
00000140: d1fe 0ebd dbc5 41bd 44d0 a4bd 1f21 7fbd
00000150: cd5d 1dbd 57de 52bd f8d1 843b cd9c 31bd
00000160: 6743 8cbd 6859 77bd fc27 98bd b567 9fbd
00000170: cc09 edbc 0c3e 0abd 3fb4 4cbd f2df 57bd
00000180: d202 f2bc 7bba 5c3a 1c60 39bd 2206 36bd
-0.026005995 -0.06031935 -0.06694577 -0.020155322 -0.008718824 -0.0325521 -0.011703683 -0.059436258
-0.057124924 -0.05619319 -0.08198598 -0.044985183 -0.040970728 -0.027963864 -0.028719598 -0.039040636
-0.03113828 -0.028927911 -0.05595677 -0.056096468 -0.024518168 -0.081892446 -0.030893886 -0.07442391
-0.070539966 -0.02535967 -0.054641314 -0.051250413 -0.06921301 -0.0956961 -0.07808124 -0.042424217
-0.07381575 -0.041597135 -0.0041857595 -0.077470064 -0.046488848 -0.049445912 -0.019732798 -0.06300271
-0.041468695 -0.028424028 -0.07830977 -0.0306674 -0.073889874 -0.02387941 -0.013482314 -0.06278687
-0.04065083 -0.06678988 -0.012597035 -0.06271146 -0.07758845 -0.04180709 -0.04748277 -0.09645242
-0.041502457 -0.0693027 -0.03158487 -0.04940978 -0.053135376 -0.009451449 -0.03596465 -0.021904025
-0.007290433 -0.043131944 0.006796935 -0.0951042 -0.08767786 -0.058496095 -0.0544868 -0.036778923
-0.034915116 -0.06744662 -0.077026665 -0.022108745 -0.0696226 -0.03848551 -0.044126283 -0.06379521
-0.03491098 -0.04730783 -0.08047536 -0.062287446 -0.038419534 -0.05148157 0.0040533505 -0.043362428
-0.068487935 -0.060388 -0.074295014 -0.077834524 -0.028935336 -0.03375058 -0.049976584 -0.052703805
-0.02954236 0.0008420122 -0.045257673 -0.044439442

Convs.2.1.running_mean f4 [100]
00000000: d419 463e 5fcc 1abf 5fee 953e cbd1 36bf
00000010: 880e 153e ee08 66be 885a d93c 7460 67bf
00000020: 9979 2a3f 328e de3e 073d 83bf 6866 923d
00000030: dffa 313e bbc9 f53d c5b2 aa3e f306 003f
00000040: 28cb 823e 59f0 8cbf ece9 0e3e 9c54 09bf
00000050: 942d f13e 0850 94bf 5701 a3be 9d38 c23c
00000060: f062 fb3e fd3e 8b3e 0a41 693c 35e8 23be
00000070: 63fd 243f 674e c3bf ccbb ca3f 0cd1 be3e
00000080: f31c 44bf afca bcbd e020 22bf 339e 483f
00000090: 8c9e 0d3f 202e fdbe cde6 cbbe 714c 433f
000000a0: 53c1 2ebe 27d1 913e e27d 47bf 4fa9 883f
000000b0: a4c6 0dbf cde7 b93d 2564 f43e e2fd b1bf
000000c0: 3a99 e73e deba 71be 1997 733f 3ec8 8b3e
000000d0: e7a7 9d3f d927 e73e 656f 6f3e 8dab aabe
000000e0: e893 8ebe f66e 03bf df9d 6d3d 9418 2b3f
000000f0: 490d f23e b264 d9be 8a88 3b3f a387 d13e
00000100: 27bb 123f 48b4 41be 7705 c23e 49ba 9b3f
00000110: 5670 a6bf 7228 b33e 3550 52bf 52e1 c03d
00000120: 46a3 39be 1cd7 a13e e073 03bf 4d15 0e3e
00000130: c843 6b3e 7663 2bbf e8c5 d3bd 37a3 c43f
00000140: 1a81 983e b707 313f efb2 91bf 6fdf 70bf
00000150: 6976 41bf 718f 6e3f 6e1e 62be 26e0 863f
00000160: b64e b0bd f91f 3ebf c4cd 68bf 7a12 9b3f
00000170: 8731 043f 0d7f 063f b39c 23be 01cc 1d3f
00000180: 751f 643f 44fb f73d c474 f5be 096c 98be
0.1934579 -0.60468096 0.29283425 -0.7141387 0.14556324 -0.22464344 0.026532426 -0.9038155
0.66591793 0.4346786 -1.0252999 0.07148439 0.17380856 0.12001368 0.33339515 0.50010604
0.2554562 -1.1010848 0.13956422 -0.5364473 0.47105086 -1.1586924 -0.3183696 0.023708636
0.4909892 0.27196494 0.014236698 -0.16006549 0.6444914 -1.5258301 1.5838561 0.37268865
-0.76606673 -0.09218346 -0.63331413 0.7836639 0.5532005 -0.49449253 -0.39824525 0.76288515
-0.17065935 0.28479883 -0.77926457 1.0676669 -0.55381227 0.090774156 0.47732654 -1.3905604
0.4523409 -0.2360644 0.9515243 0.2730121 1.2316865 0.4514759 0.23382337 -0.33334008
-0.2784722 -0.5134119 0.058011886 0.6683438 0.4727576 -0.42459637 0.7325522 0.40923795
0.5731682 -0.18916428 0.37894794 1.2166225 -1.3003032 0.34991795 -0.82153636 0.094179764
-0.1812869 0.31609428 -0.51348686 0.13875313 0.22975075 -0.6694864 -0.10340482 1.5362309
0.29785997 0.69152397 -1.1382731 -0.9409093 -0.75571305 0.93187624 -0.2208192 1.0537155
-0.08608763 -0.74267536 -0.90938973 1.2115014 0.5163807 0.52537614 -0.15977745 0.6163941
0.891105 0.12108472 -0.47940648 -0.29769924

Convs.2.1.running_var f4 [100]
00000000: 7dfe 773f ae1a a63f 4fdf 673f 2c00 f03f
00000010: fe16 783f 92a5 b03f 2788 893f 6f88 2940
00000020: 59db a33f 9330 793f b002 f03f fb4e 953f
00000030: 8898 3c3f d9b3 4b3f 8876 863f 5f84 2f3f
00000040: 8636 6c3f f89c 1f40 86a0 a83f 10d8 bb3f
00000050: 4473 8f3f 5ac4 1040 f42b b63f 5b16 b23f
00000060: ce68 c53f 79a4 ac3f 9685 6b3f f2f5 823f
00000070: 3d11 623f cc27 1740 4885 0c40 2b6e af3f
00000080: 97fd b13f fd97 963f b0a8 1040 50a1 ee3f
00000090: 8792 8a3f a827 1d40 8425 8b3f 5f35 d53f
000000a0: aae6 c43f 201c 3a3f 0794 9e3f e757 b13f
000000b0: 0e43 a13f 4384 a73f f257 723f 0bd3 0240
000000c0: d49a 973f 9dbe bd3f dd41 a73f a174 ac3f
000000d0: bec2 1040 a1c5 963f d200 da3f 191d 0b40
000000e0: c43b b03f 98f8 df3f b4f1 683f bf02 f93f
000000f0: 7419 dc3f f1fc ba3f d780 6f3f 7bbf 873f
00000100: 0e66 753f 52c7 893f a1b4 723f fb63 c93f
00000110: 5c68 0840 1c8b 913f ee35 ff3f ad1f aa3f
00000120: 9b59 e63f d0d0 b13f bc9d e13f 033a 553f
00000130: a7e9 773f 328f e43f 4a0e 9f3f 52fe 2240
00000140: fc34 5c3f 0af7 e33f a200 3040 99f9 0140
00000150: d63b f33f be03 813f 68fd 9c3f 20ed f13f
00000160: 3a5a 653f 2b83 0240 376e 0240 c0c6 0240
00000170: f609 6b3f e542 913f 7648 973f 278c 7f3f
00000180: e26b 893f 5ab1 493f a7a6 af3f c4f1 1d40
0.96872693 1.2976892 0.90575117 1.8750052 0.96910083 1.3800528 1.0744675 2.6489522
1.2801315 0.97339743 1.875082 1.1664728 0.73670244 0.795713 1.0504923 0.6856136
0.92270696 2.4939556 1.3173988 1.4675312 1.1207051 2.2619843 1.4232163 1.3913072
1.5422609 1.3487693 0.9200071 1.0231307 0.88307554 2.361804 2.1956348 1.3705496
1.3905514 1.1765133 2.2602959 1.8642979 1.0825967 2.4555454 1.0870824 1.6656913
1.5382893 0.72699165 1.2388924 1.3854951 1.2598588 1.3087238 0.94665444 2.044131
1.1844125 1.4823796 1.3066975 1.3473092 2.2618861 1.1779062 1.70315 2.173651
1.3768239 1.749774 0.9099381 1.9453963 1.7195268 1.4608442 0.9355597 1.060531
0.9585885 1.0763953 0.9480687 1.5733637 2.1313696 1.1370578 1.9938333 1.3290917
1.7996095 1.389185 1.7626262 0.83291644 0.968409 1.78562 1.2426236 2.5467725
0.8601835 1.7809765 2.7500386 2.0308592 1.9002635 1.0079267 1.2264833 1.890049
0.895908 2.0392559 2.037977 2.0433807 0.91812074 1.134854 1.1818988 0.9982323
1.0736048 0.7878624 1.3722733 2.4678812

Convs.3.0.weight f4 [200, 100, 1, 5]
00000000: 7280 c4bc be65 9a3c 0155 253d a806 d83c
00000010: 0763 2e3c bde9 0dbd cf0f bc3c 0dca 613c
00000020: a637 24bd 143f ac3c ed2f 693a f9f2 b1bb
00000030: 84a2 103d f6f7 813d 48d3 64bd e1b5 07bd
00000040: e997 003d 6f2e f53c c3c0 4fbc 45a8 a6bc
00000050: f634 493c 4a02 2bbd 281b 00bd 8ccf b23c
00000060: 168d a9bb 29e1 58bd 8c46 98bc 78be ab3a
00000070: ae10 963c e700 8c3c 9ee3 5abd 4e0b 96bd
00000080: e62a 12bd a3e6 ee3c 51f5 fd3c cf26 ef3c
00000090: 4ae2 893c 7fc3 8fbb e35a cdbc cfb1 96bc
000000a0: 71cb 3bbb deed 46bd c10b 2cbd 00d1 c73b
000000b0: 44e1 363c c9b1 4dbc 3cc1 2fbc 7630 313c
000000c0: 4249 1bbc 4113 653d 268b ed3c 8dbf 003c
000000d0: 153d 9bbb 516c 07bd 5851 28bd adf0 d03c
000000e0: 0ff7 69bd dfc4 abbc 4d9e ea3c 3ee4 063d
000000f0: 769c cebb 2829 6fbc a441 493d cbc4 2e3d
00000100: 7ea3 ac3c 1ec8 3bbd 0760 49bd 95e7 f33c
00000110: 4079 7e3c dfdc 6bbc 9511 1b3d 02e8 44bd
00000120: a4c7 2fbd c19f 443c 52fd 493d e252 19bd
00000130: 4e2d 183c 0a20 00bd 8a03 b5bb 2d25 143d
00000140: 6877 d93c ec60 6abc 5d2c 0d3d 6175 e2bb
00000150: 0f4d c0bc 5957 3abc c1c7 35bc 1d60 2abc
00000160: 44a7 30bd 3b94 0dbd 150e 32bd 7638 e9bc
00000170: 5372 7a3d 3dfc 1c3d 6bc0 ac3a 5772 333d
00000180: 20e9 dcbc 51ed 1fbc 824f e0bc f14c 8d3c
00000190: fa02 f33b 2bd2 1dbd 2359 473c c828 e73c
000001a0: cb9d aa3c 8a7c 633d f337 8f3c 0b58 9e3c
000001b0: bbfc d8b8 e6ac df3c ddd5 0a3d e101 8e3c
000001c0: 774a be3c 4563 273b 7e47 10bd 4d2d adbc
000001d0: eb4b d5bb 7876 8fbd 4e77 15bd 12b1 5a3c
000001e0: b9be 39bb 12ca 1f3d 5a63 8b3b a238 e8bc
000001f0: 4658 33bc e0c6 3abd 866f 74bb 2c0a 373c
00000200: cff4 4f3c fae5 853d 909f dd3c 7e5e b73c
00000210: 183d 03bd 16b0 903c d37a ff3c 98d1 1bbd
00000220: e4da 333a c976 e5bc 32cd 403d e19d c33c
00000230: d9b8 9fbc 8044 33bc 956c c73c bb82 06bd
00000240: 364d 1c3d a5b3 1b3d 6d9e 963c cd50 a23c
00000250: e8d8 c93b b692 d2bc b8bc 0a3d 9e3b 763b
00000260: 9715 05bd 8238 013d 1eb6 89bc 2497 5cbb
00000270: b249 24bd d59b b13c e5c3 19ba 5ed0 9dbc
00000280: 3afd c03c 3ccf 873c 30d0 bf3c b522 a1bc
00000290: 253a b1ba db5f 47bd 423f 55bd 87a2 f6bb
000002a0: 739f 993b 2fb4 1dbc 3f26 3c3d 11c0 e1bc
000002b0: 6d10 35bd 167b 9f3c 392f 833c 78a3 e6bc
000002c0: cde2 f2bc 8fe9 873c 4d6c 0cbd ed71 f4bc
000002d0: a28d 87bc 623a b3bc 5baa 1bbd 0829 b0bc
000002e0: 4d48 3b3c c68c ccbc ca40 ffbc 3700 2abd
000002f0: 0de6 27bd c94c 30bd 2df3 773c c77d 523c
00000300: 1051 b73c 7bfa 5abd 4243 113d afd1 903a
00000310: 15fc fd3c 26ed 86bc c8cd 853c 7263 41bd
00000320: 3bf8 1a3b 258f b83c 9733 05bd 6e99 5ebc
00000330: 3d5e 363b c737 ebbc 073a 21bc 5c47 08bd
00000340: c738 05bd fc1d b23c 002a 82bc 764f 02bd
00000350: c83d e639 c6d9 e7bc b83d debc f69a 0c39
00000360: 0bd0 4abd daef 033d 73ab 063d d823 a8bc
00000370: 3dab 293c a95d 483d 866d 833c 3f1a 51bc
00000380: 5b94 39bc 7f3d 03bd 44e1 27bd 8c95 553c
00000390: ce0a 883c 10f0 223d d846 28bd 0323 1dbd
000003a0: 50eb ebbc bcf6 43bc 1359 393d bf85 8e3d
000003b0: aa3e 103c 79dc 063c 84bd 05bc b281 15bd
000003c0: 11fd 7bbb b8f5 8dbb 6742 823c 4f22 8a3c
000003d0: 44a9 db3c c918 903b 9988 d0bc abb7 38bc
000003e0: 4a20 ce3c 2719 9b3c 0b95 e0bc d69c 143c
000003f0: 13cd fabc ab08 2f3d bf6a 4d3c 20de 4d3d
-0.023987029 0.018847343 0.04036427 0.026370361 0.010643727 -0.03464674 0.022956757 0.013781083
-0.040092133 0.021026172 0.0008895386 -0.005430576 0.035311237 0.06346123 -0.055865556 -0.033132438
0.031394873 0.029929368 -0.012680235 -0.020343909 0.012280693 -0.04175023 -0.0312759 0.021827482
-0.0051742895 -0.052949104 -0.018588327 0.0013103029 0.0183185 0.017090274 -0.05343973 -0.07326375
-0.035685442 0.02916271 0.031000765 0.02919331 0.016831536 -0.0043873186 -0.025067752 -0.018395333
-0.0028655196 -0.04856669 -0.042003397 0.006097913 0.011162106 -0.012554594 -0.010727223 0.010814777
-0.009477915 0.055926565 0.028997015 0.007858169 -0.004737506 -0.033062283 -0.0410932 0.025505388
-0.05712038 -0.020967899 0.028639937 0.032932512 -0.0063052727 -0.014597215 0.049134865 0.042668145
0.021074053 -0.045845143 -0.049163844 0.029773513 0.015531838 -0.0143959215 0.037858564 -0.048072822
-0.042915 0.012000979 0.04931385 -0.03743256 0.009288145 -0.031280555 -0.0055241035 0.036168266
0.026546195 -0.014305335 0.034466136 -0.0069109653 -0.023474244 -0.011373364 -0.011094988 -0.010398892
-0.043128267 -0.03456519 -0.04347046 -0.028469305 0.061144184 0.03832649 0.0013179904 0.043810215
-0.026966631 -0.0097611705 -0.027381662 0.017248603 0.0074161263 -0.03853051 0.012167248 0.028217688
0.020827195 0.05553869 0.017482733 0.019329092 -0.00010346757 0.027304124 0.033895362 0.01733488
0.023228867 0.0025541347 -0.03522443 -0.021139765 -0.0065092943 -0.07005018 -0.03649073 0.013347881
-0.002834244 0.03901107 0.004253787 -0.028347317 -0.010946339 -0.04559982 -0.0037297918 0.011171859
0.012692644 0.06538005 0.027053624 0.022383925 -0.032040685 0.01766209 0.031186497 -0.03804168
0.00068609254 -0.028010743 0.04707069 0.023878993 -0.019497322 -0.010941625 0.024343768 -0.032839518
0.03815957 0.03801312 0.01838609 0.01981392 0.0061598904 -0.025704723 0.033871382 0.0037572156
-0.032491293 0.03154803 -0.016810473 -0.0033659423 -0.040109344 0.021680752 -0.00058656774 -0.019264396
0.023558248 0.01657831 0.023414701 -0.01966987 -0.0013521357 -0.0486754 -0.05206228 -0.007526699
0.0046881973 -0.009625479 0.04593491 -0.027557405 -0.044205118 0.019467872 0.016013728 -0.02815412
-0.029649163 0.016590862 -0.03428297 -0.02983948 -0.016547028 -0.021878425 -0.03800426 -0.02150394
0.011430812 -0.02496947 -0.031158824 -0.04150411 -0.040990878 -0.043041978 0.015133661 0.0128473705
0.02237752 -0.053461533 0.035464533 0.0011048819 0.031003991 -0.016470503 0.016333476 -0.04721398
0.0023646492 0.022529194 -0.032519903 -0.013586385 0.0027827166 -0.02871312 -0.009840495 -0.03327118
-0.03252485 0.021742813 -0.015889168 -0.03181406 0.0004391505 -0.028302085 -0.02712904 0.00013409168
-0.04951481 0.032211162 0.03287835 -0.020524904 0.010355768 0.048917446 0.016043436 -0.012762605
-0.011326875 -0.03204107 -0.040986314 0.013036143 0.016606715 0.039779723 -0.041083187 -0.038363468
-0.02879873 -0.0119606815 0.045250963 0.06959104 0.008804003 0.008231276 -0.00816286 -0.03650064
-0.00384504 -0.0043322705 0.015900804 0.016862063 0.02681411 0.004397486 -0.02545576 -0.011274259
0.025161881 0.018932892 -0.02741482 0.009070596 -0.030615365 0.042732876 0.012537657 0.050260663
