lab2/models/EEGNet_ELU.pth (torch, 20777 bytes, 17 tensors)

firstConv.0.weight f4 [16, 1, 1, 51]
00000000: 70b3 5d3d 5745 a03c 9f81 10be 88d1 a1bd
00000010: d8aa 633d edd5 1e3e 52cb e53d ed5a cbbd
00000020: 4ba8 22be 478f ddbc 29f6 be3d ec4d 093e
00000030: b4db 3c3d 17f0 d1bd c1c7 30be 4dbd e1bc
00000040: eb78 633e a936 6f3c c35c 59bd 00f8 bcbd
00000050: ef96 3abd 34a4 813d cbf5 953d 48f2 2a3d
00000060: 36d3 cabc bb90 fdbc 07f1 d6bc 4d67 c1bc
00000070: a42c 62bc 51cf 283c 8071 c73d c961 95bd
00000080: e33b 9ebc 8566 e93c f08e 43bc b246 70bc
00000090: 1894 9b3d 271c 93bd a8fb 323c e954 71ba
000000a0: 7ee7 873d 6e67 a23c 3216 6cbd d7e0 42bd
000000b0: 1944 26bd 31fd 853d 34f2 163d ccfc 80bd
000000c0: 4641 603d e9b1 46bd 7334 223d 1569 e9bd
000000d0: ad59 07be f095 17be d592 d4bd dba1 83bc
000000e0: 42d8 f9bc fd86 7dbd cee2 1dbd 005f 1dbe
000000f0: 4eab bdbd 1e01 7cbc f9b2 efbd 0f22 cfbd
00000100: b90a d9bd cf37 afba d7d7 c3bd b870 e7bd
00000110: 76ad 223c 6a39 14be 52f2 e8bd f15f 53bd
00000120: 123f 923d ac36 a73c 9436 e4bd cb3e dd3d
00000130: 385c 96bd 4688 d83d c7f0 f53c fa68 3b3b
00000140: 36b5 b23d 9193 2a3d 72e4 0abe aec5 653d
00000150: 8a99 f83d 59fa b5bd e524 7d3d 5ea8 9f3d
00000160: 91a5 58bd 1fb8 0ebc ae38 b8bc 8ada fc3d
00000170: cd2f 9e3d 496a 193e 0bc3 50bd df79 a83c
00000180: 29a9 20bd 1c64 9e3d 5c5a 06bd e27b 253d
00000190: d74e 683d b3e5 7fbd bacc 07bd b6f8 bcbd
000001a0: 631e 05bc 32b4 ed3b e815 ae3d e4c4 603d
000001b0: cec8 633d 8c70 de3d e253 ea3d 53c1 a6bc
000001c0: 8e13 d53d 03c2 8cbd 7301 7e3d b75e 473a
000001d0: 3c9e a53d 42c1 22be a545 833d 560c cdbd
000001e0: 8561 12bd e368 63bd b4a9 86bd 60ec 9ebd
000001f0: c4b3 e0bd 9c84 f5bd bf64 44bd 6bbc 993d
00000200: ec55 94bd e8fe dabd cd44 1bbd 7949 a4bd
00000210: 29af 103d 7e3a 1f3e 9e50 aebd 4dc7 ec3d
00000220: 171c 103e 01cc 0f3e 5e33 0fbd ae2b 3d3d
00000230: 1caa f03d 8007 98bd d9fd 0d3e 485f 953c
00000240: c8e6 93bd 1c99 453b 5ac8 c93c 0da4 42bd
00000250: 8a63 4fbd 8c37 a3bc 336e e53c 07bf 473d
00000260: cf79 13be 1a08 203d 5e54 873d c502 0c3e
00000270: 33f3 b53d cc8f e23d b79e 823d 5e21 b73c
00000280: 332d 2cbd d3a8 d5bc a385 7f3d 721b 08bd
00000290: 8b70 bf3d 467c 21be be04 28ba 1c98 ceba
000002a0: 4f80 2b3d 6813 de3d 8cce 16bd a06a 173e
000002b0: 50c3 6bbd 8401 003c 7aca 6f3d 681a 3e3e
000002c0: 369b ee3c 4de6 91bd fdb3 cabd 4641 b33c
000002d0: e4b3 083d 9c8e 813d 7d2d 39bb 428d a03d
000002e0: 7773 1b3d fda2 a6bc cf88 a33d 54ef e2bd
000002f0: e82c cbbd c2a6 743b 8e34 7fbd b662 87bc
00000300: 1c21 83bd b8fe 803d 32f0 f63d 2da3 e93d
00000310: 32bf 3c3d a10e 94bd 5de6 0bbd 85f1 36bd
00000320: ea2b 2c3b 03f9 86bc 6f10 2a3e 5c08 c4bc
00000330: 242c 8c3d 9b5f f23d a125 0dbe 0b94 7ebd
00000340: 2670 883d b62b e1bb 2012 e3bc 9bd3 a03d
00000350: 4dd7 ebbd b8ec f93d cee5 003e 5c94 923b
00000360: 9b77 debc ba04 11be abfb 433b 3060 66bd
00000370: 710a 073d 0f4d eb3d 2d0a 3bbd 3337 393b
00000380: e687 7c3d c6f4 153e c207 963c 1d16 24be
00000390: 7094 35be 3924 6e3d 80fd ba3d 25cb e03d
000003a0: e474 fdbd 6c3a f63d 6e2f 3ebc b933 883d
000003b0: 1e34 c73d 5a85 10be 75d3 2bbe 3dd3 a73d
000003c0: 8119 cfbd c89f 993d 58f8 2f3d 1d06 413d
000003d0: 1d31 55bc 3be5 87bc 0791 463d 24b9 923a
000003e0: c47b e6bd ed89 4d3d 7659 6bbd 898d 0a3e
000003f0: d60f 9dbc 6886 a63c 2268 85bd 9a37 8e3d
0.054126203 0.019564314 -0.14111947 -0.07901293 0.05558285 0.15511294 0.11220421 -0.09929452
-0.15884511 -0.027045859 0.09324295 0.13408631 0.046107963 -0.10250872 -0.172637 -0.027556086
0.22214095 0.014600434 -0.05306698 -0.0922699 -0.045554098 0.063301474 0.07322272 0.041734964
-0.024758916 -0.030952802 -0.026237978 -0.023608828 -0.0138045885 0.010303334 0.09738445 -0.07294042
-0.019315666 0.028491268 -0.011935934 -0.014665293 0.07596606 -0.07183104 0.010924257 -0.0009206073
0.066359505 0.01982471 -0.057638355 -0.047577705 -0.040592287 0.06542433 0.036852077 -0.06298217
0.05474975 -0.048509512 0.0396008 -0.11396996 -0.13217802 -0.1480329 -0.103795685 -0.01606839
-0.030498628 -0.061896313 -0.038546376 -0.15368271 -0.092611894 -0.015381126 -0.11704058 -0.10113918
-0.10597748 -0.0013368073 -0.095626526 -0.11300796 0.009929052 -0.14475027 -0.11374344 -0.05160517
0.07140936 0.020411812 -0.111432225 0.108029924 -0.07341808 0.10572867 0.030022038 0.0028596506
0.087259695 0.041644637 -0.13563707 0.056096725 0.1213866 -0.08885641 0.061802763 0.07795785
-0.05289227 -0.00871089 -0.022487964 0.123463705 0.07723961 0.14981951 -0.050967257 0.020565925
-0.039223824 0.07733938 -0.032801017 0.040401347 0.056715813 -0.062474918 -0.033154227 -0.09227125
-0.008124921 0.007254147 0.08500272 0.05487527 0.055611424 0.1086131 0.114417806 -0.020355856
0.104041204 -0.06872942 0.0620131 0.0007605361 0.080868214 -0.15894035 0.06409768 -0.100121185
-0.035737533 -0.05551995 -0.06575337 -0.07759929 -0.109717876 -0.11988184 -0.04794764 0.07506641
-0.07242951 -0.10693151 -0.03790741 -0.08021826 0.035323296 0.15549657 -0.0851147 0.11561451
0.14073215 0.14042665 -0.034961097 0.046184234 0.11751196 -0.074233055 0.13866366 0.01823391
-0.072217524 0.0030151075 0.024631668 -0.047519732 -0.050632037 -0.019923948 0.028006649 0.048766162
-0.14401935 0.039070226 0.06607889 0.13672931 0.08884277 0.11062583 0.06377929 0.022354778
-0.042035293 -0.026081478 0.062383305 -0.0332293 0.09347638 -0.15770063 -0.0006409398 -0.0015761885
0.04187041 0.10843545 -0.036818072 0.14786768 -0.05755931 0.007812861 0.058542706 0.1856476
0.029126745 -0.071240045 -0.09897611 0.02188171 0.033374682 0.06326029 -0.0028255873 0.07839443
0.037951913 -0.02034139 0.079850785 -0.110808045 -0.099206746 0.003733084 -0.06230598 -0.016526561
-0.064027995 0.06298584 0.12057532 0.114080764 0.046080776 -0.07229353 -0.03415524 -0.044663925
0.0026271292 -0.01647616 0.16607831 -0.023929767 0.06844357 0.118346415 -0.13783886 -0.062152904
0.066620156 -0.006871666 -0.027718604 0.078528605 -0.11515675 0.12203354 0.12587664 0.004473252
-0.027156642 -0.1416196 0.0029904644 -0.056244075 0.032968942 0.11489307 -0.045664 0.002826166
0.06165304 0.14644155 0.018314246 -0.1602406 -0.17732406 0.058140013 0.091303825 0.10976247
-0.12375811 0.12022862 -0.011607988 0.0665049 0.097267374 -0.1411337 -0.16779883 0.081945874
-0.10112286 0.07501179 0.04296145 0.04712497 -0.013012198 -0.016588798 0.048478153 0.0011194092
-0.11254075 0.050180364 -0.057458363 0.13530554 -0.01917259 0.020327762 -0.065140024 0.06944199

firstConv.1.weight f4 [16]
00000000: c432 b73f e93f 913f 3fa9 9a3f d343 863f
00000010: 2bea a03f 08ba 953f 0098 933f 3a8c 973f
00000020: 30a0 b33f 728b 9d3f ca70 7c3f 5d18 8f3f
00000030: 8b41 a93f 534a 913f 90b6 a93f 6c39 9f3f
1.4312367 1.1347629 1.20829 1.0489448 1.2571462 1.1697397 1.1530762 1.1839669
1.403326 1.230818 0.986096 1.117931 1.3223127 1.1350807 1.3258839 1.2439399

firstConv.1.bias f4 [16]
00000000: 64a2 1cbb ed62 9fbb 79a3 973b 7b0b f23a
00000010: 6597 c339 5559 ed3b 4e60 04ba 89f4 253a
00000020: 9cf6 b9ba 08f9 2f3b 9643 033b 888c 53bb
00000030: dbfd 8d3b 049a fe3a 9a92 1e3a 8a61 6f3b
-0.0023900503 -0.004864088 0.0046276418 0.0018466556 0.00037306096 0.007243315 -0.0005049751 0.0006330689
-0.0014187875 0.0026851315 0.0020029298 -0.0032279808 0.0043332404 0.0019424562 0.0006049067 0.0036526644

firstConv.1.running_mean f4 [16]
00000000: 9e49 caba 36b4 bd3c 3867 5cbb a781 09bd
00000010: 95c4 c5bb 8257 98bc 7e2d d03c d573 79bb
00000020: ce6e 173d f8b8 853d 64cf 283d 55f7 853c
00000030: 4a94 c33a d7ff fcbc 84c0 8bbd 75a5 40bd
-0.0015433317 0.02315722 -0.003363086 -0.03357091 -0.0060353973 -0.018596414 0.025412317 -0.0038063426
0.036970906 0.065294206 0.041213408 0.016353289 0.0014921513 -0.030883713 -0.06823829 -0.047032792

firstConv.1.running_var f4 [16]
00000000: b512 3b40 c559 6342 c00e 2541 6b2e b741
00000010: 403c 9940 4a06 2041 5903 5241 1646 7141
00000020: 6ac3 a741 887b 8f42 5c02 ed41 dbf1 cf40
00000030: 7438 d43f 0fe3 8f41 94dc 5642 0ced af41
2.9230168 56.837666 10.316101 22.897665 4.7886047 10.001535 13.125817 15.079611
20.970417 71.74127 29.626152 6.4982734 1.6579728 17.985868 53.71541 21.990746

depthwiseConv.0.weight f4 [32, 1, 2, 1]
00000000: f38b 0fbf ad8b 893e 8653 c7bd 5214 9f3e
00000010: 57b2 09bf 437e 143d 8335 1a3f 4c26 ef3c
00000020: f6cb c5be 2b3a 9f3e 19c3 033f f585 c3be
00000030: 2049 14be c620 c63e d002 e03e 3ea9 8d3e
00000040: b2fb ebbb 49ef 1c3f c840 e53e 8db1 52bf
00000050: 3828 043f 6053 f03e 767e da3e 4777 7c3e
00000060: 2387 703e 08ce 0a3f 826c ecbd 0ecf 113f
00000070: 0550 bfbd 6e6f c73e 1f0f ce3e 3e1c 0ebe
00000080: dd73 9c3e 63a4 283f e2c0 8a3e e458 83be
00000090: 195d adbe c2c7 e63e d538 cb3e 0b32 27bf
000000a0: 5aed 8ebb 0164 a3bc 08de 3dbe 7983 c23e
000000b0: 6781 213f f993 61be ac3d 0e3e b982 283f
000000c0: 5641 83bd 3154 b83e 709a 1f3f a343 e1bd
000000d0: b6d3 10bf 4f6a 36bf cf9a 0a3f 1cb6 febe
000000e0: cd5f 3d3f 9e10 cdba 693c 02bf c532 3a3f
000000f0: be5a 0e3f 3fe0 3fbe f424 80bd f577 e3be
-0.5607292 0.26864377 -0.09732728 0.3107019 -0.5378775 0.036253225 0.602379 0.029193066
-0.38632172 0.31099066 0.5146957 -0.3818814 -0.1448102 0.3869688 0.43752146 0.27668184
-0.0072016353 0.6130262 0.44775987 -0.8230217 0.5162387 0.4693861 0.42674607 0.24654876
0.2348905 0.5422063 -0.11544134 0.56956565 -0.093414344 0.38952202 0.4024591 -0.13877961
0.30557147 0.65875834 0.27100283 -0.25653756 -0.3386009 0.45074278 0.39691797 -0.65310735
-0.0043617906 -0.019945147 -0.1854173 0.3799093 0.6308808 -0.22029103 0.13890713 0.65824467
-0.06408946 0.36001733 0.6234503 -0.10999229 -0.56573045 -0.71255964 0.5414247 -0.49748313
0.73974305 -0.0015645211 -0.5087343 0.7273372 0.5560721 -0.18737887 -0.06257048 -0.44427457

depthwiseConv.1.weight f4 [32]
00000000: 5771 733f ae54 b63f 4abc 903f faf3 7b3f
00000010: 3b77 8f3f d4af 853f ac12 843f f215 853f
00000020: 5a37 873f cea3 913f 6992 933f 68c2 8e3f
00000030: a025 7d3f 39c8 953f 1f52 8e3f 01d2 843f
00000040: 1334 5a3f 669b ba3f 3134 883f 15ae 9e3f
00000050: 5f10 7d3f 2dd4 933f e275 843f 9be4 8c3f
00000060: 6b55 a33f ae38 843f 2e80 6d3f 598b 913f
00000070: fea6 653f 643f b53f 327a 7e3f 8e46 953f
0.9509482 1.4244592 1.1307461 0.98419154 1.1208261 1.0444283 1.0318198 1.0397322
1.0563767 1.1378114 1.1529056 1.1153078 0.98885536 1.1701728 1.1118811 1.0376588
0.8523571 1.4578674 1.0640928 1.2396876 0.98853105 1.1549126 1.0348475 1.1007265
1.2760442 1.0329797 0.9277371 1.137065 0.89707935 1.415997 0.99405205 1.1662157

depthwiseConv.1.bias f4 [32]
00000000: 5acb fcbd 1f34 c2be a5b3 8dbd 6c2b 96bd
00000010: 9ab1 33be c973 68be 4b8f 9fbd 853b 35be
00000020: ec0d 84be 2aba e2bd 455a 87be 010b 80be
00000030: 2394 5bbe faad 14bb 302e 57be 3e69 31be
00000040: 7f93 b5bd bca0 2fba ce43 90bd d9e2 cdbc
00000050: 2c27 c8bd f9f3 8cbe 3398 cabd 0d51 74be
00000060: 96e0 81be 6f41 41be 72b3 b9bd 0885 22be
00000070: b8da 99bd 3879 b1bd eda5 d1bd 4ae5 58be
-0.12343474 -0.3793039 -0.0691903 -0.07332501 -0.17548218 -0.22700419 -0.07791003 -0.17698486
-0.25791872 -0.11070664 -0.26436058 -0.25008395 -0.21443228 -0.0022686706 -0.21013713 -0.17325303
-0.08866023 -0.00066996715 -0.07044183 -0.025132583 -0.097730964 -0.27529886 -0.09892311 -0.23859043
-0.25366658 -0.18872617 -0.090674296 -0.1587106 -0.075124204 -0.08665699 -0.10236726 -0.21181217

depthwiseConv.1.running_mean f4 [32]
00000000: bf3e 0a3a 3557 12ba 82d5 7d3b b700 93bb
00000010: 140f b5b9 8dc8 1e3a e74f 98ba 1ede ed3a
00000020: da0e 47ba 62a4 f73a 1a6f ea3b e47e a73b
00000030: 5074 c139 85a0 bd3a 7975 0b39 8236 bb39
00000040: a87a cdb7 4b13 02bb 0708 653b 38a9 a1bb
00000050: 82e2 beb8 62a8 fa3a 85d2 4fbb 5fd1 b9ba
00000060: d736 b53a 38a0 fd3a fe98 16bb 4c04 b33a
00000070: 1162 6c3b edc0 a7bb 2798 4e3b dc5d 6aba
0.0005273632 -0.0005582453 0.0038731997 -0.004486169 -0.00034534244 0.0006057106 -0.0011620492 0.0018147861
-0.00075934606 0.0018893594 0.0071543576 0.005111562 0.00036898488 0.0014467394 0.00013299835 0.0003570803
-2.449502e-05 -0.0019847925 0.0034947412 -0.0049335025 -9.1020964e-05 0.0019123668 -0.0031711173 -0.0014176777
0.0013825548 0.0019350117 -0.0022979374 0.0013657897 0.0036069194 -0.005119434 0.0031523795 -0.0008940378

depthwiseConv.1.running_var f4 [32]
00000000: 3893 083f 6b47 293e 796f ab3e e62e fc3e
00000010: 988a f83d 44e5 573e ef28 e43d 9d8d eb3e
00000020: fdc3 1b3f c58e 453f cc37 8a3f a2c4 023f
00000030: bb8d 2e3f 0132 af3e c8ad 293e 61e2 0a3e
00000040: 2749 c73f 17bd c83d f31a 553e 6240 d93e
00000050: f07d 063a 8b7c bb3d cedd af3e aa81 323f
00000060: db3f 523e bbe5 163f 22ee e43f 9409 5b3e
00000070: c7e3 713f b489 1a3f 8f69 a43e 744c bd3e
0.5334964 0.1653115 0.33483484 0.4925453 0.1213581 0.21083552 0.1114062 0.4600648
0.6084593 0.77170974 1.0798278 0.5108129 0.68185014 0.34217837 0.16570199 0.13562919
1.5569199 0.09801691 0.20811062 0.42431933 0.00051304605 0.09154614 0.3434891 0.697291
0.20532171 0.5894429 1.7885172 0.21390373 0.94488186 0.6036637 0.32111785 0.36972392

separableConv.0.weight f4 [32, 2, 1, 15]
00000000: b922 a9bd 7e65 df3c 9872 1fbc 8342 d3bc
00000010: 8374 d0ba 29cb d53d 2656 f03d bb09 a23d
00000020: a9a6 1abd 7d3e 303c 8352 763d 40cc 0b3e
00000030: 28e6 493d fdfb bebd ba80 d63d a9c0 4cbe
00000040: 873c 21be 79a1 b2bd f3a7 aabd eb17 07bd
00000050: 588c 8ebc d061 08be e62a 31bd b8c5 21be
00000060: 6469 ebbd 2b53 b9bd bf38 2ebd 2674 5bbd
00000070: 87d3 5cbd 0354 c7bd 25e1 0b3e 1e7f bc3d
00000080: ffac c4bd 6b7c 8c3d 7583 bd3d 105b babd
00000090: 1571 fabd a26b ab3d 4eea b03b 8b5e 173d
000000a0: 025d 8a3d 94d5 46bd f451 9abd 8b8f bf3d
000000b0: 2f8b 1abd 1c8a cabc 41be 8f3d 0cba ae3d
000000c0: 5640 07be 2cc2 d43d 230e eb3d 0160 58bd
000000d0: b515 0f3e 8da5 fe3d 0183 433e 3769 083e
000000e0: 7aef dd3d 17ea 223e 874c 3abd cc7a b23d
000000f0: 202f 62bd 8059 12bd 42ef b3bd 012e 0bbe
00000100: 06e5 03be 7342 363d e1ce b7bd 4c4a 8e3d
00000110: ad3a e0bd c634 67be 8dfd 2cbe e597 c4bd
00000120: a452 27be 5d64 02be f122 313d 6187 6a3d
00000130: fb8c 4dbc f796 0bbe 8a0d 02be 7b61 28bc
00000140: 72ee 13be 929a 4f3d 73dc bd3b ce53 093d
00000150: 75eb 0cbc 4174 cb3d 47a4 a4bd 9239 f8bd
00000160: c3b9 21bd c89e b33d 7ef1 b6bd 7d40 953d
00000170: a478 453e fb3a 1d3e a4c3 d73d 4330 99bd
00000180: e5c1 103d d4e3 3dbd 8d78 993d 8153 833d
00000190: 23cf a23c 5248 213d 378e 9e3d b7c9 8f3d
000001a0: 32a7 9b3b 7dc3 10be 272d 373d 21bd 7c3c
000001b0: 7857 e63d 355f 043e 765f c4bd 02d1 b43c
000001c0: a350 92bd 5700 6c3e 298f 913d 15c1 adbd
000001d0: cc20 2f3e d172 d73d 095c 6bbd 496b 6e3d
000001e0: 41b1 1dbd 99ab 99bd fce9 d1bc d8c9 93bd
000001f0: 9506 47bd 2a58 633d d6e5 35bc bab8 ed3d
00000200: 915e 053e 4a7b d5bd c4a7 be3d c16e b63d
00000210: cbed 043e 808c 6a3d 01ec 4e3d a5a8 a7bb
00000220: d204 e7bd 2632 733d e1b0 9dbd 750f 7bbc
00000230: c1c8 523d 58d5 2cbd cd90 703c 586e 553e
00000240: db5a 113e 992c 003d aaab 3b3c fb78 b9bd
00000250: bb96 de3c 7963 fa3d b1bf 3ebd 9743 583d
00000260: 7b79 113e 8bf5 09bd 34a4 fcbd 08ef 043e
00000270: 59a0 c53d 2fea bcbc fa72 e8bd 8092 923d
00000280: d2f2 c73c 90e9 4fbe 80dc 663c 51e2 9e3d
00000290: 5cd0 5e3c 0187 56bd a7da 553e c520 27be
000002a0: 822e cb3d e88a ce3d 13d4 4fbd 14f5 20be
000002b0: e05e 1e3e 7ebb 7d3d 4175 2cbe 4b91 af3c
000002c0: ef3f f6ba 9965 14bd b34c 8abc d01d 3d3e
000002d0: 00fb 17bc 01f0 203e f9ac 3abe 9e4d 28bd
000002e0: 55e3 ce3c f96e c0bd 7689 4ebc a1c3 0b39
000002f0: 6a5b db3d d158 73bd fef7 0abd 0424 973d
00000300: 74c8 c6bd 9681 fc3d 1580 0e3e efb1 3cbd
00000310: daf5 613d 930d 21bd af48 163e c1e2 a7bc
00000320: 2d7f 08bd bc2e 033e ff74 893d f7e0 253e
00000330: 23a0 61bc 9d90 8cbd cb4a 933d b714 4d3e
00000340: 8d13 533e 31cf 6abd bb4c 513e a2c9 93bd
00000350: 1df4 283e 6a3e 8c3c 38e2 80bd 6cd6 1d3c
00000360: 6dcd 1f3e c334 063e 88b3 d3bd 503d 1f3d
00000370: 4115 c93d 292f a4bc f364 5a3c 5719 473e
00000380: df25 e2bc bb89 013e 1cb6 26be 7e29 c6bd
00000390: 4362 dc3c 3a7d c8bd bf2c 24be a1a6 9dba
000003a0: e36a bcbd 4da7 413d 7b5f c43d 8d8b f4bd
000003b0: dbeb 993d d6f1 573d 2560 913d b3f2 0cbe
000003c0: 66dc 85bd d29c d23c 5e21 073e a9b3 183e
000003d0: 891d 3fbd a213 653e ebf2 513e d367 493d
000003e0: 6915 eb3d d3b2 993d 72ac adbd 9720 0abe
000003f0: ae95 013e e30c 053e 793f 233d 76c3 11be
-0.08258576 0.027270075 -0.009731911 -0.025788551 -0.0015903864 0.1043914 0.117351815 0.07912012
-0.037756596 0.010757086 0.060137283 0.13652134 0.04929176 -0.09325407 0.104737714 -0.19995369
-0.15745746 -0.08722205 -0.08332815 -0.032981794 -0.017400905 -0.13318563 -0.0432538 -0.1579808
-0.11494711 -0.09049066 -0.042534586 -0.053577565 -0.053912666 -0.09732821 0.13660105 0.09203933
-0.09603309 0.06859668 0.09253589 -0.090994 -0.122286 0.08370139 0.005399025 0.036955398
0.06756021 -0.048543528 -0.075351626 0.093535505 -0.037730392 -0.024724059 0.0701871 0.085315794
-0.13208136 0.10388598 0.11477306 -0.05282593 0.13973124 0.1243392 0.19092943 0.13321386
0.10836692 0.1590961 -0.04548314 0.08714828 -0.055220723 -0.035729885 -0.08785869 -0.13591768
-0.12880334 0.044496965 -0.08975006 0.06947765 -0.109486915 -0.22578725 -0.16893597 -0.09599284
-0.16340119 -0.12733598 0.043246213 0.057258014 -0.012545819 -0.13631807 -0.12700477 -0.010277147
-0.14446428 0.05068452 0.005794102 0.033527188 -0.008601059 0.09934283 -0.08039146 -0.12120356
-0.039483797 0.087705195 -0.0893278 0.07287691 0.19284302 0.1535453 0.10535362 -0.07479908
0.035341162 -0.046359852 0.07493696 0.064124115 0.019874161 0.03937561 0.07741969 0.07020896
0.004750156 -0.14137073 0.044720795 0.015425951 0.11247152 0.12926944 -0.0958852 0.022072319
-0.071442865 0.23047005 0.07107384 -0.08484093 0.17102355 0.10519946 -0.05746082 0.058207784
-0.03849912 -0.07503433 -0.025624268 -0.07216233 -0.04859026 0.055504 -0.01110216 0.116074994
0.13024355 -0.10423906 0.093093425 0.089078434 0.12981336 0.057262897 0.05051804 -0.0051165395
-0.11280216 0.059373997 -0.076997526 -0.015323509 0.051460985 -0.042195648 0.014682961 0.20842874
0.14194815 0.03129253 0.011454502 -0.09056278 0.027171483 0.12226004 -0.04656953 0.052798834
0.14206497 -0.033681434 -0.12336007 0.12981808 0.096497245 -0.023060886 -0.11350055 0.07156849
0.024407778 -0.20303941 0.014090657 0.0775801 0.013599481 -0.052374844 0.2088419 -0.16321094
0.0992098 0.10085088 -0.05073936 -0.1571849 0.1546588 0.061946385 -0.16841604 0.021431586
-0.0018787364 -0.036229704 -0.016882276 0.18468404 -0.009276152 0.15716554 -0.18230046 -0.041089647
0.025254885 -0.09396166 -0.012606015 0.0001332895 0.10710795 -0.059410874 -0.03392791 0.07379916
-0.09706202 0.12329404 0.13916047 -0.04606813 0.055166103 -0.039319586 0.14676164 -0.020493867
-0.03332441 0.12810796 0.06711768 0.16199099 -0.01377109 -0.0686352 0.07192 0.20027433
0.20612927 -0.0573265 0.20439427 -0.07216193 0.16499372 0.017119605 -0.06293148 0.009633642
0.15605707 0.13106064 -0.10336977 0.03887683 0.09818507 -0.020042019 0.013329732 0.1944326
-0.027605949 0.12650196 -0.16280407 -0.09675883 0.026902324 -0.0978951 -0.16032694 -0.0012027809
-0.092000745 0.04727869 0.09588524 -0.1194068 0.07515689 0.052720867 0.07098416 -0.13764457
-0.06536178 0.025709543 0.13196322 0.14912285 -0.046659026 0.2237077 0.20502822 0.04917128
0.11478693 0.07504811 -0.08480157 -0.13488995 0.12654755 0.12993197 0.039855454 -0.14234719

separableConv.1.weight f4 [32]
00000000: bd4d 993f 6aa6 993f 721a 8f3f b810 893f
00000010: 27c2 993f 9bf8 9a3f 9ca6 8d3f 3f4e 8b3f
00000020: ffbe 913f 6553 a33f 9eb8 803f bcb3 953f
00000030: 7bdc 9f3f 9a8a 9c3f 427d 923f 6cbe 963f
00000040: dfcb 953f 83d3 9a3f fd15 973f 2943 983f
00000050: 6944 993f b9ff 9a3f 553a 873f cbe4 8e3f
00000060: 1fdc a33f f0a5 9d3f 6412 8f3f 3038 913f
00000070: 6191 9c3f 6f9e 8b3f 087e 923f de23 903f
1.1976849 1.200391 1.1179945 1.0708227 1.2012376 1.2107118 1.106647 1.0883254
1.1386412 1.2759825 1.0056341 1.1695476 1.248916 1.2229798 1.1444476 1.1776862
1.1702842 1.2095798 1.1803585 1.1895496 1.1974002 1.210929 1.0564677 1.1163572
1.2801551 1.2316265 1.1177487 1.1345272 1.2231866 1.0907725 1.1444712 1.1260946

separableConv.1.bias f4 [32]
00000000: f89e 61bd 9502 87bc cd43 cfbc eb65 db39
00000010: 6471 acbc 960b 24bd 765c 8abd d600 933c
00000020: b996 5c3c 2e35 81bd 9de1 2abc 458e 4ebd
00000030: ee1b 7cbc 0d28 64bd 1082 3ebc 07f7 99bb
00000040: 13c1 f9bc 322f f0bc 5397 a6bc 7f6b c73b
00000050: db74 14be 4c7d 31bc 44df 12bd 5274 28bd
00000060: 6166 1fbd bc5c 8aba 3fdf efbc 98d9 6dbc
00000070: 4d99 013c 760e e7bc 07e2 55bc 9c02 efbb
-0.055083245 -0.016480723 -0.025300885 0.0004184687 -0.021050163 -0.04005011 -0.06755917 0.017944735
0.013463669 -0.06308971 -0.010429767 -0.050428648 -0.015387518 -0.055702258 -0.011627689 -0.0046986374
-0.030487573 -0.02931938 -0.020335829 0.0060858126 -0.14497702 -0.010833096 -0.035857454 -0.041126557
-0.038915996 -0.0010556201 -0.029281257 -0.01451721 0.007910085 -0.028205138 -0.013054377 -0.0072940122

separableConv.1.running_mean f4 [32]
00000000: c6cf 823c f84a 633c 4931 2bbe a85f ef3d
00000010: 22cf 773c 394f 0c3b 6dc4 be3c a100 643d
00000020: b8ec bb3c f327 03be e7ee aebb 40af 9e3b
00000030: 46d8 1dbc 4b40 84be e49f ddbb a408 24bc
00000040: a215 8fbd 5638 2cbe 63cd 05be ae9f 86be
00000050: d868 07bd c169 55bc bbbd b53d 2bc7 65bd
00000060: db25 f7bc 44e8 29bd 679b 983c 258c 7c3d
00000070: 214c f2bd 3e25 393e 1c2e cd3c 6395 cc3c
0.015968215 0.013872854 -0.1671802 0.11688167 0.015125068 0.0021409525 0.023287022 0.055664662
0.022940025 -0.12808208 -0.005338538 0.004842669 -0.009634083 -0.25830302 -0.006763445 -0.010011826
-0.06986548 -0.16818365 -0.1306663 -0.262937 -0.03305897 -0.013025702 0.08874079 -0.056098145
-0.030169418 -0.04148127 0.01862879 0.06165709 -0.11830927 0.18080613 0.0250464 0.024973577

separableConv.1.running_var f4 [32]
00000000: 4921 ba3d 32a3 fc3d 2d50 ed3e 418b 483e
00000010: af94 2f3e 9ba6 5c3e 4311 7e3e 1bc9 7c3e
00000020: 6aff 003e cbea 513e 6e62 7f3e ed79 4a3e
00000030: e9e8 6d3e a7ff 3c3f cde5 7b3e 40bb ea3d
00000040: fbec 053f 77e6 3d3f 7b08 153f 38af 583f
00000050: 34bc 0b3f 48fa c93e f3e8 803e 2fb1 a53e
00000060: c997 a83d b066 df3d 1c32 a23e ef65 9d3e
00000070: 63a7 143f b13b b03f cd68 0b3f fb0c 1d3e
0.0908838 0.123358145 0.46350232 0.19584371 0.17146562 0.2154793 0.24811272 0.2468609
0.12597433 0.20499723 0.24939892 0.19773073 0.2323338 0.73827595 0.24599381 0.11461496
0.5231473 0.74179786 0.58216065 0.8464236 0.5458405 0.39448762 0.25177726 0.32361743
0.08232076 0.10908258 0.31678855 0.30741832 0.5806791 1.3768216 0.5445679 0.15336983

classify.0.weight f4 [2, 736]
00000000: 2bee 0c3e 43ff 053e 6d70 e03d 5afd 28bd
00000010: 5e2a a7bd 010e a4bd 4a51 9dbd 2fa8 a8bd
00000020: 27d2 97bd e0e1 adbd a31b 05bd feb6 1b3d
00000030: 765a c3bd 7034 15ba 5027 6b3d 2c41 58bd
00000040: 41e7 b5bd 2bd3 10bc b3db 7e3c af03 ae3b
00000050: a649 5dbd 4da8 e1bc 00ee 1cba 8864 4fbc
00000060: 2d0f 50bd 2145 cabd c27a 853d 9821 053e
00000070: 7da8 2a3e e9a2 c33d 2cc6 af3d 42f2 373e
00000080: fdfc 9b3d 8c35 9ebc 6d10 14bc 0cd3 9d3d
00000090: 77e4 54bc fec6 a3bc 7bf3 6e3d 00cf 863c
000000a0: fb55 2ebd afbc 5d3c 6f65 013d c263 d43d
000000b0: caa4 913c 87e6 d03c 8fc7 8f3d 9f19 2d3c
000000c0: fa56 593d 9859 3d3d 39ed 843b 0a4b 2a3d
000000d0: 0ee9 8d3c adcb 923c babd 313c 57fb ba3c
000000e0: c4bd 05bb 84f4 9fbc 7566 b63b 447d be3b
000000f0: e1dc 7fbd 3986 aabd c863 47bd 5e5e d23c
00000100: 59e3 423b 7761 f33c 1090 9ebb 4c3e 9b3c
00000110: 170a 49bd 3f56 7f3d 11b5 9dbc 28a3 f13c
00000120: 2ebc 7cbd 4fb2 07bc 2d5c 3dbd 3328 02bd
00000130: dc10 b4bd 6b5d 4abc 738e 393c cf0c 21bd
00000140: 6574 b13c cc47 f1bc 9a8f d73c d183 423c
00000150: 427e 193a 2c2d 4e3c 8f35 58bc b9c7 303c
00000160: b37d 3839 55ba 45bd dd93 4fbd 3f08 04bd
00000170: 2fe4 253d 8f02 e8bd 016f 4fbd 9364 783d
00000180: 208f f0bd e8b6 5ebc 0819 32bd dc44 8fbc
00000190: 7747 d13d 4acd 13be 84b1 5e3d d68d 093d
000001a0: 6b56 843d dfb5 8abd d718 70bd 538e 8cbd
000001b0: 9b16 77bd d673 04be 1fd8 753c a2c1 39bd
000001c0: 7a51 983c 8635 a73b 7e32 c9bc d1be 513d
000001d0: aa1b f3bc d3a4 9a3c 7c28 08be 8cfd 70bd
000001e0: 85bf 6cbd 91a7 963d 1176 cebd 72f7 ebbc
000001f0: 74b9 03be 3656 04be ce69 a6bd c9ac 913b
00000200: dccc a2bd 4f86 dfbd 9fad a43c 5b78 73bd
00000210: 59d4 133d a3ea 8d3c 5151 053d 06e6 90bb
00000220: e6d4 673d 76e0 823d fc81 acbd 6735 bebc
00000230: 2831 adbd cd61 f1bb 359c 10bd 841b 1e3c
00000240: 8f56 823d 7d9b 173d dc2d 11bc 5f52 823b
00000250: a073 143b d4c7 a8bc 5ce9 493b 8dbf 093d
00000260: 93e2 3d3c e11e d13c 127a 07bd 446b cf3c
00000270: 0b95 163d b41b 09bd c24c 1fbd 5b28 573c
00000280: 7ae6 8e3c f496 96bc ccf3 4f3d 3dd9 223d
00000290: 39ca 893d e3ad 813c 9936 463d eb72 763b
000002a0: 5ba2 13bd 7bfc cfbc 3dc6 57bc 87c6 40bc
000002b0: 3458 1b3d e2e0 25bc f73e e13c d285 023d
000002c0: 4120 b33d 4b74 0cbd dcdd 1ebb 3746 16bc
000002d0: e6c2 923c 46cf c9bb 6c39 b5bc d01e df3c
000002e0: 2596 ccbd 5f45 61bd d397 fbbd 92cb 01be
000002f0: 5770 2dbd c0b4 52bd 6478 11bd 8620 5dbd
00000300: b140 1d3a 3c90 0f3d 75b1 a93c bf1d aebd
00000310: c6ae d13b 50d6 b5bd 2cf3 333d 4baa a93c
00000320: 7995 9a3b 6846 acbc 32fb bbbc 05ac 26bc
00000330: dbd1 0d3c a90c 8ebc 0eac 81bb 223e 0c3e
00000340: 6f7c c73d d6bf c53d 7f1a 273d e76f aabc
00000350: f9da a83c 7ab4 693c d14c f4bb aa83 5fbd
00000360: cd4f 39bd 74e6 8dbd 9474 b23c cebc 28bd
00000370: 83dc 943d 1502 a9bc 8b44 b83c 57cf ea3c
00000380: 1001 4f3d 50ce c9bb 5fcf d73b fe9d c73c
00000390: 2cd6 1b3c 180f 5a3d 558c e2bb 1440 283d
000003a0: e2dd db3c e553 163d c059 1bbd 05c9 08bc
000003b0: ddcb 92bc 9b8a e53a e102 4bbd b91b 1f3d
000003c0: a603 833d 56bb 883c a78a 013d 5741 863b
000003d0: 7560 913c 785f 89ba cacf 5c3d a147 0a3d
000003e0: de76 e5bc d771 4cbd a666 7ebc c0bb a5bc
000003f0: 5633 413d e2fd 09bd 0edc d4bd fc53 b3bd
0.13762729 0.13085656 0.109589435 -0.04125724 -0.08162378 -0.080104835 -0.0768152 -0.082352035
-0.0741313 -0.08490348 -0.03249706 0.03801631 -0.095387384 -0.0005691713 0.05741054 -0.052796528
-0.08881999 -0.008839409 0.01555531 0.0053104977 -0.054025315 -0.027546072 -0.00059863925 -0.012658246
-0.050795723 -0.098764665 0.06517555 0.13001096 0.16665836 0.09552557 0.0858272 0.17963508
0.07616613 -0.019312643 -0.009037119 0.077062696 -0.012993923 -0.019992348 0.05833767 0.016456127
-0.042562466 0.013533755 0.031590875 0.1037059 0.017778773 0.025500549 0.07020485 0.010565191
0.053061463 0.04622802 0.0040565995 0.04157547 0.017323043 0.017919386 0.010848457 0.022824926
-0.0020407299 -0.019525774 0.005566413 0.0058132727 -0.062466506 -0.08326382 -0.048679143 0.025679763
0.002973756 0.02970956 -0.004838951 0.018950604 -0.049081888 0.06233811 -0.019251378 0.029496744
-0.0617029 -0.008282258 -0.046230484 -0.03177662 -0.08792278 -0.012351374 0.011325466 -0.039318856
0.021661947 -0.02945318 0.026313592 0.011872248 0.00058553007 0.012584012 -0.013196363 0.010789805
0.00017594434 -0.048273403 -0.050678123 -0.032234427 0.040500816 -0.11328613 -0.05064297 0.06064279
-0.11746049 -0.013593413 -0.043480903 -0.01748889 0.10218709 -0.1443378 0.05436851 0.03358253
0.064617954 -0.067729704 -0.05861744 -0.06863084 -0.060324293 -0.12934813 0.015005141 -0.04535068
0.018593539 0.005102816 -0.02456021 0.051207367 -0.029676277 0.018877422 -0.13296694 -0.05883555
-0.057799835 0.073561795 -0.10081113 -0.028804515 -0.12863714 -0.12923512 -0.081256494 0.0044456464
-0.0794923 -0.10914289 0.02010232 -0.05944095 0.036091182 0.017323798 0.032548252 -0.004421952
0.05659952 0.06390469 -0.0842323 -0.023218824 -0.084566414 -0.007366395 -0.03530522 0.009650115
0.06364166 0.03701352 -0.008861031 0.0039771046 0.0022651926 -0.020603098 0.003080926 0.033629943
0.011589664 0.02552742 -0.0330754 0.025319703 0.036763232 -0.033473685 -0.03889156 0.01313218
0.017443884 -0.018382527 0.050769612 0.039757956 0.06728024 0.015829986 0.048391912 0.0037605118
-0.036043506 -0.025388947 -0.013169822 -0.011766083 0.037925914 -0.010124417 0.027495844 0.031865902
0.08746386 -0.034290593 -0.0024241125 -0.009172014 0.0179152 -0.006158742 -0.022122107 0.027236372
-0.09989575 -0.054997798 -0.122848175 -0.12675312 -0.042343464 -0.051441908 -0.035515204 -0.053986095
0.00059987145 0.035049662 0.0207145 -0.08501767 0.0063990084 -0.088787675 0.04393308 0.020711085
0.0047175256 -0.021029666 -0.022946928 -0.010172849 0.0086559905 -0.017340021 -0.003957278 0.13695577
0.09740531 0.096557304 0.040796753 -0.020805312 0.020612227 0.01426422 -0.0074554463 -0.054568924
-0.04524212 -0.06928721 0.021784104 -0.041195683 0.07268622 -0.020630876 0.022493621 0.02866332
0.050538123 -0.0061586276 0.006586 0.024367329 0.009511512 0.05323705 -0.0069137015 0.041076735
0.0268392 0.0367011 -0.03792739 -0.008348708 -0.017919475 0.0017512621 -0.049563292 0.038844798
0.0639718 0.016690891 0.03162637 0.0040971446 0.01774619 -0.0010480722 0.0539091 0.033759717
-0.028010782 -0.049913254 -0.015527403 -0.020231128 0.0471681 -0.033689387 -0.103935346 -0.08756253

classify.0.bias f4 [2]
00000000: 7644 393c d4b0 173c
0.011307826 0.009258468
