lab2/models/EEGNet_LeakyReLU.pth (torch, 20777 bytes, 17 tensors)

firstConv.0.weight f4 [16, 1, 1, 51]
000000 54 6c 72 3b d4 73 aa bc 89 6c 62 be f0 81 d1 bd
       0.0036990838 -0.020807184 -0.22111715 -0.10229862
000010 b9 0e 03 bc ee c3 b8 3c da f2 7c bd 4c 86 45 3a
       -0.007999116 0.022554364 -0.06175504 0.00075349654
000020 2e 83 9e bd a3 4b 47 3b 02 97 51 bc 76 c6 bb 3c
       -0.07739864 0.0030410073 -0.012792351 0.022921782
000030 a4 1a 0a be ff 7f 0e be b5 fa e1 bd f3 2d b2 3c
       -0.13486725 -0.13916014 -0.11034147 0.021750426
000040 76 d5 87 3d f8 86 ee 3d c5 29 8a 3b 2c 6f 8a 3d
       0.06632511 0.11646837 0.004216405 0.067594856
000050 6c 71 cb 3d b5 a9 86 3d 10 42 0c be 42 3f 2c 3c
       0.09933743 0.06575338 -0.13697076 0.010513129
000060 97 13 48 bd ef 02 4b 3d 9d 8a 70 3e 9d 44 14 bd
       -0.048846807 0.049563345 0.23490377 -0.036198247
000070 9c 1d 3c bd 89 21 89 bd 20 4f fe bd 7f 2a 9f 39
       -0.045926675 -0.066958494 -0.12417436 0.00030358505
000080 cc 65 4a be e2 3f 19 be ba ac cd bd 40 8b 83 bd
       -0.19765395 -0.14965776 -0.100427106 -0.06423044
000090 28 70 f2 39 1f 86 bc 3d 82 26 59 bd 82 58 a5 bc
       0.000462414 0.09205269 -0.05301524 -0.020183805
0000a0 a7 82 46 bd 51 9f d5 bd 7a f8 80 3b d8 80 ec bd
       -0.048464444 -0.10430778 0.0039358707 -0.115480125
0000b0 cc 0e c2 bc b7 8e a8 3b 1c 05 3f 3d 85 85 c9 bb
       -0.023688696 0.005143966 0.046635732 -0.00614995
0000c0 d2 8a 94 bd 82 5d e1 bd 1d 1d 31 be b5 7e 6f bd
       -0.072530404 -0.11004163 -0.17296262 -0.058470447
0000d0 3c df 2c bd 33 ba 7a 3d 1c 9b e4 3d 9a 29 b9 bd
       -0.04220508 0.06121273 0.11162397 -0.09041138
0000e0 18 c9 1e bd 00 11 12 be 01 95 8f bb e5 d5 1c bc
       -0.038765997 -0.14264297 -0.0043817763 -0.009572481
0000f0 4a 71 6f bd 44 b1 a9 bd e0 50 8e bd 63 48 35 3e
       -0.05845765 -0.08285764 -0.069490194 0.17703395
000100 26 eb 8e 3e 45 cb 1c 3e 6d 08 db 3d 84 bd 97 3d
       0.2791378 0.15311916 0.106949665 0.07409194
000110 06 79 17 3e 38 d9 60 3e af 70 ad 3d b7 25 ed 3d
       0.1479226 0.21957862 0.08468758 0.11579459
000120 c3 d1 fe 3c 72 d6 b2 3d 69 21 fd 3d 3f 16 36 3e
       0.031105882 0.087323084 0.12359888 0.17781924
000130 f1 d5 ec 3d fa 44 80 bc 39 fd 32 3d 52 92 3c bd
       0.115642436 -0.01565789 0.043698523 -0.04603798
000140 56 12 db bc 9f e4 af 3d 2c 10 60 bc 02 ec 53 be
       -0.026742142 0.08588528 -0.013675731 -0.20695499
000150 3f 7b 28 bd fe 3d 5c bd c3 a4 af 3b d9 96 2c bd
       -0.04113316 -0.053770058 0.0053602173 -0.042136047
000160 be f1 54 3b a3 80 0e be 21 22 06 bd 8e 65 f8 bb
       0.0032492722 -0.13916259 -0.03274739 -0.0075804656
000170 bb a4 a5 bb b4 bf 0d bd e0 17 2a be f3 02 92 bd
       -0.005055038 -0.03460665 -0.1661067 -0.07129469
000180 da f4 f7 3d 04 1f 08 3e 54 d1 56 3d c2 32 22 3d
       0.121072486 0.13293082 0.052445725 0.039599188
000190 96 e1 0e 3e 5b 54 8d 3d fc a1 14 bd 8a df 6d 3d
       0.13953242 0.06900855 -0.036287293 0.05807451
0001a0 c0 e3 29 be 5b 3c 18 be e8 14 05 be 8e 9c 1c bd
       -0.16590786 -0.14866774 -0.12996256 -0.03823524
0001b0 4a fd 96 3a 50 79 15 bb c2 04 bd bd 16 0d 18 bc
       0.0011519578 -0.0022807904 -0.09229423 -0.009280464
0001c0 f3 83 fb bd 4d 78 8c 3d 61 a3 f2 3b 78 31 f5 bd
       -0.12281027 0.06858883 0.00740473 -0.11972326
0001d0 60 87 ff 3d a3 2a 21 3e ed 6c ca 3d ba 5c 46 3a
       0.124769926 0.15738921 0.09884057 0.0007566918
0001e0 7a 7d 87 bc 6a 25 11 bc c2 83 4d 3d 1b 65 50 3e
       -0.016539324 -0.008859018 0.050174482 0.20351069
0001f0 ec 32 d0 bd 55 0d 47 be 59 1d a7 bd 19 71 6c 3a
       -0.101659626 -0.1943868 -0.081598945 0.00090195384
000200 77 67 24 3d 92 1b 62 bd 5c e2 cb bd d4 ed b7 bd
       0.040137734 -0.055202074 -0.09955284 -0.08980909
000210 e9 1e ab bd c5 26 81 3d 7b 55 c0 3d 65 32 98 bb
       -0.08355505 0.06306223 0.09391304 -0.0046446794
000220 99 e6 65 3d 0f 3c 8e 3d cd 02 a1 3d 69 41 10 3d
       0.05612812 0.06945049 0.07861862 0.03521863
000230 17 8e c2 3d 27 f5 58 3d ce 19 0a 3e d8 4d 23 3c
       0.09499758 0.05296817 0.13486406 0.00996729
000240 3b 25 ca bd 82 79 d3 bd d8 2e 73 3c f2 a7 f2 ba
       -0.098703824 -0.1032591 0.014842711 -0.0018513186
000250 05 4b fa 3b 49 8e 6d bd 34 af fd bd 0e 7a f0 bd
       0.0076383376 -0.05799702 -0.12386933 -0.1174203
000260 6a 7b ce bd 97 d5 84 bd 5b 1c fa 3d 6f b6 05 be
       -0.10082133 -0.064860515 0.122124396 -0.13057874
000270 fa 0e d1 3d 8c ee d4 bc 2d 46 01 3e 1e 01 99 3d
       0.10207935 -0.025992654 0.12624426 0.07470916
000280 22 a2 a7 3d 1e 27 d9 bc 30 88 31 be f3 7a 17 be
       0.08185221 -0.02650791 -0.17337108 -0.14792995
000290 c0 e4 90 3d 9b a2 d6 3c a3 3e c0 bd 98 b3 24 3d
       0.070748806 0.026200583 -0.09386947 0.040210336
0002a0 18 c2 81 bd 3c 1f 96 ba cf 81 c0 3d a3 f7 ae bd
       -0.063358486 -0.00114534 0.09399759 -0.08543327
0002b0 83 28 bd 3d c7 61 8f 3c f7 18 35 be b5 fe f7 bb
       0.092362426 0.017502679 -0.17685305 -0.0075682052
0002c0 b4 fa e6 bd 22 59 55 bd 52 68 6b 3e b9 96 8e 35
       -0.112782866 -0.052086957 0.22989014 1.062369e-06
0002d0 e7 51 2e bd eb 19 17 be 93 00 25 3d 2e 29 c1 3d
       -0.042558577 -0.1475598 0.04028375 0.094316825
0002e0 80 ba df 3d 20 44 0c 3d e1 41 ac bd 42 61 c6 3c
       0.10924244 0.034244657 -0.08411003 0.024216298
0002f0 5c 9d 04 3d a3 1f ea 3d 84 15 43 3d 35 6f 5c 3c
       0.032376632 0.114318155 0.04762794 0.013454248
000300 63 ee 2f be b8 97 32 bd e8 83 a0 bd 8f a9 09 3d
       -0.17180781 -0.04360172 -0.07837659 0.03360897
000310 93 14 69 3d 27 b0 4a 3d b9 d0 c6 bd 1c d6 6e 3c
       0.056904387 0.0494844 -0.097077794 0.014577415
000320 f7 64 94 3d d6 21 f2 3d 85 8e 95 bd f2 48 e9 bd
       0.0724582 0.1182286 -0.07302574 -0.11390866
000330 dc 71 fd bc b3 d8 0b 3d 98 20 19 be 10 e8 e0 3d
       -0.030938081 0.034142207 -0.1495384 0.109817624
000340 29 af a0 3d 44 b7 11 bd e6 a3 87 bd 2f 04 51 3d
       0.07845909 -0.035575166 -0.06623058 0.05102938
000350 d6 40 f9 3d fc 55 3c bd b3 6d b1 bd e0 ee 59 3c
       0.121705696 -0.04598044 -0.086635016 0.013301581
000360 ef 5c 9a bd 04 97 4d bb 71 c1 54 3e 05 74 00 be
       -0.07537257 -0.003137053 0.20776917 -0.12544258
000370 e3 bb eb bd 20 2d 31 3e e4 47 0b 3e 89 c4 53 bd
       -0.11510446 0.1730237 0.13601643 -0.051701102
000380 e5 ba 54 be 80 37 8a 3d 94 63 fd bc 6f b3 0e 3c
       -0.2077442 0.06748867 -0.030931272 0.0087097725
000390 ee 8d 77 3c 15 a5 1a bd e1 ff a1 bb 97 ef 1b 3e
       0.015109522 -0.03775509 -0.004943833 0.15228115
0003a0 f0 44 bf 3b 72 a0 90 3b 7e 9e ce bc ce 8f 0a be
       0.0058370754 0.004413658 -0.02522206 -0.1353142
0003b0 b6 af a2 3d e8 94 53 bd e4 c0 47 bd 20 ff d4 3c
       0.079436705 -0.05165568 -0.04876794 0.02600056
0003c0 ca 71 df 3c 2e a9 bd 3d fc 46 16 bd 27 bf a5 3b
       0.027275939 0.09260784 -0.03668879 0.0050581875
0003d0 53 ae 49 3d 46 0d 28 be f6 78 e4 3d af 06 c1 bd
       0.049238514 -0.16411313 0.11155884 -0.09425103
0003e0 f0 52 6f 3c 80 25 a4 3b d5 41 6c 3c 5d c2 50 3d
       0.014607176 0.005009353 0.014419992 0.05096661
0003f0 b8 19 94 3d c1 db 9c bd 46 b0 2d bc 78 79 7a bd
       0.07231468 -0.07659102 -0.010601109 -0.061150998

firstConv.1.weight f4 [16]
000000 9c 14 01 3f a9 05 5d 3f f5 b6 5c 3f 5a 1e 40 3f
       0.5042207 0.8633676 0.8621667 0.7504631
000010 f9 cc 74 3f af c8 eb 3d 1d 9b 4e 3f b7 3e 4c 3f
       0.95625263 0.11512887 0.80705434 0.79783195
000020 ef 9d e2 3e 75 f6 58 3f c3 a8 54 3f 0c d2 7d 3f
       0.4426112 0.84751064 0.8307001 0.9914863
000030 6c dc 46 3f 01 65 fe 3c f9 01 59 3f 68 b7 55 3f
       0.7768009 0.031054022 0.84768635 0.8348298

firstConv.1.bias f4 [16]
000000 bb 10 61 bc 7d 96 04 bd ee 78 3d 3c 99 de d4 bb
       -0.013736899 -0.03237008 0.011564476 -0.0064962623
000010 28 6f 04 3d c6 39 d8 3c 57 19 f8 3c 4a 59 36 3c
       0.03233257 0.026394736 0.03028552 0.011129687
000020 b8 aa ff bc e5 2a 01 3c f7 56 a7 3c e6 27 1b bd
       -0.031209335 0.007883762 0.02042721 -0.037879847
000030 bd 33 89 bc 3b d9 5f bd 08 30 68 3c 87 1c 41 bc
       -0.016748304 -0.054650526 0.014171608 -0.011786587

firstConv.1.running_mean f4 [16]
000000 61 e0 ae 3d bb b4 37 bd 0c 24 19 3d e2 92 94 3b
       0.08538891 -0.044850092 0.037387893 0.0045341114
000010 1b b7 8e ba 24 ff ec 3b 6a 8d f2 bd 57 7c b1 bd
       -0.001088831 0.0072325636 -0.11843379 -0.08666294
000020 b4 e6 ab 3c c6 5c f2 3c fe 90 89 3b 28 2d 01 3d
       0.020984031 0.029585253 0.0041981926 0.031537205
000030 1b 77 b8 ba da be 3a bb a7 25 f9 bc 26 c3 cc bc
       -0.0014073582 -0.0028495104 -0.030413462 -0.024995398

firstConv.1.running_var f4 [16]
000000 44 b1 28 42 e8 cd 5e 42 d9 b5 82 41 d8 da fd 40
       42.17311 55.70108 16.338793 7.9329643
000010 43 99 27 40 f5 e8 bb 40 a6 b6 bc 42 8a d0 5b 42
       2.6187294 5.872187 94.356735 54.95365
000020 2a 04 8c 41 e9 98 ea 41 54 83 00 41 0e b8 b7 41
       17.502033 29.324663 8.032063 22.96487
000030 b1 65 56 40 c7 da f7 3f 32 da 8b 41 7e 37 a3 41
       3.3499568 1.936364 17.48154 20.402096

depthwiseConv.0.weight f4 [32, 1, 2, 1]
000000 0b e3 87 be d9 50 1a 3f 1d a9 d6 bd 36 6e 8b 3e
       -0.26540408 0.60279614 -0.104814745 0.27232522
000010 fe 4a 34 3f 00 a6 5a be c2 30 83 3e 20 af a5 be
       0.7042693 -0.21352386 0.25623137 -0.32360172
000020 a5 b1 04 be dc 23 cb bd e4 e8 c6 3d e9 26 18 be
       -0.12958391 -0.09918949 0.09712389 -0.14858593
000030 34 05 66 3e b2 19 bd bc 1a f8 06 3f 41 11 7b bd
       0.22462922 -0.023083542 0.5272232 -0.06129575
000040 4a ed 4d 3d a6 b8 93 be 8b 03 26 bf 8c 04 6b 3e
       0.050275125 -0.28851813 -0.64849156 0.22950953
000050 d1 d1 b1 3d 57 20 97 be 0f 5b d3 be 12 4f 67 bb
       0.086825974 -0.2951686 -0.4128041 -0.0035294932
000060 66 96 4e be 39 cf c5 3e 1f fb 43 3e 2e 9e d8 3d
       -0.2017456 0.3863466 0.19138764 0.105770454
000070 78 48 d6 3e c8 ae 83 bd 3a 4a 87 3d c5 3d 42 3f
       0.41852164 -0.06429821 0.066059545 0.758755
000080 b1 52 63 bd 3d 68 ef 3d 6f 8c ba bd 63 1b ca 3e
       -0.055498783 0.11689804 -0.09108817 0.3947402
000090 6a 30 19 3e ed 84 f1 be 0e 1b a2 3e db 93 1b bf
       0.14959875 -0.47171727 0.31661266 -0.60772485
0000a0 28 8e b1 3d 4e 7b 82 be 97 44 0d 3f f9 7a 12 bf
       0.08669692 -0.254847 0.55182785 -0.5721889
0000b0 d0 ab ea 3e 4b de 29 3f 1b 23 0e 3e 03 b1 8a bd
       0.45834208 0.6635482 0.13880579 -0.067720436
0000c0 c8 75 29 3f f9 d9 97 be 3e 6e 6c 3d bf 6e 97 be
       0.66195345 -0.29658487 0.057722323 -0.2957668
0000d0 17 e9 3e be 79 d2 39 3c 92 cc 53 3d d6 66 3e be
       -0.18643604 0.0113416845 0.051708765 -0.18593916
0000e0 89 a3 13 bf 2b cd 24 3e 69 e3 44 bd 12 2f cc 3d
       -0.5767141 0.1609389 -0.048068438 0.099699154
0000f0 27 b4 b8 3e 7b 37 5c 3f f1 b2 50 be 7d 03 5c 3e
       0.36074945 0.86022156 -0.2038076 0.21485706

depthwiseConv.1.weight f4 [32]
000000 27 15 58 3f ea 79 42 3f b0 46 85 3f e4 f5 5b 3f
       0.84407276 0.75967276 1.0412197 0.85922074
000010 15 7a 6e 3f 3a 79 74 3f 23 38 54 3f b9 86 61 3f
       0.9315503 0.9549748 0.8289816 0.88096195
000020 78 90 7f 3f 29 6a 4d 3f 30 d1 62 3f cf a6 1f 3f
       0.99829817 0.8024011 0.88600445 0.62363905
000030 14 eb 62 3f a1 12 88 3f 5a 7c 7e 3f 1e 38 65 3f
       0.8863995 1.0630685 0.99408495 0.89538753
000040 87 b7 08 3f a5 3b 0b 3f 0d a2 80 3f 11 c0 6d 3f
       0.5340504 0.54387885 1.0049454 0.92871195
000050 64 cd 5d 3f bd 34 89 3f 4b 9a 54 3f c6 2a 84 3f
       0.86641526 1.071922 0.8304793 1.0325553
000060 e6 e4 5d 3f ef 71 5c 3f 25 bc 61 3f ef 9f 72 3f
       0.86677396 0.8611135 0.8817771 0.9477529
000070 a8 7e 70 3f 62 b0 64 3f da 26 77 3f 25 99 65 3f
       0.9394326 0.8933164 0.9654366 0.89686805

depthwiseConv.1.bias f4 [32]
000000 38 ed 03 bf 3f 3b f7 be a8 d8 2c be 3d 00 85 3e
       -0.5153384 -0.4828739 -0.16879523 0.25976744
000010 d7 2c ee be 94 49 28 be 01 4a c9 be ee b6 dd be
       -0.46518585 -0.16434318 -0.39314273 -0.43303627
000020 eb 36 26 bf e6 1e 02 bf 98 d2 17 bf 12 8d 13 bf
       -0.6492755 -0.508284 -0.59305716 -0.5763713
000030 b3 9f 89 3e 58 1f 6c be 47 72 85 be b8 4b c1 be
       0.26879653 -0.23058832 -0.2606375 -0.3775308
000040 e2 f2 3c bf 10 13 3f bf 6b ba 88 be 64 da b6 bd
       -0.7380811 -0.7463846 -0.26704726 -0.089283735
000050 a1 61 39 bd fb 74 9e be c7 2c 86 be 3b dc c4 be
       -0.04525912 -0.30948624 -0.26206037 -0.38449273
000060 ff d9 17 bf fa f3 29 bf 07 4e 06 bf 33 86 d8 be
       -0.5931701 -0.66387904 -0.5246281 -0.42289886
000070 04 65 e7 be 5a 0f 7e be e3 27 e6 be 8e 6a 49 be
       -0.45194256 -0.24810544 -0.44952306 -0.19669554

depthwiseConv.1.running_mean f4 [32]
000000 17 5d 13 bb 42 c5 a7 ba ab bc 4f bc 38 76 8a 3b
       -0.0022485906 -0.0012799876 -0.012679259 0.0042255186
000010 ad 52 26 bb 1e a0 c1 ba 05 24 be ba c6 7f 5b bb
       -0.0025378868 -0.001477245 -0.0014506584 -0.0033492907
000020 fd 4a f3 bb e3 64 61 bc 5a 97 b7 bb 98 e3 34 bc
       -0.007424711 -0.013756963 -0.0056027593 -0.011040591
000030 19 d5 24 3b 39 dc 1a 3c 1a 69 ce 3b aa 68 bc 3b
       0.002515143 0.009451919 0.00629915 0.0057497816
000040 6d ad dc ba cf 81 10 bc 7f 7b 96 bb 43 8a ae bb
       -0.0016836353 -0.008820011 -0.0045923586 -0.0053265407
000050 31 3b 53 bb a2 9c 5e 39 af 14 2d bd a5 af 3e bb
       -0.0032231326 0.0002122992 -0.042256054 -0.0029096392
000060 6e 5a c3 bb 49 e9 88 3b 3f 88 1c 3c d7 29 f1 3b
       -0.005961708 0.0041782004 0.009553968 0.007359724
000070 19 24 0d bc c2 de 55 39 dc c6 7a bc b2 73 1e ba
       -0.008614563 0.00020396247 -0.015306201 -0.00060444616

depthwiseConv.1.running_var f4 [32]
000000 57 7f 81 3d 12 96 5a 3c 2c b3 81 3e 5b 29 3d 3d
       0.06323116 0.013341444 0.2533201 0.046182018
000010 c2 ea 00 3d 8b 19 2a 3c 5f 11 d8 3c 97 a1 11 3e
       0.031473882 0.0103820665 0.02637547 0.14221798
000020 33 e9 8a 3d c2 99 85 3e c6 3a 6d 3a c7 59 15 3b
       0.067827605 0.2609387 0.00090495904 0.0022789107
000030 92 30 85 3d 4c 0a 3e 3d e3 ab be 3d 9a 73 d1 3e
       0.06503405 0.04639654 0.093101285 0.4090851
000040 3f f3 d8 3a 5a 0e c3 3c 66 89 dc 3d 5e f2 1b 3e
       0.0016551985 0.023810554 0.10768394 0.15229174
000050 a0 59 fb 3c 9d 3d 23 3e 71 66 87 3f b6 7a 2e 3c
       0.030682385 0.15941472 1.0578138 0.010649374
000060 5e 5d 4f 3e 38 04 39 3d b7 25 03 38 d8 9b f0 37
       0.2025046 0.04517004 3.126796e-05 2.86828e-05
000070 d2 f3 2d 3e d2 ab 8e 3b 02 89 65 3f 5b de 8e 3c
       0.16987541 0.0043539787 0.8966218 0.017440012

separableConv.0.weight f4 [32, 2, 1, 15]
000000 36 36 d1 3d 26 89 17 bb 3f 31 f3 3c 23 f2 17 3e
       0.10215418 -0.0023122518 0.029686568 0.14838462
000010 f0 aa ed 3d 9b 5d b6 3d d6 51 cc 3d 97 8e 99 3c
       0.11604869 0.089045726 0.099765465 0.01874475
000020 ab 32 69 3d bd 2d 19 3e b3 53 b8 3d c9 a7 6c 3e
       0.056933086 0.14958854 0.09000339 0.2311088
000030 5a 02 46 3e 54 62 24 3e 3d 9f 29 3e 95 9e 61 3e
       0.19336835 0.16053134 0.16564651 0.2203315
000040 f9 f2 1d 3c c9 73 f6 3d 3a ed e5 3d d4 2e fb 3d
       0.009640449 0.12033803 0.11226888 0.12264791
000050 17 67 f9 3d 67 ae eb 3d 7f 43 24 3e 49 ee f8 3d
       0.12177866 0.11507874 0.16041373 0.12154824
000060 57 d7 00 3e e5 76 f9 3d c3 be 2b 3d 37 e6 01 3e
       0.12582146 0.121808805 0.04192997 0.12685476
000070 b6 3f a8 3c cc 13 46 3d 5d a2 b9 bd 5d cd 8f bd
       0.020538192 0.048358724 -0.090641715 -0.07021592
000080 c7 17 1b bd 7f 9a 3e bd 46 21 51 3d c2 ec 01 3e
       -0.037864473 -0.046534058 0.051057123 0.12687972
000090 23 5d 14 be da aa 45 be 06 cb 51 3e f5 7c 44 3e
       -0.14488654 -0.19303456 0.20487604 0.19188292
0000a0 e5 fd d8 3d 83 0c 4c be c7 5d e5 bd 21 71 f6 3c
       0.105953015 -0.19926648 -0.11199527 0.030083241
0000b0 41 fc 60 3c 4a 60 04 be 0d d3 5b bd 5c 2b 84 bd
       0.013732017 -0.12927356 -0.05366807 -0.06453583
0000c0 88 c7 58 3c 3c c4 a7 ba 76 2c 77 3e c1 ee 1b be
       0.013231166 -0.0012799571 0.24138054 -0.15227796
0000d0 da a1 7e be 7d 34 4c 3e 9b 9f 84 3e cc 2f b6 3d
       -0.24866429 0.19941898 0.2590302 0.08895835
0000e0 96 ec 9a bd ce d1 08 be 04 77 a2 bb 09 1b c0 bd
       -0.075646564 -0.13361284 -0.0049580354 -0.093801565
0000f0 a1 94 4c 3b e8 00 03 3d aa 37 84 3c 90 48 cb 3c
       0.003121652 0.031983286 0.016139824 0.024814874
000100 1f 8e 1c bd bb 7e 23 be 8a f9 42 be 7c b3 de bd
       -0.038221475 -0.15966313 -0.19040504 -0.10874078
000110 0f c3 df bb e4 97 be 3d 74 5c 26 3e 77 31 7b 3d
       -0.0068286727 0.093063146 0.16246206 0.06132647
000120 39 2f 95 bd 9a f4 0b be c5 ad 4f be f7 ea 25 be
       -0.07284398 -0.13667527 -0.20281132 -0.16202913
000130 aa e2 7d bd 8e 20 12 bc 7a 91 b6 bb 93 ff 81 bd
       -0.06198374 -0.008918894 -0.0055715414 -0.06347575
000140 f5 70 00 be 9b cf f7 bd b5 00 49 be 75 3b 62 be
       -0.1254309 -0.121001445 -0.19629176 -0.22092994
000150 62 0d 0c be 85 ef 17 be 73 89 0a be a0 03 a2 bd
       -0.1367698 -0.14837463 -0.13528995 -0.07910848
000160 87 84 86 3c 62 d7 da 3d dc 2e 40 bd bd df 4e 3c
       0.016420616 0.10685612 -0.04691969 0.012626586
000170 f9 ce 0c 3e ca 96 51 3e ab f0 ad b9 c7 f9 17 3d
       0.13750829 0.20467678 -0.00033176443 0.03710344
000180 7f 75 cf 3d 8d 67 13 3e f9 91 6e bd 8c 44 93 bb
       0.101298325 0.1439497 -0.05824468 -0.0044942554
000190 53 03 14 be 04 4e a8 be 74 71 4a be 20 77 a4 bd
       -0.14454393 -0.3287202 -0.19769841 -0.08030534
0001a0 da a0 32 3d 2a dd 17 be ea 40 23 be d7 49 36 3d
       0.04361043 -0.14830461 -0.15942731 0.044504013
0001b0 01 2c 13 3e 42 de 36 3d 20 8b 85 3d 23 9e 30 3d
       0.14372255 0.044645555 0.065206766 0.04311956
0001c0 06 2e d1 bd 31 69 32 3c 26 70 3b 3d 85 60 42 bc
       -0.102138564 0.010889337 0.04576125 -0.011863832
0001d0 5a 40 90 3d 7b 98 49 3d 80 bf 40 bd 90 6c d5 3b
       0.07043524 0.049217682 -0.04705763 0.006513186
0001e0 6b dd 90 bd a6 53 27 be 31 12 63 be 50 6a 43 be
       -0.07073482 -0.16340503 -0.22174908 -0.19083524
0001f0 94 12 ce bd 79 64 c8 bd 41 2c 6d be 19 e0 79 be
       -0.10062137 -0.09784789 -0.23161413 -0.24401893
000200 f4 a8 cd bd 4f b2 24 3d 24 b0 f1 bd d3 ea e8 bd
       -0.10041991 0.04020911 -0.11801174 -0.11372914
000210 40 bf 9b bb d3 9c 72 3d 27 bd 67 3d 2e f0 43 3d
       -0.0047530234 0.05923159 0.056576874 0.047836475
000220 9c f1 27 3e 84 bc 11 3e 6b f2 4f 3d 2f 54 b7 bc
       0.1640076 0.14232069 0.050768297 -0.022379009
000230 99 8b b5 bb ab 40 c2 3c 5b a8 3f bc e4 9b a5 3d
       -0.005540323 0.023712477 -0.011697854 0.080863744
000240 0f 1b 8b bc 76 de f4 bd 8d 5a ba bd fc 13 52 3d
       -0.016980676 -0.119564936 -0.090993024 0.05128859
000250 a7 9e 9b 3d e8 37 10 3e 43 54 e9 bc 84 77 ca bd
       0.0759862 0.14083827 -0.028482562 -0.09886077
000260 e9 3d 9d bd 50 3d 89 3d 1e a7 72 bc 14 45 1b be
       -0.07677824 0.067011476 -0.014810352 -0.1516307
000270 d4 23 ce bd 31 99 aa bd b2 7f 0d 3d 51 b8 2c 3e
       -0.100654274 -0.0833 0.034545608 0.16867186
000280 9b 57 05 be fa 9a da bd b3 bf 30 bd 5f 7b b8 3d
       -0.130217 -0.10674091 -0.04315157 0.09007906
000290 78 14 19 bc 7d f8 32 be 10 8d a4 3d 2e 61 2f 3e
       -0.009343259 -0.17477603 0.08034718 0.17126915
0002a0 e1 0a f1 bc a4 8f 02 3c 70 b0 d2 bd c3 fb 01 bd
       -0.029424133 0.007968817 -0.10287559 -0.03173424
0002b0 13 c2 7e 3d 6c e2 da 3d 86 d3 38 be c9 33 59 be
       0.062196802 0.10687718 -0.1804944 -0.2121116
0002c0 f2 6e 89 bc 95 41 41 3e 08 b7 ef 3d bc 3a 1c be
       -0.016776536 0.18872674 0.11704832 -0.1525678
0002d0 08 18 8e bd f6 d3 b9 3d e0 e7 6f 3c 61 a9 a7 3d
       -0.06938177 0.090736315 0.014642686 0.08186603
0002e0 3b c2 89 3d bc ae 02 3e 04 a2 18 3e ea dc 3d 3d
       0.067265 0.12761968 0.14905554 0.04635326
0002f0 0f 5f 09 3e e9 f5 0c 3e 7f 55 04 3e b0 ec 07 3e
       0.13415168 0.13765682 0.12923239 0.13273883
000300 dc 6e 6f 3e bb 14 8a 3d d6 4d 33 3e 67 21 d0 bd
       0.23382133 0.06742235 0.17510161 -0.10162621
000310 0a c4 85 bd 8f 3b 95 bd df 39 b2 3c 3c d9 c0 3d
       -0.06531532 -0.072867505 0.02175611 0.09416434
000320 92 60 fe 3d 07 f8 ca 3d 4c 09 3b 3e e5 45 90 3d
       0.12420763 0.09910589 0.18265265 0.07044581
000330 eb 2c e4 3d 84 70 33 3e f9 aa 54 3e 54 3d f1 3d
       0.1114138 0.1752339 0.20768346 0.117792755
000340 5e 2d 21 3e af b6 1b 3d c0 01 00 be e2 98 f4 bd
       0.15739962 0.038016018 -0.12500668 -0.119432226
000350 25 e3 0b be 49 85 dd bd 87 30 1a be c7 a8 18 be
       -0.13660868 -0.10816438 -0.15057574 -0.14908133
000360 9d 8d 08 be f5 34 00 be 1b 5d f1 bd ca e4 06 be
       -0.13335271 -0.12520202 -0.117853366 -0.13173214
000370 ae b8 eb bd 91 10 d6 bd 4c a5 01 be 88 a5 92 bd
       -0.11509834 -0.104523785 -0.12660712 -0.07160479
000380 95 82 b4 bd 3a e0 d6 bd 29 ea f7 bd 35 48 f5 bd
       -0.08813969 -0.104919866 -0.121052094 -0.11976663
000390 e3 67 d0 bd b2 0a 06 be 52 e6 fe bd fe ec f6 bd
       -0.10176065 -0.13090017 -0.12446274 -0.120569214
0003a0 03 64 e2 bd 5e 6c e9 bd 59 5a e6 bd c9 3c f8 bd
       -0.11054232 -0.113976225 -0.11247701 -0.12120969
0003b0 73 3e c7 bd 15 69 cf bd b8 0a 87 bd dd 7b ba bd
       -0.09728708 -0.10127465 -0.06593841 -0.09105656
0003c0 39 7a 1b be 74 9e 07 be cb 7c 35 be 86 56 69 be
       -0.15183343 -0.13244039 -0.17723386 -0.22786912
0003d0 52 b6 65 be 28 83 ab bb d5 f8 32 bd 00 31 00 bc
       -0.22432831 -0.005234141 -0.043694336 -0.0078241825
0003e0 8f f9 2c bd 6c fd 1e bd 8a d6 39 bd bc 36 e0 3d
       -0.042230185 -0.0388159 -0.045370616 0.1094794
0003f0 b9 bb 31 3d 15 3d 1d 3e ec 8f 59 3e b8 14 24 bd
       0.043391917 0.15355332 0.21246308 -0.04005882

separableConv.1.weight f4 [32]
000000 4b 70 94 3f 3a 8e c6 3f b8 86 b8 3f 2a 72 a1 3f
       1.1596769 1.5512154 1.4416113 1.2612965
000010 fa 59 ae 3f 69 9d c3 3f fd 69 9e 3f 7d ed d0 3f
       1.3621209 1.5282413 1.2376095 1.6322476
000020 07 f5 b2 3f 57 95 ab 3f 26 f3 c1 3f 7c 99 ad 3f
       1.3981026 1.340495 1.5152328 1.3562465
000030 18 a1 a7 3f 61 39 be 3f aa 85 a2 3f 97 4e 97 3f
       1.3096037 1.4861261 1.2697041 1.1820859
000040 38 7f d5 3f 07 87 ca 3f 9f b8 c4 3f 75 05 b5 3f
       1.6679449 1.5822457 1.5368842 1.414229
000050 e9 e6 b6 3f 4e bd c2 3f 4b 6b b5 3f cf 64 a6 3f
       1.4289218 1.5214021 1.4173368 1.2999514
000060 5f 78 a6 3f 4a 50 c9 3f de bc be 3f eb 65 ba 3f
       1.3005484 1.5727627 1.4901388 1.4562353
000070 fb d9 bd 3f 50 07 d7 3f 9e 72 c0 3f 6f 32 a2 3f
       1.4832147 1.6799107 1.5034978 1.2671641

separableConv.1.bias f4 [32]
000000 b0 f7 ee be 87 ef 5d be 4c eb bb be d1 5d df bd
       -0.46673346 -0.21673404 -0.36702955 -0.10906566
000010 fd d1 a5 bd 69 fb 0b bf 61 3b 22 bf c1 e7 02 bf
       -0.08096693 -0.54680496 -0.63371855 -0.5113488
000020 7c 7e a1 be 9b c3 be 3d 36 c5 63 be bb a4 85 be
       -0.31541812 0.093146525 -0.22243199 -0.26102242
000030 fa 45 30 be 15 6b 99 be ce 52 e8 bd b2 f4 b3 be
       -0.17214194 -0.2996451 -0.11343919 -0.35147625
000040 56 f8 a2 bc 83 8f 43 bd 2c 06 4e be 2e 8a ac 3d
       -0.019893806 -0.047744285 -0.20119542 0.08424793
000050 17 e7 86 be 8a 6d a8 be 07 47 ce be 7a 93 10 bf
       -0.26348183 -0.32896072 -0.40288565 -0.5647503
000060 14 29 cc 3c 24 20 16 be 93 76 48 bd 02 c0 b7 3d
       0.024921931 -0.14660698 -0.048941206 0.089721695
000070 e3 15 8c be ef 67 33 be 71 21 df be a2 be 4e be
       -0.27360448 -0.17520116 -0.435802 -0.20189908

separableConv.1.running_mean f4 [32]
000000 6f 2b a2 3e a5 13 f9 bc 6a 95 3a bf 53 b3 c8 bc
       0.31673762 -0.030404875 -0.7288424 -0.024499571
000010 7e 7a d5 bd 34 79 f7 bd 7c e4 ca 3e 0a 7e 01 bf
       -0.10423754 -0.120836645 0.39627445 -0.50582945
000020 61 62 75 be 02 72 d0 bb 72 ea 0c bc 6f 65 8d be
       -0.2396331 -0.006361247 -0.008600818 -0.2761645
000030 f2 6f 9d bd 43 24 be bd db dd a5 bc 94 1c 2e bd
       -0.076873675 -0.0928426 -0.02024739 -0.042507723
000040 f2 5e 41 3c 1f 0c af 3c cc 7f 3f bf 5c 06 1f be
       0.011802422 0.021368084 -0.7480438 -0.1552977
000050 fc 8a d0 bd 23 f7 66 be d1 4d 11 bf 0d 5f ea 3d
       -0.10182759 -0.22555213 -0.56759363 0.11443911
000060 42 57 2f 3a a8 a1 86 bc 82 94 22 be 22 8b 93 bd
       0.00066887226 -0.016434506 -0.15876964 -0.07204272
000070 aa 32 31 bd b6 00 45 bc cf 34 98 bc 73 90 a1 bd
       -0.043261208 -0.012024095 -0.018579869 -0.078888796

separableConv.1.running_var f4 [32]
000000 7d 87 76 3f f4 f7 83 3d 7a 67 08 3f 60 38 4e 3e
       0.9630049 0.06443778 0.5328289 0.20138693
000010 24 5a 15 3e d6 de 04 3e aa ca 4f 3e b1 5e 93 3e
       0.14585167 0.1297563 0.20292154 0.2878318
000020 45 7d c7 3d 81 1e d4 3c cd bf ea 3c b5 53 e0 3d
       0.0974069 0.025893452 0.02865591 0.10953466
000030 29 58 0d 3f cd a4 2e 3f da bb 93 3e c3 e5 92 3e
       0.55212647 0.68220216 0.28854257 0.2869092
000040 55 a8 43 3c a0 b0 83 3c 58 37 74 3f bb 57 00 3f
       0.011941989 0.016075432 0.9539695 0.50133866
000050 38 09 0f 3e 5c f9 38 3e 2f 35 e3 3e a4 5e ce 3d
       0.1396836 0.18063873 0.44376513 0.10076645
000060 a7 68 d1 3c 49 3f be 3c ae 95 89 3d f2 34 24 3d
       0.025562597 0.023223536 0.06718002 0.040089555
000070 e9 93 cc 3d 9f 29 df 3d d8 cb ac 3d 5a f3 f8 3d
       0.09989149 0.108966105 0.084373176 0.121557906

classify.0.weight f4 [2, 736]
000000 8b 81 2d 3e f7 c7 30 3e a5 24 f4 3d c0 77 c5 3d
       0.16943948 0.1726378 0.11921052 0.09641981
000010 1e b3 8c 3d 3d 87 2d 3d 97 27 94 bb 28 66 63 be
       0.068701014 0.0423653 -0.004521321 -0.22206938
000020 aa ed 67 3e 3d f9 2e 3d 02 7b 46 3e c9 1f 36 3d
       0.22649255 0.04271816 0.19382861 0.044463906
000030 58 3c 1f be ff de fa 3c 13 a2 92 3d d2 f3 94 3d
       -0.15550363 0.030623911 0.071598195 0.072730675
000040 f8 04 d1 3d ec 56 c1 3d ea 2c 66 3d 22 81 b4 3d
       0.10206026 0.09440407 0.056195177 0.08813693
000050 b0 b3 22 bc 5e 49 86 3c ff 7b 6f 3d 69 6e 43 bc
       -0.009930536 0.016392406 0.05846786 -0.011928179
000060 8e d7 b6 bd 82 66 93 bd d1 1e ac be 72 00 24 3e
       -0.089278325 -0.07197286 -0.3361726 0.16015795
000070 30 9a 3d 3c a3 0f 09 be c3 ed 5b be 3a 80 98 3e
       0.011572406 -0.13384871 -0.21477418 0.2978533
000080 9e 1c 1a 3d 11 1a 53 3e 25 ea 4a 3e b3 fc 99 be
       0.037624948 0.20615412 0.19815882 -0.30075607
000090 e8 ae a4 3e c3 4b b6 ba 9b 9a 9e 3b 28 8b cd bd
       0.32164693 -0.0013908077 0.0048402078 -0.100363076
0000a0 6e 15 0b bc d2 2f 5f 39 4c 3f e3 3d b3 3a 72 bc
       -0.008488996 0.00021284752 0.11096057 -0.014784503
0000b0 8d 93 ae 3d 77 4f be 3d 9e 3a aa 3e e5 7f a6 3e
       0.08524237 0.092925005 0.33247846 0.3251945
0000c0 bd 80 53 3c 68 6e 96 bd 88 33 6a 3d 8a 1b 07 3e
       0.012909112 -0.07345277 0.05717805 0.13194099
0000d0 d3 09 ec bd ca 9f ef bd a6 9e 27 bd c7 fc f1 bd
       -0.11525311 -0.11700399 -0.040922783 -0.118157916
0000e0 db a8 81 be 95 d7 a0 3d c2 81 b6 ba c2 5a 51 be
       -0.2532414 0.07853619 -0.0013924169 -0.20444778
0000f0 75 b5 56 be 92 c0 25 be bd 72 e1 3d 69 91 34 3e
       -0.20967658 -0.16186741 0.11008213 0.17633595
000100 cf e4 26 3e ba 87 fb 3d b6 a0 8d bd 6d 9e 1b 3e
       0.16298221 0.12281747 -0.06915419 0.15197153
000110 66 17 fb bc 7e 5a e3 bd fa 5d 3b 3d 91 c5 b8 3c
       -0.030650806 -0.111012444 0.04574392 0.022555145
000120 3d fe c9 bd 58 b0 76 3e ee 24 69 be b8 1e ba 3d
       -0.09862945 0.24090707 -0.22767994 0.090878904
000130 71 55 74 be c7 5a e6 3b 10 45 e2 3c 1d 0c 21 3e
       -0.23860718 0.0070298645 0.027620822 0.15727277
000140 af c2 8d bb e0 50 19 be 15 fe 8f bc d9 5f a6 3d
       -0.0043261866 -0.14972258 -0.01757721 0.0812375
000150 8b 14 d3 3c af 23 26 bd e4 e7 e2 bc 51 4d a4 bd
       0.025766632 -0.040561374 -0.027698465 -0.080225594
000160 e6 b1 a4 bc 11 be c9 bc 85 3d fe bd 01 ea 32 bc
       -0.02010436 -0.024626764 -0.12414078 -0.010920049
000170 03 9b ba 3d 2b 68 a8 3e 49 71 f1 3d bd f5 65 3e
       0.091115974 0.32891974 0.117891856 0.22457023
000180 cc 71 0d 3e 60 0a 93 bc 2a 16 d3 bd c2 a4 57 be
       0.13812941 -0.017949283 -0.10306962 -0.21058944
000190 9e e9 b6 3d 86 f2 0f ba 7c 0c b6 3d 8f c0 4a bd
       0.08931278 -0.0005491156 0.088891 -0.049500044
0001a0 89 ba 36 3e fc 1f d6 3d 84 91 c5 bd 46 8a 51 3d
       0.17844595 0.10455319 -0.096468955 0.05115726
0001b0 9d 12 27 bd 00 62 fe bc 11 16 a2 3c 0b 34 08 3c
       -0.040789235 -0.03105259 0.019785913 0.008313189
0001c0 fc 64 55 bc 56 bd cb bd 56 46 c8 3d e1 ba 0e 3e
       -0.013024565 -0.09948222 0.097790405 0.13938476
0001d0 7f 45 c8 3e 40 65 f7 bc 2b a8 60 3d 5f 13 4d 3b
       0.3911552 -0.030199647 0.054847877 0.0031292064
0001e0 8c ac a6 3d bc 36 20 3e 40 23 2c bd 61 3f ac 3e
       0.081383795 0.1564588 -0.042025805 0.33642104
0001f0 02 fb 1e 3e 6e c0 42 3e 51 79 6c 3d d3 eb 87 3e
       0.1552544 0.19018719 0.057732884 0.26547107
000200 0e 49 a5 3d 5d 94 bc bd 03 5e 4b be fe 60 9f be
       0.08070575 -0.092079856 -0.19860081 -0.31128687
000210 14 5d 3b bd 9b 63 67 be e1 3e 77 bd 09 0b d4 bc
       -0.045743063 -0.2259659 -0.0603627 -0.025884168
000220 0f 81 ab 3c 7e 03 d0 3d bc af b8 be 7f 5d d7 be
       0.020935563 0.10156916 -0.36071575 -0.4206352
000230 d7 db 36 be e9 2c 60 bc ec 4d 0e 3d 8c f3 ab bd
       -0.178573 -0.013682582 0.03474228 -0.08396062
000240 1e de 00 3d 48 3d be 3d ef 89 fa bc 28 f7 67 bd
       0.031461827 0.09289032 -0.03058335 -0.05663219
000250 77 08 a9 3d ad e2 04 3e 5f 12 94 3d 96 e6 a3 bd
       0.08253568 0.12977095 0.072300665 -0.08002965
000260 f5 9c 10 3c 8e 64 85 bc 5b 77 c9 3c 39 8f 58 3d
       0.008826484 -0.0162833 0.024593046 0.052870963
000270 13 85 a9 3d d6 98 5c bb b4 a0 58 3d 06 f0 ab bc
       0.08277335 -0.0033660433 0.052887633 -0.020988476
000280 ed aa a4 3d 8f c9 bf bd 0c e2 dc bd 67 20 89 bd
       0.08040414 -0.09364616 -0.107853025 -0.066956334
000290 ed 2f 8e bd a0 3f 7e 3d 7f df fd 3d c0 33 f6 3c
       -0.06942735 0.062072396 0.12396144 0.030053973
0002a0 79 0d 16 3d 73 ac 36 3e b6 2f e5 3d 8d 40 33 3e
       0.036633942 0.17839222 0.11190741 0.17505093
0002b0 a7 e5 a9 3e 5c 4e 53 3e d4 68 a4 3d c6 e1 cd 3d
       0.33183023 0.2063536 0.08027807 0.100528285
0002c0 31 45 02 bd 20 6b 1c 3e 9c 56 86 3d eb 5a 5a be
       -0.031804267 0.1527524 0.06559488 -0.21323745
0002d0 bd 7c e2 be 05 ed af be fe f3 b9 be 0a d8 24 3e
       -0.44235793 -0.3436052 -0.36318964 0.16098037
0002e0 1b 37 fe bd 32 92 41 bd 5a 93 5a 3e 8b 8c 07 bc
       -0.12412854 -0.047258563 0.21345273 -0.008273254
0002f0 5e 3e 37 be 92 4f 32 be 4b 93 91 bc fb 09 41 3c
       -0.17894885 -0.17413166 -0.01777043 0.011782165
000300 c6 b7 fb bd 42 03 3c be 14 61 7d bd 08 50 12 3d
       -0.122909114 -0.18360618 -0.06186016 0.035720855
000310 d5 55 8a bd 4a 3d d9 bd fc 40 02 be ce 4f 85 3a
       -0.067546524 -0.10607393 -0.12720102 0.0010170878
000320 2d 34 33 bd 4c fb 16 3e e8 04 2c 3d 18 fa 78 bd
       -0.04375093 0.147443 0.041996866 -0.060785383
000330 81 10 92 ba a2 b2 08 be 12 66 bc 3e 52 e9 bc be
       -0.0011143835 -0.13349393 0.36796623 -0.3689676
000340 1b 07 d3 be ad dc 99 be 2c 63 83 be da 70 ae be
       -0.4121636 -0.30051175 -0.256616 -0.34070474
000350 ce 65 8e be 95 dc 65 be 33 ef 00 be 5a 97 c9 bd
       -0.27812046 -0.22447427 -0.12591247 -0.09843321
000360 4f 54 58 be 14 6d 4e be cc 52 3f be 75 d8 4c bd
       -0.21125911 -0.20158798 -0.18683928 -0.050011117
000370 92 87 f0 bc 3f 7b 4e bb f4 56 1c bd 09 b9 34 bd
       -0.02936152 -0.0031506566 -0.038168862 -0.044121776
000380 1c 59 90 bd 66 e0 0f bd 17 33 2b bd bb 9f 60 bc
       -0.07048246 -0.035126112 -0.04179677 -0.013709958
000390 c8 53 67 bd e7 80 36 bd 45 15 dd bd 1c 9d d0 bd
       -0.056476384 -0.044556525 -0.107950725 -0.10186216
0003a0 e0 13 9c 3e fb 52 a8 3e 67 b0 da 3e e9 56 5d 3e
       0.30483913 0.3287581 0.4271271 0.21615185
0003b0 d9 e7 16 3e f7 65 6d 3e 0d 5d 7b 3e 2f 03 af 3b
       0.1473688 0.23183428 0.24547215 0.0053409557
0003c0 07 e8 7e 3d f4 97 6b 3e 39 4e ac bc 50 a3 09 3d
       0.062232997 0.23007184 -0.021033393 0.033603013
0003d0 cf 79 a4 3d 9e 90 96 3b 7d 23 08 be b9 b6 72 bb
       0.08031046 0.0045948764 -0.13294788 -0.003703518
0003e0 3c ca d3 3c e2 1f ac 3c e7 ba 32 bb 36 d6 ce bc
       0.025853269 0.021011297 -0.0027272047 -0.025248628
0003f0 1b ff 77 3d 10 ec dc 3c 9a eb fb 3d aa 01 b4 bd
       0.060546022 0.026968032 0.12300797 -0.0878938

classify.0.bias f4 [2]
000000 13 07 6b 3d 89 2d 2a bc
       0.057379793 -0.010386833
