lab2/models/EGGNet_ReLU.pth (torch, 20777 bytes, 17 tensors)

firstConv.0.weight f4 [16, 1, 1, 51]
00000000: 2674 e83d 7c02 373e 164f d03e f62d f03e
00000010: 32ac 713e e667 043e 7576 f23c 03b9 873d
00000020: 28de 333d 4e68 093c 6676 4cbd a584 063c
00000030: e3e8 3abe 654b a6be 0775 9dbe bed9 bfbe
00000040: d58b adbe 3b87 2dbe 05cb b8be 6a96 5dbe
00000050: 8ea0 0cbe f1c4 f5bc 784c 9a3c 4708 4cbd
00000060: 1f0e d33d d4ec 18be 9ff4 c3bd 7ba9 10bd
00000070: 96a8 fa3d 5f1f d43d fb34 fc3d 70a8 463d
00000080: 123a 603c d27f d439 6e61 1dbd 71e2 a73d
00000090: dba3 58bb a18f 853d 171a 233e b682 2abc
000000a0: 44b8 443e 378f 813e 43ad 1c3e 0ae9 d33d
000000b0: 3b1b b03d b723 73bb 723e 39bd 8a1b 923d
000000c0: 7037 203e ab34 1a3e 1580 bb3d a6af 7b3c
000000d0: f366 80bd 9e61 b33d 4427 693d 89ab 113e
000000e0: 20ea c43e 4450 3e3e 8ee3 82bd e167 0bbe
000000f0: 3255 63be 66b3 7ebe b616 63bd 4e68 ee3d
00000100: 7821 943c 3a7a 193e a08b 913d 8611 433e
00000110: 841a 953e 26d9 7d3d ebd2 6ebe 2bcc b4be
00000120: 3de3 96be d395 1b3d 5320 5e3d 7eb6 c93d
00000130: 04e7 ff3d ed5a 843d 8aee 363e 8725 e63d
00000140: 9f34 4d3e b1b0 0bbe cbac 1bbe 9101 86be
00000150: 7d74 2bbe 8cd5 09be 7b92 733e a03b 783e
00000160: 72f1 50bd a60c ee3c 0cf4 0b3c 27a0 8a3e
00000170: 8391 143e edd5 7cbd bec6 75be a66a 25be
00000180: 6b99 57be 1b79 debc b3f4 8a3e 40da 423e
00000190: fcfa 803d f379 793d 8c6a 513e 17e3 ff3e
000001a0: 5e5d 113f 0193 903e 8c29 423e a41b 963a
000001b0: cf06 7abe 2751 463e f0d3 e03e 6316 123f
000001c0: 1c48 8c3e 28fb 9bbd f371 ec3c 8c0e 063e
000001d0: 7cb3 703e 28e6 5a3e fc91 d2bd 5e96 85bd
000001e0: d63d 29be 3d57 493d 88c8 dd3c 8330 81bd
000001f0: 330f b0bc 8d10 bd3d cd80 163e 9206 153c
00000200: 2398 d63b 3a89 debd 85ce 70be a230 48bd
00000210: f0c7 85bc 432f 01be 6e69 703e f193 fdbc
00000220: a929 cc3c 63cc b5bd 0456 06be 7785 0d3e
00000230: a141 13bd 9849 783d 74a5 8bbe 0ad6 14be
00000240: 25ee b33d c220 4abd e8e2 56bd b15b c3bd
00000250: cd76 543e 0c9f 1f3e c806 b23e 51c1 953e
00000260: 77cc 793d a93e 1ebe 0ad9 1bbd b503 21bd
00000270: 1ad6 fbbd e0a2 d4bd cc79 013a b456 703e
00000280: 03f2 b13e 5964 063d 8549 a2bd 2b59 92be
00000290: 138c abbc 0e05 c03d 4214 4d3e 0c61 a33d
000002a0: 9773 c0bd ec20 37be ea8a 293e 9d1d 8a3e
000002b0: c66a 413d 83d5 01be 2d87 67be dd0f 09bd
000002c0: c308 913d 1ade 88bd 5b1f 7bbc 7146 c43d
000002d0: b5b0 e53d 5bb9 c0ba c168 36be 9ded f6bd
000002e0: c419 303d e8c5 ac3d 5325 ac3d df4c 37be
000002f0: 95b0 80be 9184 8f3d 21e1 cb3e f745 713e
00000300: e498 5bbe 822c f1be d5eb 16bd f026 ab3e
00000310: e1cb 903e 8ef2 95bd d521 c2be 2efc 8cbc
00000320: 989b 883e 0d5c 333e 7fcd e63d 7c94 adbe
00000330: a00f f4be 1e68 97be 1ac0 81be 6df9 8dbe
00000340: 0628 61be 5734 6bbe c70d 04be e1ba 6e3d
00000350: 5420 02be 5b55 e0bd 5598 a0bd 1b05 2e3d
00000360: aba6 f8bd f7b0 03bd 151a d83c efcf 38be
00000370: 683b 1cbe e183 89be adb5 2ebe 05b0 1cbe
00000380: 67da 36bd aed6 3cbd 2722 943d 6e99 fabd
00000390: ce51 ab3c 6936 c4bd 8f13 6ebd f49a 7fbd
000003a0: 8fb7 973d fac4 e7bd af0b 1f3c 61bc 76be
000003b0: ba8e 2abe 7b89 52be ffcf 53be e1b6 c9bd
000003c0: 2304 9fbc a9d7 51bd 4666 cbbc b913 8fbe
000003d0: a0f8 d6bd 3d3a 82be 8461 8cbe 6879 19be
000003e0: c117 973d 1f19 b3bd 6ed2 07be 2a9d 18ba
000003f0: a233 22be e9aa 45be c49c 9dbe 036e d53b
0.113502786 0.17872041 0.40685338 0.46910065 0.23600844 0.12930259 0.0295975 0.06627085
0.043913037 0.008386685 -0.0499176 0.008210336 -0.18252902 -0.32479396 -0.30753347 -0.37470812
-0.33895746 -0.16946118 -0.36092392 -0.2163941 -0.13733122 -0.030001136 0.018835291 -0.04981258
0.10305428 -0.14934093 -0.09568142 -0.03531788 0.122391865 0.10357546 0.12314793 0.04850048
0.01368572 0.00040531025 -0.038422994 0.08197487 -0.003305665 0.06521536 0.15927921 -0.0104071405
0.19210917 0.25304577 0.15300469 0.10347183 0.08598944 -0.0037100145 -0.045225568 0.07134159
0.15646148 0.15059154 0.09155289 0.015361702 -0.06269636 0.087588534 0.056922212 0.14225592
0.38459873 0.18585306 -0.06391059 -0.13613845 -0.22200468 -0.24873123 -0.05544158 0.11640988
0.018082365 0.14988032 0.071067095 0.19049653 0.29121792 0.061974667 -0.23322646 -0.35312018
-0.29470244 0.03798468 0.054230046 0.09849261 0.124952346 0.06462655 0.17864433 0.112376265
0.20039605 -0.13641621 -0.15202634 -0.2617307 -0.16743656 -0.13460368 0.23786347 0.24241495
-0.05101151 0.029058766 0.008542072 0.27075312 0.14508633 -0.061727453 -0.24001595 -0.16153964
-0.21054618 -0.027157357 0.27139816 0.19028568 0.062978715 0.060907315 0.204508 0.49977943
0.5678309 0.28237155 0.18961161 0.0011452329 -0.2441666 0.19366895 0.43911695 0.5706541
0.27398765 -0.07616264 0.028862929 0.13091487 0.23505968 0.2137686 -0.102817506 -0.06522821
-0.16527495 0.049155463 0.02707316 -0.06308081 -0.021491623 0.092316724 0.14697571 0.009095805
0.006548898 -0.10866018 -0.23516281 -0.048874505 -0.01633069 -0.12615685 0.23477718 -0.030954333
0.024922209 -0.08876874 -0.1311875 0.13820444 -0.03595126 0.06061706 -0.27274668 -0.14534774
0.08785657 -0.049347647 -0.05246249 -0.09538973 0.20748444 0.15588015 0.347708 0.2924905
0.06098601 -0.1545359 -0.03804878 -0.039310176 -0.12296696 -0.103826284 0.00049391086 0.23470575
0.34754953 0.032810543 -0.07924179 -0.28583655 -0.020940816 0.09375964 0.20027259 0.079774946
-0.09397047 -0.17883652 0.16556898 0.26975718 0.047220968 -0.12679105 -0.22610159 -0.033462394
0.07081749 -0.066829875 -0.0153273 0.09583748 0.11215345 -0.0014703678 -0.17813398 -0.1205704
0.042993322 0.08436185 0.084055565 -0.17900418 -0.2513472 0.07007707 0.39820197 0.23561846
-0.21445042 -0.4710427 -0.036846 0.33428144 0.28280547 -0.07321654 -0.37916437 -0.017210092
0.2668121 0.17515583 0.11269664 -0.33902347 -0.4766817 -0.29571623 -0.25341874 -0.2772936
-0.21987924 -0.22969185 -0.1289588 0.05828369 -0.12707645 -0.1095378 -0.07841555 0.042485338
-0.121411644 -0.03215119 0.026379624 -0.1804807 -0.15257037 -0.26858428 -0.17061491 -0.15301521
-0.04464188 -0.046103172 0.072330765 -0.12236296 0.020913031 -0.095806904 -0.05812412 -0.062403634
0.07408058 -0.11316867 0.009707375 -0.24095298 -0.16656008 -0.20560257 -0.20684813 -0.098493345
-0.019411152 -0.05123106 -0.024829041 -0.27944735 -0.1049664 -0.25435057 -0.2741815 -0.14987719
0.073775776 -0.08745026 -0.13263866 -0.0005821759 -0.15840009 -0.19303478 -0.30783665 0.0065133586

firstConv.1.weight f4 [16]
00000000: 4190 2d3f 3a7c a63d 1ad8 123f 0143 023f
00000010: 18b5 fb3e 92aa 083e 4ee3 7b3f fe17 123f
00000020: c0cf 403f e80e ea3e 7439 023f 2b51 523f
00000030: 78f4 933e 0167 2f3f 4996 a43e 472a dc3e
0.6779824 0.08129163 0.57360995 0.5088349 0.491616 0.13346317 0.98393714 0.5706786
0.75317 0.45714498 0.50868917 0.821551 0.28897452 0.68516546 0.32145908 0.43001005

firstConv.1.bias f4 [16]
00000000: f6b1 82bc bdaf 343e 8e1e 793c 588e 833e
00000010: 1ab7 3ebd b507 4cbe 755a c4bc c04a 263c
00000020: 2732 d4bb 51b7 b03d 184c b03d 8fbc 34bb
00000030: 22c6 87bd 7309 01bd 9ba7 d0bd 7dac 3bbd
-0.015953999 0.17645164 0.015205039 0.25694537 -0.046561338 -0.19924815 -0.023968915 0.010149658
-0.006475705 0.08628715 0.08608264 -0.002757821 -0.06629588 -0.031503152 -0.10188218 -0.045818795

firstConv.1.running_mean f4 [16]
00000000: d4e5 9abd bdfe 12bd 057e d3bd f02d 78b9
00000010: bb70 883e c512 b43b 9f8f 5abd 7b96 16bc
00000020: a94d fb3b 22a7 5f3e 5b3d 38bd c592 8c3c
00000030: f33c 7abe 5f11 19be 2930 993b b6fd 923d
-0.075633675 -0.03588747 -0.10326771 -0.00023668236 0.26648507 0.0054954016 -0.053359624 -0.009191151
0.00766917 0.218411 -0.044980388 0.017159829 -0.24437313 -0.14948033 0.0046749306 0.07177298

firstConv.1.running_var f4 [16]
00000000: 3cda 0543 8a5a c942 2eef 8c43 d4db b341
00000010: eee4 0444 4e3d 7841 4b5c 0d43 72e6 3342
00000020: 89b2 5d41 6a34 e043 469d 2e43 bf27 fb41
00000030: d648 ce43 169c 0744 6e72 5e42 a6e5 4443
133.85248 100.676834 281.8686 22.482338 531.577 15.514967 141.36052 44.975044
13.856088 448.4095 174.61435 31.394407 412.56903 542.43884 55.611748 196.89706

depthwiseConv.0.weight f4 [32, 1, 2, 1]
00000000: 25f6 2d3f 244d bdbe bfc4 083e 4ad8 80bf
00000010: 875b 7b3e 097f 28bf 4f42 e03d ddd3 e23e
00000020: 45e2 1bbf 49d1 233f 1b77 28bf 17d5 cbbe
00000030: 684c 1cbf a9f0 103e 7f7d 1c3f 1fed 69be
00000040: f2aa 26be 0c15 063f b01a b13e 7eca 2fbf
00000050: 9c69 9cbd 7d9b 1d3f 883f d6bd 4721 233f
00000060: 4c33 8ebc 6b60 38bf c91c 0bbf 2b00 2e3f
00000070: 6b7f fabe ca31 a63e 5b0e 9cbe 9842 393e
00000080: ba90 153e 38c7 e8be 8e2c 1bbe 593d 253f
00000090: e35e 18bc 706b 6e3f 7e0f 13bf 7b49 29bd
000000a0: d0dc 20bf 1ea8 083e 658f a2be 6ef4 043f
000000b0: daf5 4d3f ab2e 0bbe b457 4a3e b069 11bf
000000c0: 031e fabe 27da 023e 9e62 9f3e 013a dcbe
000000d0: e633 863f 5f1d 093d 7138 293e 7ad6 d0be
000000e0: d96a 0ebf 7d67 f93e c59e 03bf 5b26 543e
000000f0: 5b00 35bf 61ad febe 1e68 eebe 8bbc 8e3e
0.6795371 -0.36972916 0.13356303 -1.0066006 0.24546634 -0.6581884 0.10950147 0.44302264
-0.60892135 0.6399122 -0.6580674 -0.39811012 -0.61054087 0.14154305 0.6112899 -0.22844361
-0.16276148 0.52375865 0.34590673 -0.68668354 -0.07637331 0.6156538 -0.104613364 0.6372265
-0.017358445 -0.7202212 -0.543408 0.67969006 -0.48925337 0.3245986 -0.30479702 0.1809181
0.1460599 -0.45464492 -0.15153715 0.64546734 -0.0092999665 0.93132687 -0.57445514 -0.041329842
-0.62836933 0.13345382 -0.31750026 0.5193547 0.80453265 -0.13592021 0.19760019 -0.5680189
-0.48851022 0.12778531 0.31129926 -0.43013003 1.0484588 0.033475276 0.16525437 -0.40788633
-0.55631787 0.48711768 -0.5141414 0.20717756 -0.7070367 -0.49741653 -0.4656381 0.27878222

depthwiseConv.1.weight f4 [32]
00000000: 7981 793f 96c8 573f 8137 3a3f 43b6 103f
00000010: 4b5a 4b3f b188 933f 4b1c 513f 10ed 573f
00000020: 7a3f 703f 0a7e 553f 25ea 283f 972b 343f
00000030: 31ec 883f b8fa 643f 8f1b 413f c64c 3b3f
00000040: 40d6 733f 50bc 4c3f 1f89 853f 15aa 7b3f
00000050: c39e 803f c637 683f e135 6e3f e8e4 613f
00000060: 2941 563f c743 8b3f 67b7 8f3f 782b 4d3f
00000070: 6f14 4f3f d8d9 4a3f 69d8 373f 554e 543f
0.97463185 0.84290445 0.7274094 0.5652811 0.7943465 1.152609 0.81683797 0.84346104
0.9384686 0.83395445 0.65982276 0.7037901 1.069708 0.89445066 0.75432676 0.7316402
0.95248795 0.7997484 1.0432471 0.983064 1.004845 0.90710104 0.9305096 0.8823991
0.83693177 1.0880059 1.1227845 0.80144453 0.80890554 0.79238653 0.7181459 0.82932025

depthwiseConv.1.bias f4 [32]
00000000: d13d f8be 3404 b2be 94f9 7fbf 0b96 09bf
00000010: 83f9 d33e 8a9b 52be 0983 17bf 4d6b f5be
00000020: 109b fcbe 890b f03e 7787 35bf 03ca 3fbf
00000030: 9f4b 7abe fd79 443e b6e8 0fbf 6966 19bf
00000040: 4a76 01bf 90c1 e1be 34f5 68be 4a46 fcbc
00000050: 0f51 ebbe 4576 9b3d 7b27 10bf a406 0fbf
00000060: 45f0 043e 013e f5be ecc9 a5bc 0d0a ac3e
00000070: 2b9f 1fbf c1ad 21bf 2c3a 64bf 4d9b fbbe
-0.48484662 -0.34768832 -0.999902 -0.5374457 0.414013 -0.20567146 -0.5918432 -0.47933426
-0.49337053 0.468838 -0.7090983 -0.7491762 -0.2444291 0.1918716 -0.56214464 -0.5992189
-0.5057112 -0.4409299 -0.22749788 -0.030795235 -0.4596028 0.075909175 -0.5631024 -0.5586951
0.1298228 -0.47898868 -0.020237885 0.33601418 -0.62352246 -0.6315575 -0.89151263 -0.49141923

depthwiseConv.1.running_mean f4 [32]
00000000: 1a56 2cbb ff3c 5d3c c548 91bd 2fcf c43d
00000010: a6e5 b3bb b04c 95bc d2ae f5bd 89cf c73d
00000020: 6cd9 65bc f28d 343c 7d91 dcbd 1359 dcbd
00000030: a584 b13c faa3 37bc 8f80 09bb a46a c3ba
00000040: 8a65 d33a a839 2fbb eb8a ac3d 99ab 51bd
00000050: cf7b 37bd ac48 783c c3b1 3dbb f49c 9dba
00000060: 15da b63c aec5 0b3c bae6 e5bc 5508 323c
00000070: 2dba e93b 5c94 003d b2c5 6a3d 271e 2b3c
-0.0026296438 0.013503312 -0.07093958 0.0960983 -0.0054900227 -0.018225044 -0.11996235 0.09756381
-0.014028888 0.0110201705 -0.10769937 -0.10759177 0.021669695 -0.011208529 -0.0020981168 -0.0014909101
0.0016128283 -0.0026737247 0.08424934 -0.05118904 -0.044795807 0.015154045 -0.0028945066 -0.0012024925
0.022320786 0.008531017 -0.02806412 0.010866244 0.0071327896 0.031391487 0.057317443 0.010444201

depthwiseConv.1.running_var f4 [32]
00000000: 6d23 e23d 8585 c63e bfad 003b c4a6 f93a
00000010: 46b6 b93d b9da 9a3e 2ec9 a23d e67b 983d
00000020: 4635 4e3d fbea 9b3d 15c3 c53b 7536 d13b
00000030: 2fbf 053f ae78 8b3e 357a 4f3d 1ee7 a13c
00000040: 2c11 bb3d 6949 443e 0830 3d3e 7a07 973d
00000050: 085f 9e3d faf7 1e3d 3760 c53e 59d7 233e
00000060: 4bb4 663c 8122 103c ab5e 063f c8be 4f3d
00000070: 4a47 ab3c 1b3a 893c c9c1 6c3e 44b4 b53c
0.11041913 0.38773742 0.001963481 0.0019046892 0.09067969 0.30244997 0.07948528 0.07445507
0.050343774 0.07613178 0.0060352185 0.0063846656 0.5224485 0.2724051 0.050653655 0.019763526
0.09134135 0.19168629 0.18475354 0.07374473 0.077329695 0.038810708 0.3854997 0.16000117
0.014081071 0.008797289 0.524882 0.050719053 0.020908017 0.01675134 0.23120798 0.022180684

separableConv.0.weight f4 [32, 2, 1, 15]
00000000: 525f 193c 8b91 0cbb a964 133e 85ed 5cbb
00000010: 4e51 46bd 369f f2bd 93c8 5c3e 01c4 8f3e
00000020: 6399 e1bd 1180 4b3e 3f72 493e 90eb 313e
00000030: 28f6 413e 5cb3 2f3e ede9 2b3e 3c05 1ebd
00000040: 90ee 3d3e 0fb5 bdbc eb4c dcbd 397f d6be
00000050: 1427 b0be 940b eebe 5d90 9abe 19a2 57be
00000060: db44 b0be 79aa 24be 51a7 b6bb eb36 77bd
00000070: a305 81bd 1c64 963d cf99 92bd 4900 bfbd
00000080: a6cc 30be fa43 84be 3c78 523e e9c1 4f3e
00000090: 3a1c 703b 3a66 293f ef80 17bf 2f0c a4bc
000000a0: 7b5c 45bd 66fe cfbd e6b8 1c3e 6b4c 1dbd
000000b0: 73f1 383b d15e 9cbe 6e34 13be dad3 3bbe
000000c0: 6b79 233c 1e33 7b3d 4231 d33c 2c00 f9bc
000000d0: 593c 5a3d c868 3dbb ece8 103d 28e9 06bd
000000e0: 7a9a 8fbd e8ff acbd 92f0 75be 4e51 df3b
000000f0: adb3 9ebe 320a 313e eb7e d43e 549b 0bbf
00000100: 30d1 703e a036 ec3d b7f0 24be da7b 0bbd
00000110: 3a66 9c3d 1ef7 c93c 99a2 ebbc 68a1 9b3e
00000120: 4717 5abe 3c61 853e 9228 033f e622 ec3d
00000130: 188a 7e3e 5fa3 f3bc d342 72bc b92c 66bd
00000140: 6134 cd3d 6d5c bc3c afe5 50bc 802d 06bd
00000150: 1352 783d d963 c9bd ffa3 debd cb7a 1f3e
00000160: 92c5 99bd 609d ecbd 557e d8bc cdfa ed3d
00000170: 57fc e4bd 480d c23d 9891 123e d6f9 be3e
00000180: 5e76 013e a954 dc3d 67f5 aabe e01f cc3e
00000190: c7ce 063e 0bff 61be 269d 8bbe 8dca 253e
000001a0: 4f90 123f 84ef 773d af97 19be 9625 a1be
000001b0: a7fc 3f3d e302 d8bd 8dd7 febd e0b6 cdbb
000001c0: 4ff4 25be 7a42 c7bd 368f 31bd 0d42 3dbd
000001d0: 4b92 35bd 30e0 21bd 5d3a e0bd 9f96 3e3e
000001e0: 90d7 323e a747 3bbe 65cc 0ebd 612d c73e
000001f0: feb4 acbd 6fe0 20be 4403 a5bd c33a dbbd
00000200: 32fd 2cbe 1b73 f7bc 1166 d73b 8de4 703d
00000210: 18d8 98bd 23c7 8a3e e0eb 553e 930c 4dbe
00000220: 706b 5b3d 3847 b5bd a77a 863e 0774 5c3e
00000230: 6103 2d3e 45e1 cb3d 742d 10ba ed93 92be
00000240: 7337 d2be c044 c2be 5325 d9be 4552 b2be
00000250: c6dc adbd 456c ae3d 8227 c73e 3030 b63d
00000260: 204d 36bb e2af c63d 0024 bd3c 972e 083c
00000270: fc4f 9abd 1a03 e1bb 3475 4bbd ffba 2cbb
00000280: 195a ec3c 2661 1b3e 498e 6e3e 6ac2 ff3d
00000290: 9287 103e ea67 b3be c693 5ebe da8a 1bbe
000002a0: 9268 893d d012 ffbd 24cc 843d fee7 b93d
000002b0: 3114 b4bd f845 7abe 92b6 a0be 7bf0 9dbe
000002c0: 185d b0be e5ad cabe 16e4 cebe e23a 79be
000002d0: 4384 f63d d36d 85bd ad22 423e 32c9 0b3f
000002e0: d7a7 7cbd 855d 483d e5b8 d13c 9343 59be
000002f0: c24c 423e 40bc 203c bc72 20be bb94 b83e
00000300: e896 7fbe 0581 ae3e b875 00bd 2d4e 77be
00000310: a2fc 17be e3c7 0e3c 1002 363d 80ca a6bc
00000320: 3fa0 953e 41ff 853d 791e 5f3c b09c 3abd
00000330: 0086 c53e 258a 02be 0cf5 8bbe ed6d 443b
00000340: df54 c73d 5e33 51bd ff4d 79bd 6434 aabd
00000350: 0de3 6ebd 1a12 0ebe a48a 23be d0ee 3dbe
00000360: 7565 a3be 3d42 b1be 5e7b e0be 4a9e 96be
00000370: a20c 78be f7e5 b7be 9bd7 09bd 8d4e 683d
00000380: 899c c8bd ee37 bcbd 0213 2fbe 9f77 8abe
00000390: 2e08 26bd 573c aabe 3bdb 08be b202 15be
000003a0: 3c5f 9abe 4094 95be 2e38 b6bd 92a9 77be
000003b0: 07d4 66bd 2592 aa3d 9880 cfbd b3ab 77bd
000003c0: f5d3 b03e f240 b23e 9c29 623e 85f1 ab3d
000003d0: 7e4d 293e fcd7 3e3e d69d 583e 0bbf d73d
000003e0: 5572 c63d d434 c039 85b9 363e fe36 213e
000003f0: 1234 423c 4e16 a23c cb61 44be cafb 89ba
0.009361105 -0.0021449055 0.14393868 -0.0033710909 -0.048417382 -0.11846773 0.21560888 0.28079227
-0.11015584 0.19873072 0.19672488 0.17375016 0.18941557 0.17158264 0.16788454 -0.03857921
0.18548036 -0.023157625 -0.107568584 -0.41893938 -0.34404814 -0.46493208 -0.30188265 -0.21057929
-0.34427533 -0.16080655 -0.005574145 -0.06035511 -0.06299903 0.07343313 -0.07158243 -0.09326226
-0.17265567 -0.25833112 0.20553678 0.20288815 0.0036637918 0.6617161 -0.5918111 -0.02002534
-0.0481839 -0.101559445 0.15304908 -0.038402956 0.0028220087 -0.3054109 -0.14375469 -0.18342534
0.009977679 0.061328046 0.025780324 -0.03039559 0.05328021 -0.0028901566 0.03537838 -0.0329372
-0.07011886 -0.08447248 -0.24017552 0.006815112 -0.30996457 0.17289045 0.4150308 -0.54533887
0.23517299 0.115338564 -0.1610745 -0.03405366 0.07636686 0.024653967 -0.028764056 0.3039658
-0.21297942 0.26050746 0.5123378 0.11530094 0.24857366 -0.029740987 -0.01478644 -0.056194995
0.10019756 0.02299329 -0.012750073 -0.032758236 0.060625147 -0.098334976 -0.108711235 0.15574186
-0.07508387 -0.115534544 -0.026427427 0.11620102 -0.111809425 0.094751894 0.14313352 0.37299985
0.1264281 0.10758335 -0.33390352 0.3986807 0.13164817 -0.22069947 -0.27268332 0.16190548
0.5725145 0.060531154 -0.14999269 -0.31473988 0.046871807 -0.105474256 -0.12443457 -0.006277904
-0.16206478 -0.09729476 -0.043349467 -0.04620557 -0.04432897 -0.039520442 -0.10948632 0.18612145
0.17465043 -0.18289052 -0.034862895 0.3890181 -0.08432959 -0.15710615 -0.080572635 -0.10704567
-0.16893461 -0.030206254 0.0065734466 0.058811713 -0.074630916 0.27105054 0.2089076 -0.20024328
0.053569257 -0.088514745 0.2626545 0.21528636 0.1689582 0.09955076 -0.0005499937 -0.28628483
-0.4105793 -0.37943077 -0.4241129 -0.34828392 -0.08489375 0.085167445 0.3889733 0.0889591
-0.0027816966 0.09701516 0.023088455 0.008311889 -0.07534787 -0.006866825 -0.04967232 -0.0026356576
0.028851556 0.15173778 0.23296465 0.124882534 0.14114216 -0.35040218 -0.21736059 -0.15189686
0.06709398 -0.1245476 0.06484249 0.09077452 -0.08792914 -0.24440753 -0.3138929 -0.30847535
-0.34446025 -0.39585796 -0.4040839 -0.24338868 0.12036946 -0.06515088 0.1895854 0.54603875
-0.061683502 0.048917312 0.02560086 -0.21217184 0.18974593 0.009810507 -0.15668768 0.36050972
-0.2495991 0.3408281 -0.031362265 -0.24150915 -0.14842466 0.008714649 0.04443556 -0.020360231
0.2922382 0.065428264 0.013618105 -0.045559585 0.38578796 -0.1274801 -0.27335393 0.0029972747
0.09732985 -0.05107438 -0.0608654 -0.08310774 -0.058322 -0.13874093 -0.15970856 -0.18548131
-0.31913343 -0.34620848 -0.43844122 -0.2941764 -0.24223569 -0.35917637 -0.033652883 0.056715537
-0.09795482 -0.09190355 -0.17097095 -0.2704439 -0.040535145 -0.3324916 -0.1336488 -0.1455181
-0.30150783 -0.29214668 -0.08897434 -0.2418578 -0.05635455 0.08328656 -0.10131949 -0.06046648
0.3453671 0.34815174 0.22086185 0.083956756 0.16533467 0.18637079 0.2115396 0.105344854
0.09689776 0.00036660454 0.17844208 0.15743634 0.011853235 0.019786026 -0.1917793 -0.001052731

separableConv.1.weight f4 [32]
00000000: 2d89 943f 55d8 9c3f e432 a83f 9b22 b83f
00000010: aeeb a13f 536e 833f 487b a63f 0dde a53f
00000020: d13f 553f 7741 ac3f ae83 a23f c244 9f3f
00000030: 771c a63f a6b6 9b3f 2ec0 ab3f 0493 be3f
00000040: e34e ad3f 40c3 a43f e485 903f 7ee8 993f
00000050: 974f bd3f 3449 893f 868e 8f3f 4119 a13f
00000060: 1eef 793f c5e9 a43f a905 aa3f cd89 943f
00000070: c1e7 b03f 3d54 983f a85d a53f a268 8e3f
1.1604363 1.2253519 1.314053 1.4385561 1.2650049 1.0268043 1.3006372 1.295839
0.833005 1.3457478 1.2696435 1.2442858 1.2977437 1.2165115 1.3418024 1.4888616
1.3539699 1.2872086 1.129086 1.2024076 1.4789914 1.0725465 1.121537 1.2585832
0.9763049 1.2883841 1.3282977 1.1604553 1.3820726 1.1900707 1.2919207 1.1125681

separableConv.1.bias f4 [32]
00000000: ed71 a1be 2a72 f9be 5f3a 86be 3a3e d5be
00000010: f261 ccbe b84d 52be 5abc e2be 1290 07bf
00000020: 99cd 48bb 6730 0dbf 2d36 89bd 1e44 acbd
00000030: 8a3d f1be a9da e1be ff2a c1be f4a5 10bf
00000040: ae75 00bf 4228 87bd 50d2 c5be 16d9 c7be
00000050: 678c 14bf 7e37 00bf 1dae debe 8800 c1be
00000060: 53bb 8dbe d56f 0cbf cfcd 21bf 8e3e d5be
00000070: 9186 09bf f1b1 b0be 2e19 d3be 3b1c 05bf
-0.3153223 -0.48719913 -0.2621641 -0.41649038 -0.39918476 -0.2053746 -0.44284326 -0.5295421
-0.0030640124 -0.5515198 -0.06699786 -0.0841143 -0.47117263 -0.44112137 -0.37728116 -0.56503224
-0.50179565 -0.065994754 -0.38637018 -0.3903281 -0.58026737 -0.50084674 -0.43492213 -0.37695718
-0.2768198 -0.5485814 -0.63204664 -0.41649288 -0.5372096 -0.3451076 -0.41230148 -0.519962

separableConv.1.running_mean f4 [32]
00000000: 752c 1cbe a279 37be 6d4c 1d3d e981 133a
00000010: c158 adbe dd9a a2be ab7d e03d a249 19bf
00000020: 6b35 463f 5fc6 d2bf 26e8 d73c 2eef 8c3c
00000030: 4404 cebf c51b a5be 268c cabe dc25 c7bd
00000040: 6c54 1dbf c122 153e 8132 6abf 029f 5c3c
00000050: c3dc 16bf 4bd9 f4bd b3c3 a4be 0595 cfbe
00000060: d55f 033f 977b 16be ab35 12c0 1129 abbf
00000070: 5da8 853c 50e7 173c cf03 55ba 625e 67bc
-0.15251334 -0.17917493 0.038402963 0.0005626963 -0.33856776 -0.31758776 0.10961469 -0.5987798
0.7742526 -1.6466788 0.026355814 0.017203894 -1.6095052 -0.3224775 -0.3956005 -0.09724018
-0.6145694 0.14564039 -0.9148331 0.013465645 -0.58930606 -0.11955508 -0.32180557 -0.4054338
0.51318103 -0.14695583 -2.2845256 -1.3371907 0.016315633 0.009271458 -0.00081258727 -0.014121624

separableConv.1.running_var f4 [32]
00000000: 5766 ef3e 3207 743e 74b0 a53d 1012 e23c
00000010: 9a37 9a3f b9d3 0840 4d56 9e3d ac57 a73e
00000020: 8497 703f 6e84 1440 461d 173d 6d2f 853c
00000030: 0a3e e23f c7b3 483f 7ace 983e 31ac e33d
00000040: 4cea bd3e fc28 fb3d 356d c43f 460b 1640
00000050: b337 173f 4f2d b73e 631e 923e d50b 863e
00000060: 3d0b 783f 3582 5c3f f4f2 8e40 23a5 ca3f
00000070: bc77 d83d c07c 7e3d 3999 c23d 590b c23d
0.46757767 0.2383087 0.080902964 0.027596503 1.2048218 2.1379225 0.07731304 0.32684076
0.93981194 2.3205829 0.03689315 0.016257966 1.7675183 0.7839932 0.2984503 0.11116827
0.37092817 0.122636765 1.5345827 2.344438 0.59069365 0.35776755 0.28538808 0.26180902
0.9689215 0.8613618 4.4671574 1.5831646 0.105697125 0.06213069 0.09501881 0.09474821

classify.0.weight f4 [2, 736]
00000000: 232f 633e f97a 1dbf 8af7 1abe 5105 c0be
00000010: 4a87 7abe f4be 7abe 210e 063e afe8 033e
00000020: b8c3 5c3e 0e7b 7abd 471a c7be ab0b 82bd
00000030: 0e9c f43d f186 a6bd ad7c 26bc 1f51 32bd
00000040: d19f 17be ecc7 d4bd 4bb9 9b3b 2511 37be
00000050: c08c 00be 2b25 d1bc 2151 3e3e ab08 983e
00000060: d318 f1be b8d2 c2be 9d18 213e c086 e53c
00000070: 80eb 3dbd 7e6c 68bd 2cd9 2f3e 2f39 37bd
00000080: 0f9a 153c 7ba4 d8be ddd2 a9bd 93a0 64be
00000090: ee58 4c3e fbaf 70bd 9841 a6be d77f 84be
000000a0: 38b0 abbe 7cc6 8ebd 1131 e83d 0158 74be
000000b0: 730c 62bd e984 ab3d c355 093e 4df0 52be
000000c0: b1d2 0c3c 9d61 1bbd 42e0 eebe 629c 22bf
000000d0: 45b4 08be df33 29bf 2479 9d3a f478 1ebf
000000e0: 0c23 9dbe b91e 43bf 6691 21bf 279d 7b3b
000000f0: 6f98 e03c 60bc 8c3c 05d7 0bbd 41fb 7cbd
00000100: 3146 40bc a5db 0e3c 51b4 d2bb 88d4 3cbd
00000110: 3c0e ca3b dc87 223e df24 f73d 09b5 803d
00000120: 07bd c9be fc25 2bbf b3c4 32bf 32d8 9fbe
00000130: 5c28 d8be 9569 08bf f26b 1dbf 81bc 02bf
00000140: 5b13 0abf b5b7 42bf b56b e5bd 9894 a13d
00000150: c0d8 6a3c dd9c a53c 7f89 54bd 43af 773d
00000160: 394c 813d 1213 f03b c815 3cbd 742e 683c
00000170: b0a2 2a3e cc67 e63e 80ab bcbd 420d f7bd
00000180: bb67 c53e 54b6 b2bd 76fe 763e 8423 0e3e
00000190: 62fd 5abc fb83 5ebe 1f56 83be 254d bfbd
000001a0: dbfd 263d 4e03 bfbe b7dc 513e 43ee 1a3e
000001b0: 8d4a ecbc 6ef4 87bd c35b 803d 9a18 19be
000001c0: c1a8 ca3d 4491 2dbe 8015 773d 969f 933e
000001d0: 40b7 c43e 3df9 d53c 982f bb3c 0dd0 603e
000001e0: 1fa9 f0bd ddbf ce3d a531 34be d9a0 313d
000001f0: 268b 91bd 3f80 16be 3d37 d63d b181 22bd
00000200: 2c34 8ebe 8f9b 3b3e 0687 a23e 98f2 fc3c
00000210: ac23 173b 2d60 0a3e de4a 713d 1b32 363e
00000220: ea9c 5dbd 70e6 353e f8f2 5e3f 8abe 733e
00000230: 7ab3 30bd 2a3c 103e b811 3a3e 9d1d de3e
00000240: 116f d73d 60a5 ce3d ab34 32be 17d4 c5bd
00000250: 2720 c6be 928c 9bbe dee1 15be 9521 36be
00000260: 7d6c 663d ed30 9ebc 98ef 94bd 548c f1bc
00000270: 35e4 643d c426 5d3d 1e00 433d 927e ff3d
00000280: 5617 07bd d642 81be d9b0 a8be f7ba 53be
00000290: f16e 83bd 18a9 09be 444c 0abe 6648 2cbe
000002a0: 3068 0ebe 64c2 4f3d f249 85bd 72e3 1d3e
000002b0: f6f9 b13e fcb3 a3bd 1b15 9abd fb63 b7be
000002c0: ea95 d23e 7401 853e 4b6b a23e 020c 3e3e
000002d0: 76e3 0dbf 432a 47be 78f2 6cbc 35bc d93e
000002e0: 04e8 f43d ee0c 783e 5e44 623e 19b0 ce3c
000002f0: 1014 5c3d 243d 083e 0766 813d 0d78 0fbe
00000300: ac4d adbd c457 59bc 9e9f 23be 135b ba3d
00000310: a947 e5bd d0cc 7bbe faac 1d3e 7943 543e
00000320: 4c1d 0a3d c9a3 923d 55cc 993d 29b4 843d
00000330: 3193 d2bb a83c cebd 29ce c63c f0fa bfbe
00000340: a1f2 02be 22ac 47bd deed 7dbe ab41 5abe
00000350: 601f 5d3d 6d82 c63d baec 273d 4f94 543c
00000360: 9570 9a3d 81ac 3a3e 773e 15be 13d3 99be
00000370: 40e5 b33e da94 813e c601 753e 59b5 07bf
00000380: 4454 d4be e234 453e 7286 a23e a119 93be
00000390: d058 c6bc 1ea3 afbc 088f dfbe c6ad 1cbf
000003a0: d049 cfbe 1046 95bd f50e 033e e737 3b3d
000003b0: eabf b43d ea9a cf3d f0a8 993e 9a69 17bd
000003c0: 9584 593e c72b 003e f8a8 cd3e 8b13 6639
000003d0: cae2 9c3d 0db0 4ebd 5ac7 e13d 3c53 993d
000003e0: 7bf2 0abd 707b 993c b3ee 97bd d1b9 013d
000003f0: 6fda 9e3c 74c0 e6be 4167 15bf 7f2d c6be
0.2218595 -0.61515766 -0.15133491 -0.37504056 -0.24465671 -0.24486905 0.13091327 0.1288173
0.21559036 -0.06115251 -0.38887236 -0.06349882 0.119438276 -0.08131207 -0.010161561 -0.043534394
-0.14807059 -0.103896946 0.0047523133 -0.17877634 -0.12553692 -0.025530418 0.18585636 0.29694113
-0.47089252 -0.3805139 0.15732045 0.028018355 -0.04636717 -0.05674409 0.17172688 -0.04473227
0.009130969 -0.4231299 -0.08292172 -0.22326879 0.19955799 -0.058761578 -0.3247192 -0.25878784
-0.33532882 -0.06971452 0.11337484 -0.23861696 -0.055187654 0.0837496 0.13411622 -0.2059948
0.008595155 -0.03793489 -0.4665547 -0.6351987 -0.13350017 -0.66094774 0.0012014252 -0.6190331
-0.306908 -0.76218754 -0.63112485 0.003839323 0.027416436 0.017179668 -0.034140605 -0.061763052
-0.011735485 0.0087193595 -0.006430187 -0.046101123 0.0061662477 0.15872139 0.120675795 0.0628453
-0.3940203 -0.66854835 -0.6983139 -0.3121963 -0.42218292 -0.53286105 -0.61492836 -0.51068884
-0.53935784 -0.76061565 -0.11202184 0.0788967 0.014333904 0.0202164 -0.05188894 0.060469877
0.063133664 0.007326492 -0.04591921 0.014171232 0.16663623 0.45001066 -0.092123985 -0.120630756
0.38555703 -0.087261826 0.24120507 0.13880736 -0.013366075 -0.21730034 -0.25651643 -0.09340886
0.04076944 -0.3730721 0.20494352 0.15129952 -0.028844142 -0.06638418 0.06267502 -0.14950791
0.098954685 -0.16949946 0.06032324 0.28832692 0.3842106 0.026119823 0.022849843 0.21954365
-0.11751007 0.10095189 -0.17597063 0.043366287 -0.071066186 -0.1469736 0.104597546 -0.039674465
-0.2777418 0.1832106 0.3174364 0.030877396 0.0023062034 0.1351325 0.05890929 0.17792551
-0.054104723 0.17763686 0.8708949 0.23803154 -0.043139912 0.14085451 0.18170822 0.43381968
0.10519231 0.100901365 -0.17402904 -0.096595936 -0.38696405 -0.30380684 -0.14636943 -0.17786248
0.056255806 -0.019310439 -0.072722614 -0.029485859 0.055881698 0.053992048 0.047607534 0.12475313
-0.03298124 -0.25246304 -0.32947424 -0.2067679 -0.06417645 -0.1344341 -0.13505656 -0.16824493
-0.13906932 0.050722495 -0.065082446 0.15418795 0.34761018 -0.07993314 -0.07523557 -0.35818467
0.4113 0.2597767 0.31722483 0.18559268 -0.554252 -0.19449715 -0.014462106 0.42526403
0.11958316 0.24223682 0.22096393 0.025230454 0.05373007 0.13304573 0.06318288 -0.1401064
-0.0846208 -0.013265554 -0.15978858 0.09099402 -0.11195309 -0.24589849 0.15398017 0.20728864
0.033719346 0.07160146 0.07509676 0.06479675 -0.006426238 -0.10070163 0.024268227 -0.37496138
-0.12787868 -0.048748143 -0.2479777 -0.21314113 0.053985 0.096928455 0.040997244 0.012974813
0.075410046 0.18229868 -0.1457461 -0.3004385 0.3513584 0.25308877 0.23926458 -0.5301109
-0.4147054 0.19258454 0.317432 -0.2873049 -0.024212271 -0.021440085 -0.43663812 -0.6120266
-0.40486002 -0.07288754 0.12798674 0.04570761 0.08825667 0.101369694 0.30011702 -0.036965944
0.21241982 0.125167 0.40167975 0.0002194179 0.07660444 -0.050460864 0.110243514 0.07486579
-0.033922654 0.018735617 -0.07418575 0.03167135 0.019391267 -0.45068705 -0.5836068 -0.38706586

classify.0.bias f4 [2]
00000000: efe0 82bd b932 af3d
-0.06390559 0.085545965
